model/fbin-b,94.96,450,5.pt (torch, 293455 bytes, 43 tensors)

weight f4 [8, 1, 16]
0	0x3f69f57d	0.9139021
1	0x3f2a9869	0.6663881
2	0xbbecc0f6	-0.007225151
3	0xbebffacd	-0.37496033
4	0xbf86d9d3	-1.0535225
5	0xbfed929b	-1.8560365
6	0xc00ceb9d	-2.2018807
7	0xbff92f7c	-1.9467616
8	0xc005af28	-2.0888157
9	0xbfc5e551	-1.5460607
10	0xbfbf9fd5	-1.4970652
11	0xbf02c5e1	-0.5108319
12	0x3a6bf07a	0.00090003724
13	0x3ee96e6a	0.45592052
14	0x3fa6947d	1.3014065
15	0x3fb36ba0	1.401722
16	0x3f77d057	0.96802276
17	0x3f5f501a	0.872316
18	0x3e78a2b1	0.24280812
19	0x3e9ad878	0.30243278
20	0x3eb59f4d	0.354731
21	0x3a9d558f	0.0012003648
22	0x3da8d2c8	0.08243328
23	0x3de9c124	0.11413792
24	0xbe740f1d	-0.2383389
25	0xbe75fd05	-0.240223
26	0xbefee2c1	-0.49782375
27	0xbf3f418a	-0.7470938
28	0xbf9d6455	-1.2296244
29	0xbf90de0f	-1.1317767
30	0xbfb71068	-1.4301882
31	0xbfdbfc8b	-1.7186445
32	0x3f505810	0.8138437
33	0x3c3311ba	0.010929519
34	0x3dc8c9ae	0.09804092
35	0x3b349085	0.002755196
36	0xbdd27a08	-0.10277182
37	0x3e20d70e	0.15707037
38	0x3edb04a6	0.42776984
39	0x3f095c81	0.53656775
40	0x3f9f5bf3	1.2449936
41	0x3fdc5f26	1.7216537
42	0x402036b9	2.50334
43	0x401ad168	2.4190311
44	0x40000e19	2.0008605
45	0x3f9bf8c7	1.2185296
46	0x3f8eadb2	1.1146758
47	0x3f86b418	1.052371
48	0x3f5dcbee	0.86639297
49	0x3ef4bec7	0.47801802
50	0xbd2aa0db	-0.04165731
51	0xbe968c4b	-0.2940391
52	0xbecd88e6	-0.40143508
53	0xbf17d9aa	-0.59316504
54	0xbfb159cf	-1.3855532
55	0xc00662e1	-2.099785
56	0xc00649d6	-2.0982566
57	0xbfa2c61a	-1.2716706
58	0xbf8af133	-1.0854858
59	0xbea5961c	-0.32341087
60	0x3d7acddd	0.061231483
61	0x3daabd7d	0.08336923
62	0xb55fc445	-8.3359583e-07
63	0x3e3cec20	0.1844945
64	0xbf8fbeb3	-1.1230072
65	0xbf9d516d	-1.2290474
66	0xbf932081	-1.1494294
67	0xbf66f14a	-0.9021193
68	0xbf2bd80d	-0.6712654
69	0xbf17f25f	-0.59354204
70	0xbf0ede82	-0.5580827
71	0xbe82bf31	-0.25536492
72	0x33a05282	7.465589e-08
73	0x3e4e34f9	0.20137395
74	0x3f1e88f2	0.6192771
75	0x3f36981c	0.7132585
76	0x3f7baace	0.983075
77	0x3f90d508	1.1315012
78	0x3fa2c1c9	1.2715389
79	0x3fdeaccb	1.7396482
80	0xbf907bd8	-1.1287794
81	0xbf6469ab	-0.89223737
82	0xbf5e4d18	-0.86836386
83	0xbf1b1806	-0.6058353
84	0xbee867e8	-0.45391774
85	0xbf127411	-0.57208353
86	0xbe890610	-0.26762438
87	0x3f0f2745	0.55919296
88	0x3f34ede9	0.7067552
89	0x3f64fde5	0.8944991
90	0x3fb6a5dc	1.4269366
91	0x3f8fdff3	1.1240219
92	0x3f9798e0	1.1843529
93	0x3f7da804	0.99084496
94	0x3f21d477	0.6321482
95	0x32f92bc0	2.900731e-08
96	0x403d22a0	2.9552383
97	0x4008943c	2.1340475
98	0x3fa046d2	1.2521613
99	0x3f4f2f71	0.80931765
100	0x3f2dc982	0.678856
101	0x3d7bb40c	0.061451003
102	0xbc50d64d	-0.012746406
103	0x3bf49ef5	0.007465238
104	0x35bc0467	1.4008373e-06
105	0xbe739e39	-0.23790826
106	0xbf3117de	-0.69177043
107	0xbf5efa85	-0.8710101
108	0xbfd4d9c8	-1.6628962
109	0xbfec5d0f	-1.8465899
110	0xc0043b5e	-2.0661235
111	0xc00f5c12	-2.2399945
112	0x3f2eb68e	0.68247306
113	0x3dae923f	0.08523988
114	0x3583cbb2	9.819544e-07
115	0xbdbb198c	-0.09135732
116	0x3c0878af	0.008329554
117	0x3e3670a1	0.17816402
118	0x3f49599e	0.7865237
119	0x3f253d1d	0.64546376
120	0x3f26d1be	0.6516379
121	0x3ea97157	0.33094284
122	0xbb2fc222	-0.0026818593
123	0xbd6e2343	-0.058139097
124	0xbe9e3e8c	-0.30907094
125	0x3eeba190	0.460217
126	0x3f8b4403	1.088013
127	0x3fee8a17	1.8635892

weight f4 [8]
0	0x3eb5ba21	0.35493568
1	0x3fff5bee	1.994993
2	0x3fb0881c	1.3791537
3	0x3ef7efe1	0.484252
4	0x3f578ca3	0.8419897
5	0x3f749bc8	0.95550203
6	0x3f52f16d	0.82399637
7	0x3f54b1a5	0.83083564

bias f4 [8]
0	0xbe459929	-0.19296707
1	0x3d7e57f1	0.062095586
2	0xbee82625	-0.45341602
3	0x3c2a1db4	0.010383058
4	0xbe9e3356	-0.3089854
5	0xbe9d19c0	-0.30683708
6	0xbf069568	-0.52571726
7	0xbf45a086	-0.77198064

running_mean f4 [8]
0	0x3ed700f7	0.41992924
1	0x3e510dc8	0.20415413
2	0xbf368f17	-0.7131209
3	0x3f0c6478	0.54840803
4	0x3e9521d7	0.2912738
5	0x3d7d15a1	0.061788205
6	0x3e3b1ddf	0.18273114
7	0xbec9c130	-0.39405203

running_var f4 [8]
0	0x3e06fb44	0.13181788
1	0x3eafe397	0.34353325
2	0x3fc2f524	1.5231061
3	0x3e5a6151	0.21326186
4	0x3e48cb88	0.19608891
5	0x3e9704ce	0.29495853
6	0x3e8b2c17	0.27182075
7	0x3f053015	0.5202649

bias f4 [1, 8, 1]
0	0x3ed07599	0.4071472
1	0x3f565b17	0.8373274
2	0xbe64833a	-0.22315684
3	0x3ec0e2ca	0.37673026
4	0x3f0364da	0.5132576
5	0x3f185a33	0.59512633
6	0x3f566e87	0.837624
7	0x3f2914ec	0.6604755

weight f4 [12, 8, 12]
0	0xbdf80b76	-0.12111561
1	0xbdbf141e	-0.09330009
2	0xbe9e972e	-0.30974716
3	0xbedfd507	-0.43717214
4	0x35a9be03	1.2646782e-06
5	0x3da0dbf9	0.078544565
6	0x3f06bd57	0.5263266
7	0x3f8b5a40	1.0886917
8	0x3f1019f0	0.5628958
9	0xbb39c639	-0.002834691
10	0xbd95495a	-0.07289381
11	0xbf198f09	-0.5998388
12	0xbe3e5bdc	-0.18589729
13	0xbe6bb4a3	-0.23018126
14	0xbd7b03b7	-0.06128284
15	0xbeee016f	-0.4648547
16	0xbe69d370	-0.22834563
17	0x3f1efa6a	0.6210085
18	0x3fd9a79e	1.7004278
19	0x3fdc72ba	1.7222512
20	0x3fb34b47	1.4007348
21	0x3e784d5c	0.2424826
22	0x3efc12a6	0.49232978
23	0x3c4f32dc	0.012646403
24	0xbe0fd719	-0.14046897
25	0x3c4786e9	0.012178161
26	0xbcf0815e	-0.029358562
27	0x35a5d0e2	1.2354251e-06
28	0x3e1bbba3	0.15208296
29	0x3ecae26f	0.3962588
30	0x3dd2a7bf	0.10285901
31	0xbacd1994	-0.0015647882
32	0xbd13b4b6	-0.03606101
33	0x3e6c5977	0.23081003
34	0x3e6d0014	0.23144561
35	0x3385e826	6.235523e-08
36	0x3d14f8da	0.036370136
37	0x3dca33f8	0.098731935
38	0xbaafbd40	-0.0013407841
39	0xbe864ae4	-0.26229012
40	0xbe6983a0	-0.22804117
41	0xbe8fb195	-0.28065172
42	0x3e5816d3	0.21102457
43	0x3f523c4e	0.8212327
44	0x3f48d724	0.7845328
45	0x3f1f15f5	0.6214288
46	0x3c4cb556	0.012494406
47	0xbf19e2a6	-0.60111463
48	0xbb96b388	-0.0045990385
49	0x3e8dd7d5	0.2770373
50	0x3f245958	0.6419883
51	0xbde94714	-0.1139051
52	0x3f822566	1.0167663
53	0x3fe32c40	1.7747879
54	0x40364840	2.8481598
55	0x40272b2f	2.6120107
56	0x3ff64a99	1.9241515
57	0x3fb8b53d	1.443031
58	0xba9a704a	-0.0011782732
59	0xbfc3c347	-1.5293969
60	0xbe86b5f7	-0.26310703
61	0x3d22d0b3	0.039749812
62	0x3d3a2379	0.045443986
63	0xbe1bc0c2	-0.1521025
64	0x3eca457f	0.39506146
65	0x3fa75d1e	1.3075292
66	0x3fe392c9	1.777917
67	0x3f9150c5	1.1352774
68	0x3e7f5800	0.24935913
69	0x3f54106c	0.8283756
70	0x3d48b8b8	0.049004287
71	0xbf5e32fd	-0.8679655
72	0xbeec4ee6	-0.46153945
73	0x3d85655f	0.065134756
74	0xbebc9fbe	-0.36840624
75	0x3cffaa1a	0.03120904
76	0xbd6fc9d2	-0.05854208
77	0x3f24b7c0	0.6434288
78	0x3fcc7fe1	1.5976526
79	0x3f9726fc	1.1808772
80	0x3fa9a318	1.3252897
81	0xbe763ba8	-0.24046195
82	0x3f045348	0.5168958
83	0x3f122e9f	0.5710239
84	0xbc7e49fb	-0.015520568
85	0xbe91f984	-0.28510678
86	0xbd71154f	-0.058858212
87	0x3da6418c	0.08117971
88	0xbed151ac	-0.40882623
89	0xbbacb144	-0.005270155
90	0xb7c55c76	-2.3527286e-05
91	0x3f25fb87	0.64836925
92	0x3f595976	0.8490213
93	0x3f276c44	0.65399575
94	0x3f5d9dd3	0.86568946
95	0x3e8ae5a7	0.27128336
96	0xbd784354	-0.060611084
97	0xbd62b53c	-0.05534862
98	0x39d51c0f	0.0004064743
99	0x3d734a3b	0.059396964
100	0xbeb08877	-0.34479114
101	0xbefd7064	-0.4949981
102	0x3c87b367	0.016565038
103	0x3cc82029	0.024429398
104	0x3e3e0ee1	0.18560363
105	0x3f17f288	0.5935445
106	0x3e7c3bc2	0.24632171
107	0xbcb80557	-0.022463484
108	0xbfec8614	-1.8478417
109	0xbf07e526	-0.5308403
110	0xbb38e6ed	-0.0028213814
111	0x3bdd7754	0.00675861
112	0x3df5f222	0.12009074
113	0xbe78d9fc	-0.24301904
114	0xbea4addf	-0.32163903
115	0xbed8e5f1	-0.4236293
116	0xbee95000	-0.45568848
117	0x3f268728	0.6504998
118	0x400fb56d	2.2454484
119	0x40354c60	2.8327866
120	0xbf6be09e	-0.92139614
121	0x3d787d0b	0.060666125
122	0x3da19547	0.078898005
123	0x3d195787	0.03743699
124	0xbdd4c820	-0.10389733
125	0xbf1841bf	-0.5947532
126	0xbe8906da	-0.2676304
127	0xbc6b88ee	-0.014375908
128	0x3e82fd5d	0.25583926
129	0x3f8a2508	1.0792551
130	0x3fa9c80f	1.3264178
131	0x3f7fc50f	0.9991006
132	0x3fc36cd2	1.5267584
133	0x3f135e46	0.57565725
134	0xbeab51b1	-0.33460763
135	0xbf6dbafc	-0.9286344
136	0xbfa330a4	-1.2749219
137	0xbf9001fe	-1.1250608
138	0xbebfab30	-0.37435293
139	0xba24833c	-0.0006275659
140	0x3b6d7ea2	0.003623881
141	0xb8a82aa8	-8.0188096e-05
142	0x3a6db51d	0.00090678205
143	0x3df2de39	0.11858792
144	0xbf49e30d	-0.78862077
145	0xbec268aa	-0.37970477
146	0xbdce35b2	-0.10068835
147	0xbd100242	-0.035158403
148	0x3e197d5c	0.14989227
149	0xc0195a84	-2.3961496
150	0xc028c20a	-2.6368432
151	0xbfbea168	-1.4893007
152	0x3f80caa0	1.0061836
153	0x403a8782	2.9145207
154	0x40595d89	3.396334
155	0x401dfb7e	2.4684749
156	0xbee1ff74	-0.44140208
157	0xbd8e3ba4	-0.06944969
158	0xbd8771c4	-0.06613496
159	0xbd8fa8b2	-0.07014598
160	0xbe254191	-0.16138293
161	0xbfb5a199	-1.4189941
162	0xbfbe94de	-1.4889181
163	0xbf59eec5	-0.8512996
164	0x3ef585ab	0.47953543
165	0x4005e6a2	2.0922017
166	0x40027077	2.0381143
167	0x3fa9b2c2	1.3257678
168	0xbff085de	-1.8790853
169	0xbebe4660	-0.37163067
170	0xbe6b706c	-0.22992104
171	0xbca7a08c	-0.020462297
172	0xb8da1b15	-0.000104000945
173	0x3c05b052	0.008159714
174	0xbe6a8bf4	-0.2290495
175	0xbbb4a6cc	-0.005513048
176	0xbdc245e7	-0.09485989
177	0x3eb88461	0.36038497
178	0x3f9ebc42	1.2401202
179	0x40015bdb	2.0212314
180	0xbf2b7251	-0.6697131
181	0xbd5d27eb	-0.053993147
182	0xbc310273	-0.010803807
183	0x3d990e59	0.0747344
184	0x3e8d5f8c	0.2761196
185	0x3c1aab75	0.009440293
186	0xbfb75d8c	-1.4325423
187	0xbfc63a8b	-1.5486616
188	0xbe7b5fc2	-0.24548247
189	0x3f9d8d87	1.2308816
190	0x3fbfb6cb	1.4977659
191	0x3ed0ba36	0.40767068
192	0xbedc00eb	-0.4296945
193	0xbe99011f	-0.29883668
194	0x3ec33414	0.3812567
195	0x3f5be8c5	0.85902053
196	0x3ef4da54	0.4782282
197	0x3e7b2705	0.24526604
198	0x3e263587	0.16231357
199	0x390f9cc2	0.0001369594
200	0xbc7c8c46	-0.015414303
201	0xbeead023	-0.4586192
202	0xbef21799	-0.4728363
203	0xbf0894cc	-0.53352046
204	0xbf57824e	-0.84183204
205	0x3d7a1534	0.061055377
206	0x3ec05897	0.3756759
207	0x3d9041f9	0.07043833
208	0x3d0fbc67	0.035091784
209	0xbf0dff4b	-0.5546767
210	0xbe54b1ff	-0.20771025
211	0xbf32f247	-0.69900936
212	0xbfbe47a7	-1.4865617
213	0xbfebda56	-1.8426006
214	0xbf8fc2e6	-1.1231353
215	0xbd8848cb	-0.06654509
216	0xbf2730fd	-0.65309125
217	0xbd9639c9	-0.073352404
218	0xbf2f4e20	-0.68478584
219	0xbfb29097	-1.3950375
220	0xc00d6f44	-2.209916
221	0xbfc9f77c	-1.5778651
222	0xbf74bae2	-0.9559766
223	0xbbca9931	-0.0061828126
224	0x3e1963d2	0.14979485
225	0xbb0f0b0a	-0.0021826648
226	0x3d02771c	0.031851873
227	0x3ec18619	0.3779762
228	0xbf56ce21	-0.8390828
229	0xbe7360a9	-0.23767342
230	0x3ca9b131	0.020714374
231	0x3f699386	0.9124073
232	0x3efe2d8b	0.49644122
233	0x3e8ea669	0.27861336
234	0x3ec2e6ff	0.3806686
235	0x3ecb1ace	0.39668888
236	0x3ebbe57b	0.36698517
237	0xbe8f4bbb	-0.27987465
238	0xbe08e16c	-0.13367242
239	0xbeecc757	-0.46245834
240	0xbfa1a347	-1.2627953
241	0xbf202b22	-0.62565815
242	0xbbd00f0d	-0.0063494504
243	0xbe8067be	-0.2507915
244	0x3df0a96c	0.11751065
245	0x3fb1e361	1.3897516
246	0x400fb5c7	2.2454698
247	0x4011fb76	2.280973
248	0x3c8ec18c	0.017426275
249	0xbd90365c	-0.07041618
250	0xbf46dcac	-0.7768047
251	0xbf039f49	-0.51414925
252	0xbea8f785	-0.33001342
253	0x3e87a04e	0.2648949
254	0x3c4cc046	0.012497013
255	0xbf18981e	-0.5960711

weight f4 [12]
0	0x3f6a90d0	0.91627216
1	0x3f9291cb	1.1450742
2	0x3ed427f5	0.41436735
3	0x3f25f62e	0.64828765
4	0x3f532300	0.8247528
5	0x3f3b0787	0.7305836
6	0x3eb44303	0.35207376
7	0x3f48ec0f	0.78485197
8	0x3f1cd645	0.6126445
9	0x3efc35f0	0.492599
10	0x3f3f5aa0	0.7474766
11	0x3f0dbfd8	0.55370855

bias f4 [12]
0	0xbef16eee	-0.47154945
1	0xbd172ca1	-0.036907796
2	0xbea3169a	-0.3185318
3	0xbf14e1d0	-0.5815706
4	0xbc4c2003	-0.012458804
5	0xbf120c61	-0.5705014
6	0x3eae1cd1	0.3400636
7	0xbeaf0719	-0.34185103
8	0xbe9214ce	-0.28531498
9	0xbdb57cad	-0.08861671
10	0xbe36a730	-0.17837214
11	0xbe900997	-0.28132316

running_mean f4 [12]
0	0x40dc6191	6.88691
1	0x411588e1	9.345918
2	0x413c4ce7	11.768775
3	0x40a7cd1b	5.2437873
4	0x411e6e1a	9.90188
5	0x407a7ede	3.9139934
6	0x41274097	10.453269
7	0x4100f26d	8.059186
8	0x412e1c46	10.881903
9	0x4111cf92	9.113176
10	0x410645e3	8.392062
11	0x410b85e4	8.720188

running_var f4 [12]
0	0x434cee44	204.93073
1	0x43530680	211.02539
2	0x42b309a2	89.518814
3	0x42cd39d5	102.61295
4	0x4303f10f	131.94164
5	0x4340d6d4	192.83917
6	0x42249776	41.14791
7	0x4320705e	160.43893
8	0x434a84d7	202.5189
9	0x42aab88e	85.36046
10	0x42c0521c	96.16037
11	0x42d3a7ce	105.82774

bias f4 [1, 12, 1]
0	0x3ee6c68f	0.45073363
1	0x3e82a506	0.25516528
2	0x3fcc0bab	1.5941061
3	0x3f419d97	0.7563109
4	0x3e13bb77	0.14426981
5	0x3f9ebdc6	1.2401664
6	0xbfbf2b11	-1.4935018
7	0x3f169790	0.58825016
8	0x3e86d552	0.26334625
9	0x3d510c39	0.051037047
10	0x3ecd2bb5	0.40072408
11	0x3fb6cdf9	1.4281608

weight f4 [32, 12, 9]
0	0x3f40a2e9	0.7524858
1	0x3f73fc97	0.95307297
2	0x3eca65d9	0.3953083
3	0xbe39c0bd	-0.1813993
4	0xbef06486	-0.46951693
5	0x3f28473c	0.65733695
6	0x3f5c9a1c	0.8617265
7	0x3f457dce	0.7714509
8	0x3f6a0145	0.9140819
9	0x3e8cfbec	0.2753595
10	0xbe0bcdb9	-0.13652696
11	0xbed993f9	-0.42495707
12	0xbd529ca7	-0.051418927
13	0x3f4ca3e2	0.79937565
14	0x3f24b067	0.6433167
15	0xbea8a7e1	-0.3294058
16	0xbf57b664	-0.8426268
17	0xbf3f328b	-0.746865
18	0xbce1c322	-0.027558867
19	0x3d2be4e9	0.041966353
20	0x3f514ab2	0.817546
21	0xbe09986a	-0.13437048
22	0xbf2da15b	-0.67824334
23	0xbc38f607	-0.011289126
24	0x3f1f460f	0.62216276
25	0x3f44da78	0.76895857
26	0xbc72b55a	-0.014813745
27	0xbf5d29a1	-0.86391646
28	0xbf9f166c	-1.2428718
29	0x3c116af4	0.008875597
30	0x3e0f9ad4	0.14023906
31	0x3f947b04	1.1600041
32	0x3eb3a987	0.35090277
33	0xbf4928ae	-0.785777
34	0xbf8861bd	-1.0654827
35	0x3f382ff8	0.71948195
36	0x3e0a4c7d	0.1350574
37	0x3d1f0c05	0.038829822
38	0xbf64178a	-0.8909842
39	0xbc239a42	-0.009985508
40	0x3d0f722c	0.035020992
41	0x3f928166	1.1445739
42	0x3ebd699d	0.3699464
43	0xbb2db595	-0.0026505936
44	0xbf638b5b	-0.88884515
45	0x3e194fc3	0.14971833
46	0x3ed00d83	0.4063531
47	0x3eaa5625	0.33268848
48	0xbe362aa8	-0.1778971
49	0xbe311e38	-0.17296684
50	0x3f3b2688	0.7310567
51	0x3e8e4559	0.27787283
52	0x3f2a74eb	0.6658465
53	0xbb9732f8	-0.0046142302
54	0x3ef67367	0.4813492
55	0x3b857f03	0.004073979
56	0xbe09259c	-0.13393253
57	0x3e984932	0.29743344
58	0x3f12f21c	0.5740068
59	0xbeaa7ba2	-0.3329745
60	0xbf86b2e3	-1.0523342
61	0xbf4f04cb	-0.8086669
62	0x3d3b80d2	0.04577715
63	0x3eb7f744	0.35930836
64	0x3f83d272	1.0298598
65	0x3f874392	1.0567496
66	0xbd36c532	-0.044621654
67	0x3d9b0b22	0.07570483
68	0xbb173051	-0.002306957
69	0x3f8b61c7	1.0889214
70	0x3fac1413	1.3443626
71	0x3ef5b4e2	0.47989565
72	0x3db148b8	0.08656448
73	0x3f1a6db2	0.6032363
74	0x3f918c88	1.1371012
75	0xbf7fd9c2	-0.9994165
76	0x3dc6cd5a	0.097071365
77	0x3f880a15	1.0628077
78	0x3f733b8a	0.95012724
79	0x3f7b0d36	0.98067033
80	0x3bfbea28	0.0076878257
81	0x3fa65252	1.2993872
82	0x3f2059ab	0.6263682
83	0xbddd2c75	-0.10799495
84	0xbf75c9c5	-0.96011
85	0xbf8b7496	-1.0894954
86	0x3d29cd66	0.04145565
87	0x3e81e6e3	0.25371465
88	0x3a0283d0	0.0004978748
89	0xbbd58ed4	-0.0065172706
90	0xbfcc1469	-1.5943729
91	0xbe04826d	-0.12940378
92	0xbc269d92	-0.010169404
93	0x3fa37093	1.276873
94	0x3e6d5b1e	0.2317929
95	0xbfdacd26	-1.7093856
96	0xbf72b489	-0.94806725
97	0xbe032a7e	-0.12809178
98	0x3faa0f8f	1.3285998
99	0xbc912698	-0.017718598
100	0x3e475405	0.19465645
101	0xbde19834	-0.110153586
102	0x3c7d8eeb	0.015475969
103	0xbd0caab8	-0.034342498
104	0x3d1b5313	0.037921023
105	0xbd157788	-0.036490947
106	0xbe32223a	-0.17395869
107	0xbcda538f	-0.026651172
108	0xbc8b9704	-0.017039783
109	0x3f8129b2	1.0090849
110	0x3f92a4f0	1.1456585
111	0x3d9ff557	0.07810467
112	0xbe229620	-0.1587758
113	0xbcb733cd	-0.022363568
114	0xbfac7402	-1.3472903
115	0xbfa26af7	-1.2688893
116	0xbec7db6c	-0.39034593
117	0x3fc25210	1.5181293
118	0x3f5b991c	0.857805
119	0xbe3f8f64	-0.18707043
120	0xbe864dd9	-0.26231268
121	0xbd84baa2	-0.0648091
122	0x3dd4ead7	0.10396355
123	0xbf9a67a9	-1.2062885
124	0xbe1db7d6	-0.15402159
125	0x3f2900b2	0.66016686
126	0x3dbbea07	0.091754965
127	0xbe8cd6fd	-0.27507773
128	0x3ca815ca	0.020518202
129	0x3f8de751	1.1086217
130	0x3edc9c5e	0.4308805
131	0xbf165b2b	-0.5873286
132	0xbf3ee9de	-0.74575603
133	0x3e8fc7a3	0.28081998
134	0x3e81351c	0.25235832
135	0x3f62a573	0.88533705
136	0x3f8de0a2	1.1084177
137	0x3f1528e1	0.582655
138	0xbfe335dd	-1.7750813
139	0xbf9f1dc7	-1.2430962
140	0xbd0a2985	-0.033731002
141	0x3f23574c	0.6380508
142	0xbdbd50c0	-0.092439175
143	0xbfa1d227	-1.2642258
144	0xbf650a68	-0.89469004
145	0x3d086beb	0.033306044
146	0x3ff1edad	1.8900658
147	0x3faaf136	1.3354862
148	0xbf4acff6	-0.79223573
149	0xbf5a48af	-0.85267156
150	0x3c237027	0.00997547
151	0x3be14dbc	0.0068757217
152	0xbf9468b9	-1.1594459
153	0x3d82132c	0.06351313
154	0x3f2cbc52	0.67474854
155	0x3cd2f9fe	0.025753971
156	0x3f4239e1	0.75869566
157	0x3f25a00f	0.64697355
158	0xbf4c631b	-0.7983872
159	0xc0163c5e	-2.3474345
160	0xbfadbae0	-1.3572655
161	0x3ca4ef45	0.020133624
162	0x3e42f6b2	0.1903942
163	0x3dfb9eba	0.12286134
164	0x3b02f313	0.001998131
165	0xbe60db29	-0.21958603
166	0xbea61618	-0.3243873
167	0xbf00316f	-0.5007543
168	0x3d0e35be	0.03471922
169	0x3ec5b288	0.3861277
170	0xbe49a0df	-0.19690274
171	0xbf6a8205	-0.91604644
172	0xbfe3758e	-1.777025
173	0x3f948de8	1.1605806
174	0x401f7994	2.4917955
175	0x3f05b22d	0.52225
176	0xbfeaedc3	-1.8353809
177	0xb9b584af	-0.00034621867
178	0x3d60d85a	0.05489383
179	0xbf6fb4ef	-0.9363546
180	0x3cbc83ae	0.023012009
181	0x3efe3558	0.49650073
182	0x3df3e137	0.11908191
183	0x3cc8cd41	0.024511935
184	0x3e6b2148	0.22961915
185	0xbf6f535c	-0.9348657
186	0xbf6d6bd7	-0.92742676
187	0xbc8998b2	-0.016796444
188	0xbd1322d9	-0.035921905
189	0xbc671d2c	-0.014106076
190	0xbebefb62	-0.37301165
191	0x3ec35f7d	0.3815879
192	0x3f2d707c	0.6774976
193	0xbea68554	-0.32523596
194	0xbf3f6427	-0.74762195
195	0xbf8422b2	-1.0323088
196	0xbd60a68b	-0.054846328
197	0x3c1d7081	0.009609343
198	0x3ea19a6e	0.31563133
199	0xbfd7c7cd	-1.6857849
200	0xc01efc40	-2.484146
201	0x3d88501f	0.06655907
202	0x3f8b7e88	1.0897989
203	0x3fc22765	1.5168272
204	0x3a8c9d82	0.0010728093
205	0xbe807132	-0.2508636
206	0xbe6012d7	-0.21882187
207	0x3df7696a	0.12080653
208	0x3d359c31	0.04433841
209	0x3cdef78a	0.027217645
210	0x3c6be171	0.014397011
211	0xbf2bda1e	-0.67129695
212	0xbee3ad6c	-0.44468248
213	0xbf29a7ab	-0.66271466
214	0x3ca174cb	0.019709012
215	0xbdee0eb7	-0.116239004
216	0xbe1c31c9	-0.15253367
217	0xbfa27896	-1.269305
218	0xbf7aca0b	-0.97964543
219	0x3b86a636	0.0041091694
220	0xbed0a5c0	-0.40751457
221	0x3d561890	0.05226952
222	0x3e5af5af	0.21382783
223	0x3fb3831c	1.4024386
224	0x3e5e158a	0.21687904
225	0xbface2c5	-1.3506705
226	0xbfecf872	-1.851332
227	0xbeeebdf9	-0.46629313
228	0x3e6d5cb6	0.23179898
229	0xbdbada73	-0.09123697
230	0x3f1654c5	0.587231
231	0x401bbd9a	2.4334474
232	0x3f86fc9a	1.0545838
233	0xbf1f9f34	-0.623523
234	0x3f08d7d5	0.53454334
235	0x3ebe9f88	0.37231088
236	0x3d1b9272	0.037981458
237	0xbe36810e	-0.17822668
238	0xbd48de64	-0.049040213
239	0xbf27d012	-0.65551865
240	0xbf2f298c	-0.6842277
241	0xbea73b0a	-0.3266223
242	0x3cc98d44	0.024603494
243	0xbc046df6	-0.008082857
244	0xbc951f47	-0.01820339
245	0x3eef0bea	0.46688777
246	0x3f1c104a	0.60962355
247	0x3ec6b6aa	0.38811237
248	0xbfa90563	-1.3204769
249	0xbf91386c	-1.1345344
250	0xbe0ba7cf	-0.13638233
251	0x3f422c93	0.75849265
252	0x3d98e064	0.07464674
253	0xbe0d07e1	-0.13772537
254	0xbec18baf	-0.37801883
255	0xbdb18aad	-0.086690284

weight f4 [32]
0	0x3f0ca54f	0.5493974
1	0x3f396ade	0.7242869
2	0x3f8ba361	1.0909234
3	0x3ef55218	0.47914195
4	0x3f7c0228	0.9844079
5	0x3f264aa2	0.6495763
6	0x3f2ce0fa	0.67530787
7	0x3f193935	0.59852916
8	0x3f4cf8a7	0.80066913
9	0x3f646a5d	0.892248
10	0x3f3bcc15	0.7335828
11	0x3f79dd4c	0.976033
12	0x3f4b1eb7	0.7934374
13	0x3f0ebad3	0.5575382
14	0x3f0b4165	0.5439666
15	0x3f1fcc3c	0.6242101
16	0x3f2897a1	0.6585637
17	0x3f01475b	0.50499505
18	0x3f403a3f	0.75088876
19	0x3f529196	0.82253397
20	0x3ef74374	0.4829365
21	0x3f1d868c	0.6153343
22	0x3f38bb8a	0.7216116
23	0x3f512f73	0.81713027
24	0x3fa0aabb	1.2552103
25	0x3f320c80	0.69550323
26	0x3f372410	0.715394
27	0x3f29f4fe	0.66389453
28	0x3f495217	0.78640884
29	0x3f131690	0.574563
30	0x3f07987c	0.5296705
31	0x3f3b80bf	0.73243326

bias f4 [32]
0	0xbee1feb8	-0.44139647
1	0xbe337399	-0.17524566
2	0x3eda909f	0.42688462
3	0xbdda0479	-0.10645384
4	0x3f13129e	0.5745028
5	0x3e80e931	0.2517791
6	0xbef2e521	-0.47440436
7	0xbe556e15	-0.20842774
8	0xbd517f2b	-0.051146667
9	0x3cc0d44e	0.023538735
10	0xbd80e243	-0.06293156
11	0x3ed8ab11	0.42318013
12	0x3c907628	0.017634466
13	0xbe2e44a8	-0.17018378
14	0xbe1600c2	-0.14648727
15	0xbd711461	-0.058857325
16	0xbe23fe14	-0.16014892
17	0xbd79ac7c	-0.06095551
18	0xbe4dfc45	-0.20115764
19	0xbe5997f0	-0.21249366
20	0xbe468b7a	-0.19389144
21	0xbee6776b	-0.45012984
22	0x3d883c4d	0.066521265
23	0x3e1a4d6f	0.15068601
24	0x3f0894fa	0.5335232
25	0xbed022b0	-0.40651464
26	0xbf568e9c	-0.83811355
27	0x3e328f14	0.17437392
28	0xbdb21cff	-0.08696937
29	0xbe8915f0	-0.2677455
30	0x3d3940a1	0.04522765
31	0xbef04b7c	-0.4693259

running_mean f4 [32]
0	0x41450869	12.314553
1	0x41d80f75	27.007547
2	0x413f5acd	11.959668
3	0x413234e4	11.137913
4	0x4108d914	8.552998
5	0x41878c02	16.943363
6	0x41891ea3	17.13996
7	0x413f14bd	11.942563
8	0x412020d2	10.008013
9	0x41801b7f	16.013426
10	0x41854668	16.659378
11	0x41445368	12.270363
12	0x41824d65	16.28779
13	0x412c8cdb	10.784389
14	0x419bac70	19.459198
15	0x41240288	10.250618
16	0x4187a984	16.957771
17	0x40b328f7	5.5987506
18	0x418b250c	17.39309
19	0x416c91a9	14.785562
20	0x41a215ec	20.260704
21	0x415849a5	13.51798
22	0x41a9e4cb	21.236715
23	0x4196df7e	18.859127
24	0x41b7ffb3	22.999853
25	0x40a77878	5.2334557
26	0x4165fa11	14.373551
27	0x413479d5	11.279744
28	0x415e5270	13.895126
29	0x418589b0	16.69223
30	0x4118bdc0	9.546326
31	0x41ba13a7	23.259596

running_var f4 [32]
0	0x42bfd85b	95.92257
1	0x436e3ab2	238.22928
2	0x4338a5fc	184.64838
3	0x429b5670	77.66882
4	0x437eb409	254.70326
5	0x42a8d67b	84.41891
6	0x42c086a4	96.26297
7	0x429616af	75.044304
8	0x4303fdf2	131.99197
9	0x432b57dd	171.34322
10	0x43369fc9	182.62416
11	0x436f3aa2	239.22903
12	0x433555e0	181.33545
13	0x42e60e52	115.02797
14	0x4306725b	134.4467
15	0x42cf1ccb	103.55624
16	0x432e57c3	174.34282
17	0x42decf28	111.4046
18	0x4318af7c	152.68549
19	0x4328627b	168.38469
20	0x430a6bcf	138.42113
21	0x42d82c39	108.08637
22	0x433e5aaa	190.35416
23	0x430355fd	131.33589
24	0x4364b1af	228.69408
25	0x42ec80a7	118.251274
26	0x42d20e91	105.02845
27	0x42d91513	108.54116
28	0x432acc60	170.79834
29	0x431dac1e	157.67233
30	0x43022b58	130.16931
31	0x43211194	161.06866

bias f4 [1, 32, 1]
0	0xbf44ee15	-0.76925784
1	0xbf5b75e7	-0.8572678
2	0xbf034830	-0.51282024
3	0x3e869291	0.26283696
4	0x3f11f3e4	0.5701277
5	0x3f4a31eb	0.7898242
6	0xbfd6bf39	-1.6777107
7	0xbf113a53	-0.5672962
8	0xbfcc50d2	-1.5962164
9	0xbdea7b69	-0.1144932
10	0x3f28915f	0.6584682
11	0x3f8eab6c	1.1146064
12	0x3d8ec554	0.06971231
13	0x3f779c2f	0.9672269
14	0x3ff9895d	1.9495045
15	0xbe7902ef	-0.24317525
16	0xbecde968	-0.40217137
17	0xbe4d21ab	-0.20032375
18	0xbe496e23	-0.1967092
19	0x3f3a47ec	0.72765994
20	0xbe486f2c	-0.19573659
21	0xbf43b33d	-0.7644537
22	0x3a64b016	0.00087237486
23	0xbe1193b5	-0.14216502
24	0x3e8171aa	0.2528203
25	0xbf2f9f02	-0.68602
26	0xbf684f66	-0.9074615
27	0x3ec3696a	0.38166362
28	0x3ecbfb68	0.39840245
29	0x3e01c9d4	0.12674648
30	0xbef49ad3	-0.47774372
31	0xbcee55b9	-0.02909361

weight f4 [64, 32, 7]
0	0x3db39072	0.08767785
1	0xbd4f05cb	-0.050542634
2	0xbe829a80	-0.255085
3	0xbf1225b2	-0.5708877
4	0xbec07b07	-0.37593862
5	0xbec66e6c	-0.3875612
6	0xbebcef0f	-0.36901137
7	0xbee71ab8	-0.45137572
8	0xbe5237fd	-0.2052917
9	0xbe6c75a7	-0.23091756
10	0x3ef002a8	0.46877027
11	0xbe19c2a3	-0.15015654
12	0xbe85c5cd	-0.26127473
13	0xbf11a44d	-0.5689133
14	0x3eb079d0	0.34467936
15	0xbf0c88da	-0.5489632
16	0xbea81a9b	-0.32832798
17	0xbfdc8d96	-1.7230709
18	0xbe27604e	-0.16345331
19	0xbce088a9	-0.027408915
20	0x3ea4fd36	0.32224435
21	0xbc073760	-0.0082529485
22	0xbe697ffd	-0.2280273
23	0xbede69fc	-0.43440235
24	0xbe9e3472	-0.30899388
25	0x3c8b3611	0.016993554
26	0x3e6c278a	0.23061958
27	0xbe007f80	-0.12548637
28	0x3f7a8d19	0.9787155
29	0x3ef3db05	0.47628036
30	0x3d561a79	0.05227134
31	0xbf4b270a	-0.79356444
32	0x3f9e88e7	1.2385529
33	0x3fcab29e	1.583576
34	0x3f6735ba	0.90316355
35	0xbe324a24	-0.17411095
36	0xbde33e33	-0.11095848
37	0x3e1e0b0f	0.15433906
38	0x3e67de82	0.22643474
39	0xbe4eb515	-0.20186265
40	0xbea91feb	-0.33032164
41	0x3e7fb0e3	0.2496982
42	0xbdc08de0	-0.094020605
43	0x3ddc7f27	0.1076644
44	0xbdf2b45f	-0.11850809
45	0xbeebf82e	-0.46087784
46	0xbe52d161	-0.20587684
47	0xbd51fe10	-0.051267684
48	0x3e4fd771	0.20297028
49	0x3ddfa38a	0.109198645
50	0xbe0f9329	-0.14020981
51	0xbef8ded5	-0.48607507
52	0xbd7eda5f	-0.062219974
53	0x3ed3f768	0.41399693
54	0x3e8d3591	0.2757993
55	0xbe6188f5	-0.22024901
56	0x3ebc8c1b	0.36825642
57	0x3f0b99f2	0.54531777
58	0x3f0d0548	0.55086184
59	0x3ea4e34f	0.32204673
60	0xbeb40223	-0.3515788
61	0x3cf315c4	0.029673465
62	0x3f2883eb	0.6582629
63	0x3e82c9b9	0.25544527
64	0x3f631efd	0.8871916
65	0x3f0f4be8	0.559752
66	0x3f05fcd6	0.5233892
67	0x3eb4af35	0.35289922
68	0x3ed0ed36	0.40805978
69	0xbea3e972	-0.32014042
70	0xbecc2be2	-0.3987723
71	0xbdc7c0eb	-0.09753593
72	0xbebb9c20	-0.3664255
73	0xbe16344e	-0.1466839
74	0xbdc32c63	-0.095299505
75	0xbef07ce2	-0.46970278
76	0xbec681bd	-0.38770857
77	0x3dc7e171	0.097597964
78	0x3a500b35	0.000793624
79	0xbe9f86ec	-0.31157625
80	0xbe88dd3f	-0.26731297
81	0xbe8c1f40	-0.27367592
82	0x3ea4c2b5	0.321798
83	0x3ef98866	0.48736876
84	0x3eec5a41	0.46162608
85	0x3d913398	0.07089919
86	0x3ec4e51f	0.38456056
87	0x3f522052	0.82080567
88	0x3f1fd696	0.6243681
89	0xbf21482a	-0.6300074
90	0xbce5eca5	-0.028066942
91	0x3c94ad3c	0.01814901
92	0x3edb7edb	0.4287022
93	0xbeee75c6	-0.4657423
94	0xbfb1d174	-1.3892045
95	0x3cc54126	0.024078917
96	0x3de1b853	0.11021485
97	0x3d90da03	0.070728324
98	0x3ebfdb2c	0.37471902
99	0xb8e80df1	-0.00011065219
100	0xbe0cee86	-0.13762864
101	0xbf377917	-0.71669143
102	0x3e44314d	0.19159432
103	0x3d3f76c3	0.04674412
104	0x3d3f9f53	0.046782803
105	0x3b541504	0.003236116
106	0x3f115d81	0.567833
107	0x3d8d5574	0.069010645
108	0xbf01cb50	-0.50700855
109	0xbe66c8f8	-0.22537601
110	0xbe248fa6	-0.16070423
111	0xbf038eac	-0.51389575
112	0x3ee5a1e8	0.44850087
113	0xbe1b5d4c	-0.15172309
114	0xbd99ec2a	-0.07515748
115	0x3d94ee0a	0.07271965
116	0x3d2a86a3	0.041632306
117	0xbfabf0be	-1.3432844
118	0xbc0f12b3	-0.008732486
119	0xbd0fe448	-0.035129815
120	0xbdaeb555	-0.0853068
121	0xbeba1567	-0.36344454
122	0xbe2afe41	-0.16698553
123	0xbcb90084	-0.022583254
124	0xbd9d3306	-0.076757476
125	0xbea7199d	-0.3263673
126	0xbf0f99d9	-0.5609413
127	0xbd0ef199	-0.034898374
128	0xbf153c28	-0.58294916
129	0xbc8477a6	-0.016170334
130	0xbd8ae303	-0.0678158
131	0x3e65cfd2	0.22442558
132	0xbeac52c7	-0.33656904
133	0xbebdad9e	-0.37046522
134	0x3ce3400b	0.027740499
135	0x3e891771	0.26775697
136	0xbe9532df	-0.29140374
137	0xbf61e3fd	-0.8823851
138	0x3dcb8741	0.09937907
139	0xbd5d08f3	-0.053963613
140	0x3d36a61f	0.04459202
141	0x3dea1541	0.11429835
142	0xbe75faa9	-0.240214
143	0xbf14653b	-0.57966965
144	0xbd1a7766	-0.037711523
145	0x3e6fe268	0.23426211
146	0x3da9acc0	0.082849026
147	0x3e84070f	0.25786635
148	0x3fb7f181	1.4370576
149	0x3f9c1fe6	1.2197235
150	0x3e7649f6	0.24051651
151	0xbc80ff6f	-0.0157468
152	0xbb905678	-0.004404839
153	0xbe01e4a2	-0.12684873
154	0xbed1f8c5	-0.4101011
155	0x3e45843e	0.19288728
156	0xbcceda36	-0.025250535
157	0x3d4140e3	0.04718102
158	0xbe0cd871	-0.13754441
159	0x3f4d16f6	0.8011316
160	0x3fb900c9	1.4453365
161	0xbf170b11	-0.5900126
162	0xbf5833e7	-0.84454197
163	0xbef70f72	-0.4825397
164	0xbdaa0cd1	-0.08303226
165	0x3c2389b4	0.009981561
166	0xbd8cdba1	-0.068778284
167	0xbef58197	-0.47950432
168	0xbd6331dd	-0.055467475
169	0xbe525554	-0.20540363
170	0xbf5b9e23	-0.8578817
171	0x3ef12e9e	0.4710588
172	0x3e215f0b	0.15758912
173	0x3c87f862	0.01659793
174	0xbf301065	-0.68775016
175	0xbe903a68	-0.2816956
176	0xbe6c6d6f	-0.2308862
177	0xbde3f37b	-0.111304246
178	0xbc8f7ace	-0.017514613
179	0xbec95e63	-0.39329824
180	0xbf89c5c1	-1.0763475
181	0xbea804ae	-0.3281607
182	0xbee6d262	-0.45082384
183	0xba389f04	-0.0007042738
184	0xbf03f415	-0.51544315
185	0xbf316a9e	-0.6930331
186	0xbf83b0f0	-1.0288372
187	0xbf6a24c1	-0.9146233
188	0xbed5eba6	-0.41781348
189	0x3f339621	0.70150954
190	0xbddaf575	-0.106913485
191	0xbd841613	-0.06449523
192	0xbef8617c	-0.48511875
193	0xbd46e73d	-0.04856037
194	0x3e828334	0.25490725
195	0x3f4d929f	0.8030185
196	0xbe84ac8e	-0.259129
197	0xbecb9cc0	-0.39768028
198	0x3d82d98b	0.06389149
199	0xbe686928	-0.22696364
200	0xbdc3e490	-0.09565079
201	0x3eb548f8	0.35407233
202	0x3f038848	0.51379824
203	0xbddc8c63	-0.10768964
204	0xbf0b3f75	-0.543937
205	0x3b06f893	0.002059494
206	0xbee4231b	-0.44558033
207	0xbf8039b4	-1.001761
208	0xbf1dda1a	-0.6166092
209	0x3d9c1f28	0.0762313
210	0xbebac107	-0.36475393
211	0x3e1cdb8e	0.15318128
212	0xbec343c6	-0.38137645
213	0xbf1bb4e6	-0.60822904
214	0xbd6f7e47	-0.058470037
215	0x3da209c0	0.07912016
216	0x3e769535	0.24080355
217	0x3e569369	0.2095467
218	0x3e5e1747	0.21688567
219	0xbf26b143	-0.6511423
220	0xbe351490	-0.17683625
221	0x3a40560a	0.00073370396
222	0x3d16a9d1	0.036783043
223	0xbdf60873	-0.1201333
224	0xbe73c632	-0.23806074
225	0x3e105617	0.1409534
226	0x3e9a70f6	0.30164307
227	0x3e109de9	0.14122738
228	0xbcd78425	-0.026308129
229	0xbd980e2c	-0.07424578
230	0x3de51898	0.111863315
231	0x3c5d5a83	0.013510349
232	0x3c81d86c	0.015850268
233	0xbae7a97e	-0.0017674414
234	0xbe44199e	-0.19150397
235	0x3f1bfa5d	0.609289
236	0x3f8c9b03	1.0984806
237	0x3e3928a0	0.18081903
238	0xbd231715	-0.039816935
239	0x3dafb151	0.08578742
240	0x3ca8c8e4	0.020603605
241	0xbe41d2e5	-0.18928106
242	0xbe6d9f31	-0.23205258
243	0xbf0bc408	-0.54595995
244	0x3e938bbd	0.2881755
245	0xbe0db822	-0.13839772
246	0xbd6d3ef9	-0.057921384
247	0x3edfec18	0.43734813
248	0x3ecd2cec	0.40073335
249	0xbd02ee99	-0.031965826
250	0x3c904e9d	0.01761561
251	0x3ebec4e5	0.37259594
252	0xbdf0d91c	-0.1176016
253	0x3ddc010f	0.107423894
254	0xbda9760c	-0.08274469
255	0x3c6e3cee	0.014540894

weight f4 [64]
0	0x3f4f6ccc	0.81025386
1	0x3f2c5695	0.67319614
2	0x3f2c03d4	0.6719334
3	0x3f634736	0.88780534
4	0x3f175887	0.59119457
5	0x3f4f16af	0.8089399
6	0x3f65dc88	0.8978963
7	0x3f12ac80	0.57294464
8	0x3f1a5ca6	0.6029762
9	0x3f4f0a28	0.8087487
10	0x3f23877e	0.6387862
11	0x3f84ab91	1.0364858
12	0x3f733842	0.9500772
13	0x3f0b4e22	0.54416096
14	0x3f5b6d06	0.8571323
15	0x3f907a2f	1.1287287
16	0x3f70f0f5	0.9411767
17	0x3f99f559	1.2027999
18	0x3f2b5264	0.66922593
19	0x3f75fc4d	0.96088105
20	0x3f407e53	0.75192755
21	0x3f6b675e	0.919546
22	0x3f317f54	0.6933491
23	0x3f6849ea	0.90737784
24	0x3f5fb730	0.87388897
25	0x3f5cc82e	0.8624295
26	0x3f642ede	0.89134014
27	0x3f58f75d	0.84752446
28	0x3f4b39a4	0.7938483
29	0x3f5cdcc8	0.86274385
30	0x3f7e14cd	0.9925049
31	0x3fa07601	1.2536012
32	0x3f51ece5	0.820021
33	0x3f904297	1.1270322
34	0x3f450fde	0.76977336
35	0x3f81d403	1.0142826
36	0x3f4de828	0.8043237
37	0x3f5810cf	0.8440065
38	0x3f16d6d9	0.5892158
39	0x3f172870	0.5904608
40	0x3f924efc	1.1430354
41	0x3f5eb603	0.8699648
42	0x3f6efd7b	0.9335553
43	0x3f63e487	0.8902058
44	0x3f43052b	0.7617976
45	0x3f1c2dd9	0.6100746
46	0x3f0b73ae	0.5447339
47	0x3f68d547	0.90950435
48	0x3f5b2564	0.8560393
49	0x3f4ad7f6	0.7923578
50	0x3f3be00b	0.7338874
51	0x3f8dfa6a	1.1092045
52	0x3f91b4e0	1.1383324
53	0x3f49e6ba	0.78867686
54	0x3f6d4dfc	0.9269712
55	0x3f51071b	0.8165147
56	0x3f279c3c	0.6547277
57	0x3f6b7116	0.9196943
58	0x3f768d13	0.9630901
59	0x3f29a2bf	0.66263956
60	0x3ef8c77d	0.48589697
61	0x3f08e853	0.534795
62	0x3f591ff1	0.84814364
63	0x3fab31d3	1.337458

bias f4 [64]
0	0xbe89ef8f	-0.2694058
1	0xbec66eed	-0.38756505
2	0xbe321c91	-0.1739371
3	0xbedf52ce	-0.43617862
4	0xbda2865c	-0.07935783
5	0xbf92fedf	-1.148403
6	0xbed764fe	-0.42069238
7	0xbeb17b18	-0.34664226
8	0xbe79ee6c	-0.24407357
9	0xbf41a8e1	-0.75648314
10	0x3d33ef92	0.043929644
11	0xbf32ed46	-0.698933
12	0xbf81400c	-1.009767
13	0x3d83ae7f	0.06429767
14	0x3f121226	0.5705894
15	0xbe93818b	-0.2880977
16	0x3dc191ba	0.09451623
17	0xbea733e0	-0.32656765
18	0x3de14876	0.11000149
19	0xbdae49a1	-0.08510137
20	0xbe32bab7	-0.17454039
21	0xbf4fcce3	-0.8117201
22	0x3dde97bd	0.108687855
23	0x3ef8e00b	0.4860843
24	0xbf2468c0	-0.64222336
25	0xbf67713f	-0.90407175
26	0xbd5dfd08	-0.054196388
27	0xbf770e8b	-0.96506566
28	0xbe2daa2b	-0.16959445
29	0xbef352a2	-0.4752398
30	0xbf2466cf	-0.64219373
31	0x3ef197fb	0.47186264
32	0x3e29d4dc	0.16585106
33	0xbec36012	-0.38159233
34	0xbf00ac0a	-0.5026251
35	0xbd1f9a3a	-0.03896544
36	0xbdb69b4f	-0.089163415
37	0xbec5747d	-0.38565436
38	0xbf231b6f	-0.63713735
39	0xbf3c6bbe	-0.736019
40	0x3ebee481	0.3728371
41	0xbf2f7510	-0.68538
42	0xbf80b678	-1.0055685
43	0x3f072d11	0.5280314
44	0x3ef33fad	0.47509518
45	0x3b072741	0.0020622762
46	0xbe725602	-0.23665622
47	0x3da5c338	0.08093876
48	0xbf044e53	-0.51682013
49	0x3e1a1fe7	0.15051232
50	0xbdad00d9	-0.08447427
51	0xbe231739	-0.15926827
52	0x3cc80275	0.024415234
53	0xbf220009	-0.63281304
54	0xbf56d08f	-0.83911985
55	0xbf441b99	-0.7660461
56	0xbce5c0bf	-0.02804601
57	0xbf195c26	-0.5990623
58	0x3e430414	0.19044524
59	0xbc1d9ded	-0.009620172
60	0xbe1fe82f	-0.15615915
61	0xbe1dae3f	-0.15398501
62	0xbf445a5f	-0.76700395
63	0xbe0f5477	-0.13997065

running_mean f4 [64]
0	0x42769819	61.648533
1	0x403fe163	2.9981315
2	0x4235bc68	45.43399
3	0xc25ece82	-55.701668
4	0x410aa774	8.665882
5	0xc00567fa	-2.0844712
6	0x41939b6e	18.450893
7	0x4243ac85	48.918476
8	0x41cbd5d6	25.479412
9	0x42465c8b	49.590374
10	0x4202494c	32.57158
11	0x40af776d	5.4833283
12	0xc16213c7	-14.129828
13	0x420ed52a	35.708168
14	0x41deec7b	27.865469
15	0xc088ed91	-4.279
16	0x41d9f0d7	27.242598
17	0x41979bb8	18.951035
18	0x406159a1	3.5210955
19	0x40f67492	7.70173
20	0x42041e3a	33.02952
21	0xbc174d5a	-0.009234751
22	0x4215cf66	37.452538
23	0x41a97955	21.184244
24	0xc1789d84	-15.538456
25	0xc15dab16	-13.854269
26	0x41f51d91	30.639437
27	0xc1b977c0	-23.183472
28	0x4184ce99	16.600878
29	0x423f3e54	47.810867
30	0xc1e5dbc6	-28.732311
31	0x423ee20d	47.720753
32	0x41cd4456	25.658367
33	0x410e2d7f	8.886107
34	0xc17e766b	-15.903911
35	0x409ea21c	4.9572887
36	0xc2085506	-34.08303
37	0x418b2397	17.392378
38	0xc093eaa5	-4.622393
39	0x41876474	16.92405
40	0x42308313	44.128002
41	0x418bba98	17.46611
42	0xc25561a9	-53.34537
43	0x41fb7718	31.433151
44	0x4226c8fe	41.69628
45	0x4233da2a	44.96305
46	0x410a0bd1	8.627885
47	0x42322324	44.534317
48	0x4112dc74	9.178822
49	0x42378dd5	45.888508
50	0x41eb3702	29.40186
51	0x41a3ce9f	20.47589
52	0xc04ed838	-3.231947
53	0xc111ded2	-9.1168995
54	0x41b0516c	22.039757
55	0x419f4cdf	19.912535
56	0x421c04d0	39.0047
57	0x416c1698	14.755516
58	0x4206fec4	33.748795
59	0x41b882f4	23.063942
60	0x41b9dc37	23.232527
61	0x41b1913d	22.195917
62	0x4244c448	49.19168
63	0x42013601	32.30274

running_var f4 [64]
0	0x43f5a9f5	491.3278
1	0x43bba163	375.26083
2	0x43556e36	213.43051
3	0x442ccd32	691.2062
4	0x43b97720	370.93066
5	0x435454c7	212.33116
6	0x43be5e9b	380.7391
7	0x439feead	319.86465
8	0x438b47e1	278.56155
9	0x439363dc	294.78015
10	0x4389b03a	275.37677
11	0x439e1d45	316.22867
12	0x43cabf38	405.4939
13	0x436f8673	239.52519
14	0x43754e75	245.30647
15	0x43b77e20	366.98535
16	0x440ba69f	558.60345
17	0x4443f259	783.7867
18	0x43d74db5	430.6071
19	0x43c09f4a	385.24445
20	0x4389ee47	275.86154
21	0x43a9ee72	339.86285
22	0x43df64be	446.78705
23	0x43e28800	453.0625
24	0x43d8fe97	433.98898
25	0x43c0a85f	385.3154
26	0x43bbdee5	375.74136
27	0x4386d702	269.67975
28	0x43c6facb	397.95932
29	0x43ccca97	409.58273
30	0x43b48061	361.00296
31	0x43be2e22	380.3604
32	0x43cb20ce	406.2563
33	0x441ea064	634.5061
34	0x43afa6fb	351.30453
35	0x43c894bf	401.16208
36	0x43e1fd4b	451.97885
37	0x43b84eef	368.61667
38	0x43e7be6b	463.48764
39	0x435cc35b	220.7631
40	0x43ec2c87	472.34787
41	0x43daff1c	437.99304
42	0x4410dffa	579.49963
43	0x43c01820	384.18848
44	0x43ae88eb	349.06967
45	0x43828323	261.0245
46	0x43a8d402	337.6563
47	0x43d6d7f4	429.68713
48	0x44006a67	513.66254
49	0x43e8724c	464.89294
50	0x43a681bf	333.01364
51	0x43da5d95	436.7311
52	0x4404484e	529.12976
53	0x43b435df	360.42087
54	0x43ba1b2b	372.21225
55	0x43752689	245.15053
56	0x43947be1	296.9678
57	0x43d2ae31	421.36087
58	0x43b050ad	352.63028
59	0x4385451c	266.53992
60	0x432cb823	172.71928
61	0x43dfc603	447.54697
62	0x43c91509	402.16434
63	0x4410dfc1	579.49615

bias f4 [1, 64, 1]
0	0xbd74955f	-0.059712764
1	0xbe8f003b	-0.27929863
2	0xbf9f27d4	-1.243403
3	0xbf2b3787	-0.66881603
4	0x3ed8b7d9	0.42327765
5	0xbf820438	-1.0157537
6	0xbf462ae7	-0.77409214
7	0xbf451483	-0.76984423
8	0x3ec00529	0.37503937
9	0xbf3362cd	-0.70072633
10	0xbed8d405	-0.42349258
11	0xbe96061a	-0.2930153
12	0xbf0fb0e9	-0.5612932
13	0x3e9e1275	0.30873457
14	0xbf86a759	-1.051982
15	0xbecdf532	-0.40226132
16	0x3f0ba4c0	0.54548264
17	0xbe684795	-0.22683556
18	0xbf88ed25	-1.0697371
19	0xbf296153	-0.6616413
20	0x3cca03f1	0.024660083
21	0xbe846c9c	-0.25864112
22	0x3fb96f31	1.4487058
23	0xbe5f0012	-0.2177737
24	0xbe69d48c	-0.22834986
25	0xbea65cdf	-0.3249273
26	0xbe0fa537	-0.14027868
27	0xbf086ad0	-0.5328798
28	0x3f707aaa	0.9393717
29	0xbeb24187	-0.34815618
30	0x3f66b75e	0.90123546
31	0xbf2566de	-0.6461009
32	0x3ee589f4	0.44831812
33	0x3f317f78	0.69335127
34	0x3efcd42b	0.4938062
35	0xbe1980e2	-0.14990571
36	0xbdedd2f0	-0.11612499
37	0xbde279e9	-0.11058409
38	0xbf145016	-0.579347
39	0x3efd8dea	0.49522334
40	0xbe5d8267	-0.21631776
41	0xbf8b42cd	-1.0879761
42	0xbef6d799	-0.48211363
43	0xbebdb158	-0.37049365
44	0x3e0dfdb5	0.13866313
45	0xbf11675c	-0.5679834
46	0x3fbef4d4	1.4918466
47	0x3e1944ef	0.14967702
48	0xbf2bef89	-0.67162377
49	0xbea1d930	-0.31611013
50	0xbf9e5b2d	-1.2371575
51	0xbef3f112	-0.4764486
52	0x3ed60749	0.41802433
53	0xbf83e66a	-1.0304692
54	0xbeaaab6e	-0.33333915
55	0xbea0e5bf	-0.31425282
56	0xbe2987ae	-0.16555664
57	0x3d5a610a	0.0533152
58	0xbf7ed007	-0.99536175
59	0x3ebe0f59	0.37121084
60	0x3f1a599e	0.60292995
61	0x3ed28181	0.4111443
62	0x3e936c9a	0.28793794
63	0xbe1f3e56	-0.15551123

weight f4 [64, 64, 5]
0	0x3f50c0c3	0.8154413
1	0x3d4a6613	0.04941375
2	0xbd7ed771	-0.06221718
3	0x3e3bf1ea	0.18354002
4	0x3cb716ae	0.022349682
5	0x3e18012a	0.14844194
6	0xbec2c950	-0.38044214
7	0x3edff765	0.43743435
8	0x3c452ee1	0.012035103
9	0xbe9d9928	-0.3078091
10	0xbd6845e1	-0.056707267
11	0x3d21437a	0.03937099
12	0x3e09cba7	0.13456593
13	0xbdd7e41f	-0.105415575
14	0x3e121f25	0.14269693
15	0xbf3fd5bc	-0.7493551
16	0xbe19fd13	-0.15037946
17	0xbe4d9089	-0.20074667
18	0xbf11940a	-0.56866515
19	0xbf1ec577	-0.6202006
20	0xbf046d2f	-0.517291
21	0x3d0edffa	0.03488157
22	0xbeebc454	-0.46048224
23	0xbe75dd4d	-0.24010201
24	0xbcd79930	-0.026318163
25	0xbf38fced	-0.72260934
26	0xbe3ec270	-0.1862886
27	0xbeccd727	-0.40007898
28	0xbfea71f2	-1.8316023
29	0xc005afc8	-2.0888538
30	0xbf468c6a	-0.77558005
31	0xbab07faf	-0.0013465787
32	0xbead629c	-0.33864295
33	0xbef5cd2c	-0.48008096
34	0x3e402592	0.18764332
35	0xbea0dc17	-0.31417915
36	0xbecdf886	-0.4022867
37	0xbda0f56a	-0.07859309
38	0xbf0cc6b8	-0.5499072
39	0xbf68be6e	-0.9091557
40	0x3d4bbd26	0.049740933
41	0xbcef9d94	-0.029249944
42	0x3e673ca9	0.22581734
43	0xbf19e3b8	-0.60113096
44	0x3d8f9389	0.07010562
45	0xbed12ddb	-0.40855297
46	0xbe08d88a	-0.13363853
47	0x3d990741	0.07472087
48	0xbf0b9117	-0.54518265
49	0xbcacc2f6	-0.021089058
50	0xbf31731d	-0.69316274
51	0xbda27904	-0.07933238
52	0xbf10e34a	-0.56596816
53	0xbe10bb9f	-0.14134072
54	0x3f1b08f0	0.6056051
55	0xbe9e8c09	-0.30966213
56	0xbf0d1188	-0.55104876
57	0xbe266590	-0.1624968
58	0xbed6f470	-0.41983366
59	0xbf55594a	-0.8333937
60	0xbfe75a9f	-1.807453
61	0xbf9e8275	-1.2383562
62	0xbfa85450	-1.315073
63	0xbec2762d	-0.37980786
64	0xbf053519	-0.52034146
65	0x3e1b7b5d	0.15183778
66	0x3ea3b73c	0.31975734
67	0xbcd5dece	-0.026107218
68	0xbe726882	-0.23672679
69	0xbd841331	-0.06448973
70	0x3e8cbbb7	0.27486965
71	0x3d4675c1	0.048452143
72	0x3c9d535c	0.019204788
73	0xbde8a464	-0.1135948
74	0x3e0f180d	0.13974018
75	0x3ef2f1b3	0.47450027
76	0xbd9e5102	-0.07730295
77	0x3e53e079	0.20691098
78	0x3ef134ca	0.47110587
79	0xbd489d6e	-0.04897826
80	0xbd26efd2	-0.040756054
81	0x3d8e733a	0.069555715
82	0xbf1fdc34	-0.6244538
83	0xbde0a862	-0.109696165
84	0xbc307386	-0.01076973
85	0x3eb932bd	0.36171523
86	0x3e04d207	0.12970744
87	0x3e3fddd6	0.18736967
88	0x3f3168b8	0.69300413
89	0x3e375079	0.17901792
90	0xbd6f93c1	-0.05849052
91	0x3d8b23ec	0.06793961
92	0x3d381123	0.044938218
93	0xbdbb69b1	-0.091510184
94	0xbe454a36	-0.1926659
95	0xbe148a6d	-0.1450593
96	0x3ec583b8	0.38577056
97	0x3e07fb86	0.13279542
98	0x3babe3bd	0.0052456544
99	0x3efd7ea0	0.4951067
100	0x3e44b8bb	0.19211094
101	0xbd81d535	-0.06339494
102	0x3dc66cf3	0.09688749
103	0x3db63d65	0.08898429
104	0xbe61f1d7	-0.22064911
105	0xbfa37753	-1.277079
106	0xbf5375a1	-0.8260136
107	0xbeff56a6	-0.49870795
108	0xbfb2da51	-1.3972875
109	0xc003b58a	-2.0579553
110	0x3f1e898f	0.6192865
111	0x3d98c39a	0.07459183
112	0x3e65ce49	0.22441973
113	0x3e6fb272	0.23407915
114	0xbe9f7050	-0.31140375
115	0x3dbfac8c	0.093590826
116	0xbe129cf9	-0.14317693
117	0xbce94aee	-0.028478112
118	0x3d39ede7	0.045392897
119	0x3da62caa	0.08113988
120	0x3eb42b61	0.35189345
121	0x3e9147a4	0.2837497
122	0x3f278a29	0.6544519
123	0x3ec1bbb9	0.37838534
124	0x3e47e041	0.1951914
125	0xbfb2b26c	-1.39607
126	0xbf6135c7	-0.8797268
127	0xbef99c21	-0.4875193
128	0xbe416df7	-0.18889605
129	0xbe05301b	-0.13006632
130	0xbe553d9d	-0.20824285
131	0x3dadde0a	0.08489616
132	0xbe61b5ff	-0.22042082
133	0xbf646921	-0.89222914
134	0xbeedcfd4	-0.46447623
135	0x3f066148	0.5249219
136	0xbd159c57	-0.03652605
137	0xbe0097a6	-0.1255785
138	0xbc8fe538	-0.017565355
139	0xbe016122	-0.1263471
140	0xbd2246a9	-0.039618168
141	0x3cd522e3	0.026017612
142	0x3cc22e3a	0.023703683
143	0xbbe61e84	-0.0070226807
144	0x3de394f0	0.11112392
145	0xbeee5cad	-0.4655508
146	0xbce19df8	-0.027541146
147	0x3db854c2	0.09000541
148	0xbf6bca08	-0.9210515
149	0xbf3adbef	-0.7299184
150	0x3e880b6c	0.26571214
151	0x3e2cedc2	0.16887572
152	0x3eee702c	0.46569955
153	0xbd58222d	-0.052766968
154	0xbe33d54a	-0.17561832
155	0x3e8c06e4	0.27349007
156	0x3dd32279	0.103093095
157	0x3e3dff56	0.18554434
158	0xbe9e2135	-0.3088471
159	0x3daf62f9	0.085637994
160	0xbec4d005	-0.38439956
161	0x3e8a28b6	0.26984185
162	0x3dd37c55	0.10326449
163	0x3c39b91a	0.011335636
164	0x3ec60554	0.3867594
165	0x3e9bcf73	0.3043171
166	0x3d8d3eed	0.06896768
167	0x3d61f7f1	0.055168096
168	0x3f260d1b	0.6486375
169	0x3f075c98	0.5287566
170	0x3d2deee8	0.042464167
171	0x3d2a079e	0.04151117
172	0x3e2916ed	0.16512652
173	0x3e31689c	0.17325062
174	0x3ec467f5	0.38360563
175	0x3e84f3cc	0.25967252
176	0xbe99e99e	-0.30061048
177	0xbd924db2	-0.071437255
178	0xbd75b339	-0.059985373
179	0xbf3fccfc	-0.74922156
180	0xbd7b8043	-0.061401617
181	0x3dd78c05	0.105247535
182	0x3eec85ea	0.46195918
183	0xbd7433eb	-0.059619825
184	0xbe8fcff1	-0.28088334
185	0xbe60be17	-0.21947514
186	0xbdbc3be7	-0.09191113
187	0xbda87fef	-0.082275264
188	0xbed74be7	-0.42050096
189	0xbddb3cbc	-0.107049435
190	0x3f440f8b	0.76586217
191	0x3d2afce5	0.041745085
192	0xbe22ba98	-0.15891492
193	0x3bf494da	0.0074640336
194	0xbe21b701	-0.15792467
195	0xbf1af3be	-0.6052817
196	0xbee0393e	-0.43793672
197	0xbed3d7a8	-0.4137547
198	0xbe650ac9	-0.22367395
199	0x3e522838	0.20523155
200	0x3f0840b4	0.5322373
201	0x3d3f1cb1	0.04665822
202	0xbf06232a	-0.52397406
203	0xbe637162	-0.22211221
204	0xbc606acc	-0.013697337
205	0xbeac7839	-0.33685473
206	0xbf1a13cf	-0.60186476
207	0xbd21e495	-0.039524633
208	0x3ec837d0	0.39105082
209	0x3e6d5210	0.23175836
210	0xbf19a9a0	-0.6002445
211	0x3d0c9bf1	0.034328405
212	0x3cf1aa5a	0.029500175
213	0x3bd8612e	0.0066033816
214	0xbc263863	-0.01014528
215	0xbd935ec3	-0.07195809
216	0xbe209a4c	-0.1568386
217	0xbe81fa68	-0.25386357
218	0xbea30301	-0.3183823
219	0xbea73ad3	-0.32662067
220	0x3f0bf480	0.5466995
221	0x3c4c07f1	0.012453065
222	0xbde06d12	-0.109583035
223	0x3e7a21e5	0.24426992
224	0x3e109640	0.14119816
225	0xbdb28fdf	-0.087188475
226	0x3e029fa9	0.12756218
227	0xbe00598a	-0.12534156
228	0xbf1177a0	-0.5682316
229	0xbd858b00	-0.06520653
230	0x3d39502b	0.04524247
231	0x3e1f2ad1	0.15543677
232	0x3e599716	0.21249041
233	0x3bce40fc	0.006294368
234	0xbef6d143	-0.4820653
235	0xbe1a77d9	-0.15084781
236	0x3e4f2def	0.20232366
237	0xbe870ccf	-0.2637696
238	0xbe6154ea	-0.22005048
239	0xbe2fb35a	-0.17158261
240	0x3b4578e7	0.0030131878
241	0x3e0447d2	0.12918022
242	0x3e5ffe4c	0.2187435
243	0xbdb07698	-0.0861637
244	0xbe21a9d3	-0.15787439
245	0x3e0daa97	0.13834606
246	0xbe2453cc	-0.16047591
247	0xbee17abd	-0.44038954
248	0xbd8708d7	-0.06593483
249	0xbd0c075f	-0.034186717
250	0xbe94cf35	-0.29064336
251	0xbe9107cb	-0.28326258
252	0xbf0d8c0a	-0.5529181
253	0xbf54cd02	-0.8312532
254	0xb654f25d	-3.1731536e-06
255	0xbf93e865	-1.1555296

weight f4 [64]
0	0x3f5018aa	0.81287634
1	0x3f6cb653	0.92465705
2	0x3f670327	0.90239185
3	0x3f94c2dc	1.1621966
4	0x3f8fd66b	1.123731
5	0x3f5dbcaa	0.86616004
6	0x3f20be69	0.6279054
7	0x3fb28ace	1.394861
8	0x3ee632b2	0.44960552
9	0x3f68d373	0.90947646
10	0x3f4c29cf	0.79751295
11	0x3f88443d	1.0645825
12	0x3f44f605	0.76937896
13	0x3f53623c	0.8257177
14	0x3f60108d	0.87525254
15	0x3f909a14	1.1297021
16	0x3f5eb8ef	0.87000936
17	0x3f803e43	1.0019001
18	0x3f142ebe	0.5788382
19	0x3f73003b	0.94922227
20	0x3f88303b	1.0639719
21	0x3f7c9644	0.9866679
22	0x3f773b0a	0.9657446
23	0x3f841de1	1.0321618
24	0x3f354341	0.70805746
25	0x3f938da9	1.1527606
26	0x3f76412b	0.9619319
27	0x3f53d168	0.82741404
28	0x3f5c1fc5	0.85985976
29	0x3f4316fc	0.76206946
30	0x3f2366a9	0.6382852
31	0x3f839117	1.0278653
32	0x3f8a9597	1.0826901
33	0x3f5cf12b	0.86305493
34	0x3f33bce5	0.70210105
35	0x3fa9cdab	1.326589
36	0x3f470e73	0.7775642
37	0x3f0ad88f	0.5423669
38	0x3f84119a	1.0317872
39	0x3f8e9c0a	1.1141369
40	0x3f69405a	0.9111382
41	0x3f2bc72c	0.6710079
42	0x3f4fcd64	0.81172776
43	0x3f204c90	0.62616825
44	0x3f6c6448	0.9234052
45	0x3f3607f6	0.711059
46	0x3f8f4b2d	1.1194817
47	0x3f80e0b2	1.0068572
48	0x3f2d8031	0.6777373
49	0x3f620ed9	0.88303906
50	0x3f8262f5	1.0186449
51	0x3f6c0ffe	0.922119
52	0x3f2bc30e	0.67094505
53	0x3f9a77ff	1.206787
54	0x3f7afe59	0.98044354
55	0x3f4259d7	0.75918335
56	0x3f8001db	1.0000566
57	0x3f7ec1b0	0.99514294
58	0x3f81b7eb	1.0134252
59	0x3f8ccfdf	1.1000937
60	0x3f67ea8e	0.9059228
61	0x3f7d652e	0.9898251
62	0x3f25ba10	0.64737034
63	0x3f7abfd6	0.9794897

bias f4 [64]
0	0x3f039bc5	0.5140956
1	0xbedd0fbb	-0.43176064
2	0xbef565c0	-0.47929192
3	0xbf038a46	-0.51382864
4	0xbe4163a1	-0.18885662
5	0xbf9b9585	-1.2155005
6	0x3c3d09d2	0.011537986
7	0x3dd38364	0.10327795
8	0xbe954666	-0.29155272
9	0xbef337c0	-0.4750347
10	0xbed170f6	-0.40906495
11	0xbf06d7e4	-0.5267317
12	0xbecd1913	-0.40058193
13	0x3dd92065	0.10601882
14	0xbf1e3fa6	-0.6181587
15	0xbf74a90e	-0.95570457
16	0x3ed58cb6	0.41708916
17	0xbe278f7b	-0.16363327
18	0xbe65a20b	-0.22425096
19	0xbed25234	-0.4107834
20	0xbed2a48a	-0.41141158
21	0xbf8670a6	-1.0503128
22	0xbed81c97	-0.42209312
23	0xbecf15fb	-0.40446457
24	0xbeffe493	-0.49979076
25	0xbe9cb7a2	-0.3060885
26	0xbeeb83d6	-0.4599902
27	0xbef25ad1	-0.47334912
28	0xbf9a8e15	-1.207461
29	0xbf0d7219	-0.55252224
30	0xbe49e79f	-0.19717263
31	0xbf0dfb55	-0.5546163
32	0x3e540615	0.20705445
33	0xbf5c7787	-0.86119884
34	0xbf844cd4	-1.0335946
35	0x3ea7f82e	0.32806534
36	0x3f09d1d2	0.53835785
37	0x3cf76262	0.03019828
38	0xbf16e9c9	-0.5895048
39	0xbeae7c54	-0.3407923
40	0xbf202246	-0.625523
41	0xbf2d3762	-0.6766263
42	0x3f8fcfa2	1.123524
43	0x3e894f2d	0.2681822
44	0xbf70d71c	-0.9407823
45	0x3cb914b8	0.022592887
46	0x3eaae60d	0.3337864
47	0xbf1cd0ef	-0.6125631
48	0x3d5afe11	0.053464953
49	0x3e180d74	0.14848882
50	0xbf6dbe54	-0.9286854
51	0xbf293ba2	-0.6610662
52	0x3ddf50a7	0.10904055
53	0xbe108919	-0.14114799
54	0x3f125426	0.5715965
55	0x3ed681bb	0.41895851
56	0xbf02c437	-0.5108065
57	0xbedc3914	-0.43012297
58	0xbf87f134	-1.0620484
59	0x3e88471d	0.26616755
60	0xbf050ca4	-0.51972413
61	0xbd319859	-0.04335818
62	0xbdede5f4	-0.11616126
63	0x3f07b46f	0.53009695

running_mean f4 [64]
0	0x42a5f959	82.98701
1	0xc1c458a6	-24.543285
2	0xc1df52fb	-27.915518
3	0xc2504b60	-52.07361
4	0xc21acc95	-38.699787
5	0xc1f0656d	-30.049524
6	0xc1bc614c	-23.547508
7	0xc142fd55	-12.186849
8	0x418ac172	17.344456
9	0xc2732329	-60.784336
10	0x41fa12fc	31.25927
11	0xc19a0a0f	-19.254911
12	0xc112694d	-9.150708
13	0xc228b98c	-42.1812
14	0x40ac3dcb	5.382543
15	0xc1f8ac3e	-31.084103
16	0xc216c2ff	-37.690426
17	0x4017481c	2.3637762
18	0xc1f4df44	-30.609016
19	0xc219441d	-38.316517
20	0xc0a81b51	-5.2533345
21	0xc2862ead	-67.09116
22	0x421486d3	37.131664
23	0x41bf5cbd	23.920282
24	0x41a1b30c	20.212425
25	0x3fbbe661	1.4679681
26	0xbf66a244	-0.9009135
27	0x41ef3f76	29.905987
28	0xc20fd319	-35.95615
29	0xc220de7e	-40.217278
30	0x42071a74	33.775833
31	0xc239f5a2	-46.489876
32	0xc0f9518d	-7.791205
33	0xc23aab1e	-46.667107
34	0xc13c55dc	-11.770962
35	0xc2246523	-41.098766
36	0xc0057c13	-2.085698
37	0x4266ccde	57.700066
38	0xc21f96f4	-39.897415
39	0xc1aff346	-21.993786
40	0xc16c6d59	-14.776696
41	0x4114760b	9.278819
42	0x425275f9	52.615208
43	0x40ad22cd	5.410498
44	0xc13da850	-11.853592
45	0xc0324f19	-2.7860777
46	0xc183c442	-16.470829
47	0xc24ecaaa	-51.697914
48	0xc0f5e29d	-7.6839128
49	0x4107c9cf	8.48677
50	0xc1ba33cd	-23.275293
51	0xc2081fa7	-34.03091
52	0xc1f62390	-30.767365
53	0xc1489b49	-12.537911
54	0xc01ffc03	-2.4997566
55	0x422986e9	42.38175
56	0xc2165f3d	-37.593006
57	0xc0954f02	-4.6658945
58	0xc21802b2	-38.002632
59	0x412eacec	10.917217
60	0xc23a9e53	-46.654613
61	0x42b9e2dc	92.943085
62	0xc1ed293e	-29.645138
63	0x42db149f	109.540276
