model/fbin-pp,95.22,350,5.pt (torch, 290212 bytes, 36 tensors)

weight f4 [8, 1, 16]
00000000: 0000 803f db00 803f 0000 803f 2139 0e3f
00000010: 7066 443f 8d7c be3e c995 d03d 04c8 813e
00000020: f58e 0e37 3e90 09be f492 2cbd bb6d f5be
00000030: ec01 80bf 6b93 7abf 1f00 80bf 0000 80bf
00000040: 0000 80bf e4a6 70bf 0000 80bf 0000 80bf
00000050: 843b 74bf c850 02bf f36c b3be b478 cf37
00000060: ab18 e9bd 0c37 0d3e 3ef8 e93d 6965 193f
00000070: 575b 1a3f 0000 803f 0000 803f 0300 803f
00000080: 0000 803f 3208 183d d567 62bf 1001 80bf
00000090: 0000 80bf 0000 80bf 0300 80bf 0000 80bf
000000a0: 0000 80bf dc00 80bf d889 fdbe 5a3b d9bb
000000b0: c835 923e 6c03 803f 0000 803f 0000 803f
000000c0: f5e3 bf3e f873 9e3e b345 7cbe a1a0 1c3d
000000d0: cd15 bcbe 0a4c d5bc 1fef aabe 5e11 a73d
000000e0: df4e 6a3e 7c1b 7b3e 24ac 513f 2dff 403f
000000f0: 5001 0d3f 0e29 733f 0000 803f 0000 803f
00000100: 67d9 523e cc5d c9bb f5ae a0bb a27a c6be
00000110: ef3f 3abf e314 80bf 9b02 80bf 0000 80bf
00000120: 5d01 80bf 1500 80bf 7f00 80bf 7e00 80bf
00000130: b645 8a3d 4336 5f3f 2100 803f c200 803f
00000140: 620a 803f f200 803f a799 763f f098 1a3f
00000150: 02fe d53d 0fb3 d43e 4941 2f3d ec31 a8bd
00000160: 528b a7bd 46cb 7d3c f4db a8be fe2f 46bf
00000170: 1902 80bf 323a 65bf 0000 80bf 0500 80bf
00000180: 0000 80bf 2000 80bf 0000 80bf 4774 5fbf
00000190: 5d79 0dbf e0c3 22bf b8ad 94be d00a dbbd
000001a0: 0061 7b3e 5a8a 513d 804b 073f 9575 ac3e
000001b0: 8999 b63e 58dd ef3d 3023 af3c decf 8d3e
000001c0: 0000 803f b109 673f e9d2 c73e 798d d83e
000001d0: fd41 543c aca9 fc3b 3ac6 23bc e6ce e5bb
000001e0: 6bfa 97bc dc20 dcbe f500 80bf f70a 80bf
000001f0: 0b00 80bf 2800 80bf 0000 80bf 0000 80bf
1.0 1.0000261 1.0 0.5555592 0.7671881 0.372044 0.10184819 0.25347912
8.497144e-06 -0.1343393 -0.042132333 -0.4793528 -1.0000587 -0.9788119 -1.0000037 -1.0
-1.0 -0.94004655 -1.0 -1.0 -0.95403314 -0.5090451 -0.3504406 2.473253e-05
-0.11381658 0.1379053 0.114243016 0.59920365 0.60295624 1.0 1.0 1.0000004
1.0 0.03711719 -0.88439685 -1.0000324 -1.0 -1.0 -1.0000004 -1.0
-1.0 -1.0000262 -0.4951923 -0.0066293897 0.28556657 1.0001044 1.0 1.0
0.37478605 0.30947852 -0.24635963 0.038239125 -0.36735383 -0.026037235 -0.3338556 0.081576094
0.2288165 0.24522203 0.8190329 0.7538937 0.5508013 0.9498452 1.0 1.0
0.20590745 -0.0061452147 -0.004903669 -0.38765436 -0.72753805 -1.0006374 -1.0000795 -1.0
-1.0000416 -1.0000025 -1.0000151 -1.000015 0.067515776 0.8719217 1.0000039 1.0000231
1.0003169 1.0000288 0.96328205 0.60389614 0.10448839 0.4154286 0.04278687 -0.08212647
-0.0818087 0.015490359 -0.3298031 -0.7741698 -1.000064 -0.89541924 -1.0 -1.0000006
-1.0 -1.0000038 -1.0 -0.872868 -0.5526331 -0.6358013 -0.29038787 -0.10695422
0.24548721 0.051157333 0.5284958 0.33683458 0.35664013 0.1171214 0.021379083 0.27697653
1.0 0.9024916 0.390281 0.42295435 0.012955186 0.007710656 -0.009995991 -0.0070131896
-0.018552026 -0.4299382 -1.0000292 -1.0003346 -1.0000013 -1.0000048 -1.0 -1.0

weight f4 [8]
00000000: 5d91 2240 3dc4 963f 98c0 a33e bdb0 873f
00000010: 0528 af3e 11ee 773f 79f4 8a3f fdac d63e
2.5401223 1.1778637 0.31982875 1.0600811 0.3421022 0.96847636 1.0855857 0.41928855

bias f4 [8]
00000000: 80d8 883e 144b 12bc 0f2d cfbd 29b0 34bf
00000010: a218 ac3d 8162 acbe 4628 06bf a3e2 56be
0.26727676 -0.008929033 -0.10116016 -0.705813 0.08403136 -0.33668903 -0.524052 -0.20984893

running_mean f4 [8]
00000000: f38c f23d d57d 3e3e 2be2 e03e 1351 cebe
00000010: 3cd8 193f f280 3d3e 4801 483e 2697 fa3e
0.1184329 0.18602689 0.43922552 -0.4029623 0.6009557 0.1850622 0.19531739 0.48943442

running_var f4 [8]
00000000: 4103 c63e 8b85 543e aaa0 0c3e 6b98 253f
00000010: a261 793e 0111 8c3e 2b0a 683e ec3a 9c3e
0.38674358 0.20754068 0.13733163 0.64685696 0.2435365 0.27356723 0.22660129 0.30513704

weight f4 [12, 8, 12]
00000000: 0800 803f c913 593f c309 723e e912 3d3f
00000010: 0600 803f 259f 283f 46f9 31bd c362 69be
00000020: f635 32be 15b9 313b 607f bebc d220 8937
00000030: b9a1 71bf 1800 80bf 0a00 80bf 79c3 bcbe
00000040: 5201 5d3e 3269 4abe a7b4 e93e 0500 803f
00000050: 0000 803f 0000 803f 0000 803f c762 1f3f
00000060: 9bc6 93be 9531 14be 0f8f 80be a337 9f3a
00000070: f471 1a3c c84e 03be cea6 373e b429 1abc
00000080: 967b 39b7 cb30 d93d 218d f93d 17a2 3a38
00000090: 0300 803f 0000 803f 3b8b 0d3f 416f 59bd
000000a0: 1332 20bf ec68 54bf 614c 2bbf d3ef f9be
000000b0: 9c1e 0cbe d443 bdbe 0e5a c8bc a93b 0dbd
000000c0: 0000 80bf 8704 80bf 09e0 5bbf 269b 2dbf
000000d0: b968 66be 83fc fb3e 80a3 363f 9ae2 2e3f
000000e0: c263 553f 4206 2d3f e47a f03e 0aea af3a
000000f0: d44d 38bc 40cb 873c c5ea cbbd 5a29 bbbd
00000100: 3ce5 643e 6fab 3a3f b33b 863e 1ff1 233f
00000110: c2bc fb3d de5d 5abf 0c24 b93e b28f 2c3e
00000120: 8a83 1dbe 6a09 80bf 3700 80bf b771 3dbe
00000130: afc4 2abd 87d3 c03e 0f53 353f 0000 803f
00000140: 0800 803f 0000 803f 0000 803f 88a3 183f
00000150: 474b 3dbc 24f7 a5bb 91e0 d8bd 8230 5d3c
00000160: f941 6cbb e561 033f b557 143d eded fc3e
00000170: 49eb 77bc 2136 3dbe cab3 9a3d 2e47 79be
00000180: 41c6 04bf bde2 bf3a 0f4e d73e a945 2f3f
00000190: e68a 8a3d 5eb6 aebb 31d4 6ebe e2ba 213e
000001a0: 31c2 ac3e 4f84 823e 0000 803f 0000 803f
000001b0: ed72 8a3e 427f ba3d 5077 57bc 29f8 bbbd
000001c0: 0000 803f 0000 803f 0000 803f 0200 803f
000001d0: 6695 4ebb c10b 56bf c614 cd3a 2e8e b73e
000001e0: 56f3 1cbf fc14 91be 4568 0fbe 9da0 2fbc
000001f0: ef56 943e 9e64 973e 1ee0 403f 5a8b e33e
00000200: ab99 953c b037 7fbd 296b 4f3c cd6a f53e
00000210: 7b4f 1c3a a275 a43e 24eb cd3d 52a1 5c3d
00000220: 92f9 0a3d a80a d53c 6f1e 11bc 475d 943d
00000230: ee5e b43e 0460 653f 4d00 803f 0000 803f
00000240: 2720 59bf 317e 68bf 1cfa 2fbe 85df e3ba
00000250: 984e abbd 21b3 873d 249a 623e 980a e03d
00000260: fb28 5ab8 6df4 fcbe ae73 edbe f096 fb3d
00000270: c100 0dbb 1021 183f 0000 803f 0000 803f
00000280: 0000 803f 0000 803f 031f d4bd 11cd 703c
00000290: bc59 e83d 253c 763f 0000 803f 0000 803f
000002a0: 2cd8 2e3e 409c 3bbd a3b3 b2bd 44d6 b13e
000002b0: 0000 803f 0000 803f 0100 803f 0000 803f
000002c0: 0000 803f 304a 313f 3e0e 643f 6972 6a3f
000002d0: 0000 80bf f8f5 5e3d 6fea 303f 2000 803f
000002e0: 0000 803f 0000 803f 0230 f9bb 2be6 6139
000002f0: 6b55 d1bd e6b2 253e a3b3 203f 5800 803f
00000300: 71cc 453b 0000 803f 0200 803f bd70 08bc
00000310: 0000 80bf 5900 80bf 8964 1fbf c4d9 d8bd
00000320: 1f89 cb3e 0000 803f 2400 803f 57ea e73c
00000330: 0000 803f 0000 803f b647 023d 6bfd 1cbf
00000340: 3a04 80bf 0000 80bf bc55 25bc 64af 5e3f
00000350: 0000 803f 1766 a03e 0000 803f 6543 cd3c
00000360: 0000 803f 8754 b03e a3e5 373e c116 28bd
00000370: 4321 5cbf 9af9 3abf 7d6b 1bbc fdf2 573d
00000380: a08b 033d 030e f7bd 9e98 48bc 1468 ab3e
00000390: 0800 803f 18a4 533f 4760 5cbe ffff 7fbf
000003a0: 88f9 a0be 2f97 183a 8f62 85bb e9e8 173f
000003b0: 19f1 cf3e d3ad 1dbb 9833 23bc a481 d4bc
000003c0: beca 503f e575 933d 7005 4dbe 9ae7 fdbc
000003d0: 7065 6ebe 45fa 68be b0cf 36bc 8935 1e3e
000003e0: 5ca8 a13d c02c efbc 4cd0 75bd 0891 aabb
000003f0: bc69 dfbe 0000 803f 0000 803f 9b9d 18bc
1.000001 0.84795815 0.23636536 0.7385698 1.0000007 0.65867835 -0.043450616 -0.22791581
-0.17403397 0.0027118374 -0.023254097 1.6346956e-05 -0.94387394 -1.0000029 -1.0000012 -0.36867884
0.21582535 -0.19766691 0.4564564 1.0000006 1.0 1.0 1.0 0.622601
-0.2886246 -0.14472039 -0.25109145 0.0012147318 0.009426583 -0.12823021 0.17934725 -0.009409357
-1.1055634e-05 0.1060501 0.12185121 4.4496814e-05 1.0000004 1.0 0.55290574 -0.053084616
-0.6257641 -0.829726 -0.6691342 -0.48815784 -0.13683552 -0.3696581 -0.024457004 -0.034480724
-1.0 -1.0001382 -0.85888726 -0.6781486 -0.22500886 0.4921609 0.7134323 0.68314517
0.83355343 0.67587674 0.46968758 0.001342119 -0.011249024 0.01657641 -0.09956888 -0.091387466
0.22353071 0.72917837 0.26217422 0.64039797 0.12291862 -0.8529948 0.36160314 0.1685169
-0.1538221 -1.0002873 -1.0000066 -0.1850041 -0.04169148 0.37661383 0.7082986 1.0
1.000001 1.0 1.0 0.5962453 -0.011553592 -0.005064862 -0.10589708 0.013500335
-0.0036050065 0.5132125 0.036216456 0.49400273 -0.01513178 -0.1847768 0.07553823 -0.24343559
-0.5186501 0.0014639717 0.4205174 0.6846567 0.06764774 -0.0053317985 -0.23323132 0.15793946
0.33741906 0.25491568 1.0 1.0 0.27040806 0.09106304 -0.013151005 -0.09178192
1.0 1.0 1.0 1.0000002 -0.0031522154 -0.83611685 0.001564645 0.35850662
-0.613088 -0.28336322 -0.1400462 -0.0107194455 0.28972575 0.29568952 0.75341976 0.44442254
0.018261751 -0.062308967 0.012659826 0.47933045 0.0005962771 0.32120997 0.10054615 0.053864785
0.033929415 0.026006058 -0.008857354 0.07244354 0.35228676 0.89599633 1.0000092 1.0
-0.84814686 -0.9081755 -0.17185253 -0.001738534 -0.083646 0.06625963 0.22129112 0.109395206
-5.2013416e-05 -0.49405232 -0.4637732 0.122846484 -0.0021515342 0.5942545 1.0 1.0
1.0 1.0 -0.103574775 0.014697329 0.113452405 0.96185523 1.0 1.0
0.1707465 -0.04580331 -0.08725669 0.34733784 1.0 1.0 1.0000001 1.0
1.0 0.69253826 0.8908423 0.91580826 -1.0 0.054433793 0.6910772 1.0000038
1.0 1.0 -0.0076046 0.00021543416 -0.1022137 0.16181526 0.62774104 1.0000105
0.003018167 1.0 1.0000002 -0.00832766 -1.0 -1.0000106 -0.6226278 -0.105884105
0.39753053 1.0 1.0000043 0.028309984 1.0 1.0 0.03180667 -0.61324185
-1.000129 -1.0 -0.010091241 0.86986375 1.0 0.31327888 1.0 0.02505655
1.0 0.3443949 0.17958693 -0.041037325 -0.85988253 -0.7303711 -0.009486076 0.052721966
0.03211558 -0.120632194 -0.012243418 0.33477843 1.000001 0.8267226 -0.21521102 -0.99999994
-0.31440377 0.0005820868 -0.004070587 0.5933977 0.4061363 -0.0024059906 -0.009961031 -0.025940724
0.8155936 0.07200221 -0.20021605 -0.030994225 -0.23280883 -0.2275172 -0.011157915 0.1545011
0.0789344 -0.029196143 -0.0600131 -0.0052052774 -0.43635356 1.0 1.0 -0.00931492

weight f4 [12]
00000000: 53a0 033f e101 6b3f dee6 3b3f ae9e 103f
00000010: e2ec 4e3f 44de 023f eb13 043f 85aa 4f3f
00000020: 5b37 5b3f d3c2 2b3f 6641 2e3f dd5c f23e
0.5141651 0.9179974 0.7339915 0.56492126 0.80830204 0.511204 0.5159289 0.8111957
0.8563134 0.67094153 0.6806854 0.47336474

bias f4 [12]
00000000: 4c1a 44be 22b2 72bf 0281 2ebe 3792 3bbe
00000010: a2fd 8dbe f334 98be b8b2 4ebe 3c5f e7be
00000020: 8a4e 65bd 5f14 23bf ee16 79be 42dc 65be
-0.19150656 -0.9480306 -0.170414 -0.18317495 -0.2773257 -0.29727897 -0.20185363 -0.45189846
-0.055983104 -0.6370296 -0.24325153 -0.22447303

running_mean f4 [12]
00000000: 22fa a040 92f0 a2c1 bd80 0641 350c 9941
00000010: 9456 c4c0 866b 8041 091a b0bf e0f3 05c0
00000020: abe8 7d41 11ee 9640 922a 1241 0cd2 2541
5.030534 -20.367466 8.40643 19.13096 -6.1355686 16.052502 -1.3757945 -2.09301
15.869304 4.716561 9.135393 10.363781

running_var f4 [12]
00000000: 328c bd42 9067 7c43 b170 0943 caff 8742
00000010: eef2 3c43 2063 9042 04d3 ef42 6766 8543
00000020: 7c03 7c43 2ad0 2843 55c1 cf42 65bd 6842
94.77382 252.40454 137.4402 67.99959 188.94894 72.1936 119.91214 266.80002
252.01361 168.81314 103.8776 58.184956

weight f4 [32, 12, 9]
00000000: 525a 51bf 3b95 e33c eb67 943e 798a 953c
00000010: e919 f4bd ca83 2a3f 27fb 353f e50b 65be
00000020: ef28 1dbf df3e 53bf 0000 80bf 5335 41bf
00000030: c95f 853c dd2c b2bc 359c 1a3e ee51 0e3d
00000040: c57e 10be 0000 80bf 3122 e1be 5962 7cbe
00000050: af9b 17bf 7a3c 19bf 11b3 74be 4265 393f
00000060: 731d 3d3f bec5 bf3e 34a9 7d3c 0640 93be
00000070: ab3a b23d a8e1 58be 49ac 93be 2798 bc3c
00000080: 4dd1 433f 0000 803f 48bc 6d3e 4fd0 76be
00000090: 1f33 7cbe f804 5dbf e2d5 69bf 9317 803c
000000a0: ca5b 553d 7ef5 573f 0000 803f 13c3 a83e
000000b0: b457 30bf 74e6 6bbc e71e b73e af02 0d3c
000000c0: b9d7 1dbf e921 343b cbb7 7ebf 0000 80bf
000000d0: c3af 46bf 0bf0 a83c ff39 d23d 16be 303d
000000e0: ec89 39bb 0177 bcbe 79f0 2cbd 3831 c03e
000000f0: fa74 a23e 3770 f13e 29e0 123e 437c dcbe
00000100: 7a02 80bf 8e65 4abf 5338 78be 474b 9d3e
00000110: 8dbb fc3e 165f fe3e d685 8fbd 6667 e7be
00000120: d900 80bf f1b6 d7bd 7b88 343e 7c10 ab3e
00000130: acd3 163f 0000 803f 0000 803f 0000 80bf
00000140: c0d4 11bf 424f 823d 3bb5 503c be40 e1bc
00000150: 17bb f5bd 51f4 c1be adcb a8bd 9237 e83d
00000160: e5d0 923e 59dc 5b3e 2310 b63e ed58 1dbc
00000170: 4d45 72bf 2f01 80bf 1a88 46bf c088 e5be
00000180: 1228 5cbe e680 283f 2dda 033f 3560 313f
00000190: 6a7c 403e 46b4 24be 1368 5ebe abea 26bf
000001a0: 1c2f 38bf 5689 efbe eca6 b63e fb76 9a3e
000001b0: 3c65 f1be a400 33bb 431f 603d 1c0f 0bbf
000001c0: 4dd4 d7be 19b7 e63c 7d3b d63e 6b03 d23e
000001d0: 7b9c 67bf 5829 5dbf 9bd9 a9be 68ca edbc
000001e0: bc11 07bc 257a 21bf 94b4 3cbf 91df 29bd
000001f0: b2a4 623d aa04 4bbf 6e4f ed38 0d49 25bc
00000200: 0995 85bc 3b12 fb3c 2500 80bf 0b00 80bf
00000210: ed1f 6c3f c603 803f 36e4 363f 35e0 21bd
00000220: 1af2 d33d d3f0 b13e b3ef 7abc 86d8 dbbd
00000230: 22a0 10bf a2e7 443f 0000 803f 0000 803f
00000240: add1 37bf bd67 d83d 572b 043f 98ad c63e
00000250: f4cb 49bf 0000 80bf b39b bdbe 1799 f13e
00000260: 0000 803f 09ff 983b f757 1e3d a43b 953d
00000270: 0000 803f c012 1b3f f2bc 0ebf b4c6 abbe
00000280: d349 b6be b4ee 36bf d2d6 223b a17f f3bb
00000290: dacc 483d 53b4 903e 1cfe 37bf b9d8 58bd
000002a0: 394f c03c 3ee4 48bf 83f8 6bbe c634 133c
000002b0: c528 043e a7e9 a6bc c796 50bf 0000 80bf
000002c0: 0000 80bf f66a 373f 0000 803f a1af 7a3f
000002d0: 2c34 68be e327 e83e 115e b5bd e630 d23e
000002e0: 60d6 e7be 0fc9 42be 0000 803f 0000 803f
000002f0: ab0f e6be db56 05bd b5cf bd3d bd14 303f
00000300: a2cb febc 0000 80bf 0500 80bf 4a4a 663f
00000310: 0000 803f 0000 803f 7653 e4bd ac85 28be
00000320: de55 913b 43c1 f3bd 8e16 6fbf 3cd2 8abe
00000330: 5391 253e 0655 a2be 6c15 c93b 60ae 6bbc
00000340: ed53 8fbd 1b57 5b3c d7f5 1d3f 5f1c 303f
00000350: 90ac 2e3f a0f5 9cbc 3d48 c0be 726c e83e
00000360: 1044 0abb 7496 0bbf 65ba 77be 0000 803f
00000370: 0000 803f 66d1 473f a474 30be 51bf cdbb
00000380: 6f36 bdbc 4e4b b2bd 6b0b 873e 3f1f 2f3c
00000390: ef8f 98bc 3aea 9f3e 3d61 663e af3e 26bf
000003a0: 9c07 23be 5192 36bc b23b 113c 7934 343e
000003b0: 62e4 87be 5f10 10bf caba 55bf 0000 80bf
000003c0: 0eda cdbd 4766 f13e 3827 643e 9cc4 7dbd
000003d0: 43d0 433e 4be2 05bf 0000 80bf 6019 66be
000003e0: 04f6 163e c772 cfb8 f2f8 0f3e d27c c53e
000003f0: 82a9 f3bb 7768 403f 702b 763e a65f 5a39
-0.8177844 0.02778112 0.28985533 0.018254505 -0.119190045 0.66607344 0.71086353 -0.22367819
-0.61390585 -0.8251781 -1.0 -0.7547199 0.016281025 -0.021749908 0.15098651 0.034746103
-0.14110859 -1.0 -0.43971398 -0.24646892 -0.5922193 -0.59857905 -0.23896433 0.7242013
0.7387306 0.37455553 0.015482236 -0.28759784 0.08702596 -0.21179831 -0.2884238 0.02302177
0.7649124 1.0 0.23216355 -0.24102901 -0.24628876 -0.86335707 -0.91341984 0.015636241
0.05208949 0.84358966 1.0 0.3296133 -0.68883824 -0.014398206 0.35765764 0.008606597
-0.6165729 0.0027486032 -0.99499196 -1.0 -0.7761194 0.020622274 0.10264968 0.04315003
-0.0028310968 -0.36809543 -0.04222152 0.3753755 0.3172987 0.47155926 0.14343323 -0.43063554
-1.0000756 -0.7906121 -0.24240236 0.30721495 0.4936184 0.4968192 -0.07007949 -0.45196074
-1.0000259 -0.1053294 0.17630188 0.33411014 0.58916736 1.0 1.0 -1.0
-0.56965256 0.063627735 0.012738521 -0.027496692 -0.11998575 -0.3788171 -0.08241973 0.11338724
0.28675 0.21470775 0.35559186 -0.009603721 -0.94636995 -1.0000361 -0.77551425 -0.44830894
-0.2149966 0.65821683 0.51504785 0.69287425 0.1879746 -0.16084394 -0.21719389 -0.65201825
-0.71946883 -0.46784467 0.35674226 0.301689 -0.47147548 -0.0027313614 0.054717313 -0.5431993
-0.4215416 0.02816348 0.4184226 0.41018233 -0.90473145 -0.8639121 -0.33173832 -0.029027179
-0.008243974 -0.63077 -0.7371304 -0.041472975 0.055332847 -0.7930399 0.000113158356 -0.010088217
-0.016306417 0.030648341 -1.0000044 -1.0000013 0.92236215 1.0001152 0.7144197 -0.03952046
0.103489116 0.34754047 -0.015315938 -0.10734658 -0.56494343 0.76915944 1.0 1.0
-0.71804315 0.105666615 0.5162863 0.38804317 -0.7882683 -1.0 -0.37032852 0.4718711
1.0 0.0046690744 0.03865811 0.07286766 1.0 0.60575485 -0.5575706 -0.33550036
-0.35603198 -0.7145798 0.0024847281 -0.007430986 0.049023487 0.28262576 -0.71872115 -0.052941058
0.023475276 -0.7847327 -0.23044018 0.00898475 0.12906177 -0.020375086 -0.8148007 -1.0
-1.0 0.71647584 1.0 0.9792424 -0.22676152 0.4534293 -0.08855832 0.41052932
-0.45280743 -0.1902201 1.0 1.0 -0.4493383 -0.032553535 0.092681326 0.68781644
-0.031102959 -1.0 -1.0000006 0.89957106 1.0 1.0 -0.111487314 -0.16457242
0.004435285 -0.11902096 -0.9339379 -0.2711352 0.16168718 -0.31705493 0.006136587 -0.014384836
-0.069984294 0.013387467 0.61703247 0.6879329 0.6823206 -0.019160092 -0.37555113 0.45395237
-0.0021097697 -0.5452645 -0.24192198 1.0 1.0 0.7805389 -0.17231995 -0.00627891
-0.023097245 -0.087057695 0.263759 0.010688602 -0.01862332 0.31233388 0.22498031 -0.649394
-0.15920871 -0.011143283 0.00886433 0.17598142 -0.2654143 -0.5627498 -0.8348814 -1.0
-0.10051356 0.47148344 0.22280586 -0.06195508 0.19122414 -0.5229842 -1.0 -0.22470617
0.14742285 -9.891908e-05 0.14059809 0.38571793 -0.0074359784 0.751594 0.24040008 0.00020825732

weight f4 [32]
00000000: c45a 823f 26f2 133f 6210 243f 5524 703f
00000010: 0bdd da3e b747 173f b08f 633f ee94 2f3f
00000020: 28ec 413f 3e05 033f 232e 523f 8c98 233f
00000030: 4b53 5f3f 637d 553f da8f 173f c550 453f
00000040: 2f2f 993f 7f09 113f 6d3c 123f 2bd7 6d3f
00000050: 4e4a 183f db39 313f cd56 603f ab76 213f
00000060: 3189 143f 60d3 143f 9361 253f de5c 293f
00000070: 4270 623f 94d8 5f3f ec6e 6d3f 9065 153f
1.018395 0.57791364 0.640875 0.9380544 0.42746767 0.59093803 0.88891125 0.68586624
0.7575097 0.51179874 0.8210165 0.63904643 0.8723647 0.8339445 0.59203875 0.7707637
1.1967524 0.56655115 0.5712345 0.92906445 0.5948838 0.69228905 0.8763245 0.630717
0.5802184 0.5813503 0.6460201 0.6615733 0.8845254 0.87439847 0.9274738 0.583581

bias f4 [32]
00000000: 49cf 303f 48e6 0cbe ffd5 eabe ce57 3cbe
00000010: 0b2b ca3a 8162 86be bc94 e03d 70af 01bf
00000020: 28da d73d ef85 ccbe 173f 523e 7b4e 80be
00000030: eab9 cabe ba60 453d ab2f b3be 326c ecbd
00000040: d457 af3e 5f55 f2be 159d a0be 6a3c be3d
00000050: c136 a0be f72a 18bf a618 80be dc25 e3bd
00000060: 4775 81be 7f41 93be 5058 23bf 5448 ecbe
00000070: b6d9 983e 09c8 423e 725e 59bb d68b 20bf
0.6906629 -0.1375972 -0.4586639 -0.1839287 0.0015424205 -0.26247028 0.10965869 -0.5065832
0.10539657 -0.39945933 0.2053188 -0.25059876 -0.39594966 0.04818795 -0.34997305 -0.11544074
0.34246695 -0.47330758 -0.31369844 0.09288867 -0.31291774 -0.5944056 -0.25018805 -0.110912055
-0.25284788 -0.28760907 -0.6380663 -0.46148932 0.298536 0.1902162 -0.0033167866 -0.6271337

running_mean f4 [32]
00000000: 4ed5 cc41 3744 a041 c058 7f41 2540 8241
00000010: 9b45 e940 c967 f240 d3e9 a841 296b 4541
00000020: 7f7f 8941 9b4b 7e41 7c45 a141 9482 9a41
00000030: bf6d a141 b19c c841 b61b 9b41 6420 7041
00000040: 24c1 c141 1024 a641 e2f7 2041 dbae b341
00000050: 243f b43f 7fd0 8240 9f2f cb41 cbec 7541
00000060: 34b0 b241 a116 1b41 8add 6e41 e9ad 5e41
00000070: 7785 9e41 853c a141 a99b eb41 0507 a040
25.604153 20.033308 15.9591675 16.28132 7.2897468 7.575169 21.114172 12.338662
17.187254 15.893458 20.158928 19.313759 20.178587 25.07651 19.38853 15.007908
24.219307 20.767609 10.060518 22.460379 1.4081769 4.087951 25.398252 15.370311
22.336037 9.693025 14.929087 13.917459 19.815168 20.15455 29.451006 5.000857

running_var f4 [32]
00000000: cdf2 5a43 dc25 d242 8fc6 a742 cf88 1343
00000010: dbdd b842 2199 0143 3f92 6343 9faf fb42
00000020: aece 1a43 5b79 eb42 675f 3d43 9041 d242
00000030: 3291 5443 19d6 6043 543b c342 7e48 0f43
00000040: 1661 5243 fb70 9842 d2ec 1f43 7158 4343
00000050: 1e90 e442 985c 2043 6408 5043 45eb ea42
00000060: be12 f042 340a d842 6174 e442 72b7 0143
00000070: a241 2443 abef 3b43 51a5 5a43 6918 bf42
218.94844 105.073944 83.88781 147.53441 92.43331 129.59816 227.57127 125.84301
154.80734 117.73702 189.37267 105.12805 212.56717 224.83632 97.615875 143.28317
210.37924 76.220665 159.92508 195.34547 114.28148 160.3617 208.03278 117.45951
120.036606 108.01993 114.2273 129.71658 164.25638 187.9362 218.64577 95.547676

weight f4 [64, 32, 7]
00000000: 2f56 6bbf a60c 34bf 9d00 80bf 412b f5be
00000010: 6ff1 57be 0000 80bf 0000 80bf 9419 023d
00000020: 0a2b 303f 4fb5 863e 66f7 f73d 43b3 50be
00000030: 5fdf a33e a1d5 353e 40e9 de3d f782 25bf
00000040: 6ca7 ab3e 910f b33e 123e 0f3f 45a3 fabe
00000050: 161c b5be 13db 963e bb71 c9bd ff5c 8bbe
00000060: 7575 5fbf 1710 7fbf 93e2 06bf c4bb 05be
00000070: 9679 e33d 7df6 ad3e 23b1 c03d 5859 a63a
00000080: 63b7 1b3e 3dc7 b13d 961e cfbe d4ee 413e
00000090: 970d 303f f33b 8c3e 6b1a c9be 0000 80bf
000000a0: bfb5 73bf 0000 80bf 9841 cfbc 8f5e 33ba
000000b0: 08f8 86bd 1ddd 05bd e2cb 3dbf 758c 51be
000000c0: 0433 fb3e 2f3a 873e 0f6a 343d f765 fb3e
000000d0: b5e0 95be a05a f9be 4565 50bf 8c54 40bf
000000e0: d208 80be 316d 6abf 6acc a6bc a61f 3a3e
000000f0: e6b6 ee3e 1135 35be 7474 88bd 78d1 3ebe
00000100: c2c0 d5bd bf01 63be f904 c13d 182c dbbe
00000110: 60a9 763d 585d 2c3e 5373 64bf 3222 f3be
00000120: 14da d53d 7e99 593f 0ceb 763f bb56 0c3f
00000130: ab79 953e cd68 31be 8879 273c d035 c13e
00000140: a8aa a9bd 8bda 97bc e026 e8bc 0000 803f
00000150: 660f 1dbf 3200 80bf e836 44bf 1a95 cbbe
00000160: 1ed0 3f3d 539e 76be 0c41 1c3e e73f 84bd
00000170: dea2 9b3d 2605 38bf 0000 80bf b2d5 17be
00000180: 4d02 1abd 317f 373e 94d2 da3e 691f d13e
00000190: 933f 283e b1fd 973d 12a3 95bd 49d0 48be
000001a0: 39c4 c63b c130 ec3d 630a 753e b14b c03d
000001b0: 81fb 54bd 2765 bb3d 3632 a8bd 6c92 07bf
000001c0: 82b9 b0be 2b8e 8dbe a27d af3e 9100 803f
000001d0: 4b97 713f 9fd7 573e 1ea8 7d3d 94ca 2e3f
000001e0: 7b41 513f 0400 803f 2c01 e43e 151e 07be
000001f0: ba86 53be 703a bb3d 4ea6 003f ed94 3a3b
00000200: 0883 a7be 9f88 523d 5d23 023d 450f 5b3e
00000210: f062 923e d822 013f 7c41 ff3d 8de7 343f
00000220: b2f9 cd3d a87b 673e 4b43 b8bd b297 b6be
00000230: f7af 623e 5c64 29bd 1cf4 29be ccc6 debe
00000240: b43a e13c 2e69 c83e 55f4 953e 8846 d2be
00000250: 9586 553c da77 133e 7836 a13e 4b73 81be
00000260: 0dfb 543d 810b d53e e34c 21bf e190 70bf
00000270: 0958 42bf 0405 47be ecd5 56bc 9fe7 513f
00000280: c5ec 213f 2648 213e fbed 333f c0f2 bb3e
00000290: 2cfb a4bc 8452 4dbe 45e2 1d3f 3461 c33d
000002a0: e980 4dbc ecd5 873d 27a6 60be aa38 00be
000002b0: 8441 eabd 3bfb efbe 0000 80bf a897 293d
000002c0: b534 3d3e b2ce 5a3c 385a 023e 3170 e83a
000002d0: 08ed ae3e 335d d1bb b1d2 933e 9b50 983e
000002e0: 8569 e03e ebf6 883a 4900 f8be 34fa a3be
000002f0: 1511 9cbe 6ff4 02bf d895 cd3c f2c6 333f
00000300: f811 f93e f568 883d b9bd bebc f2e3 ce3c
00000310: b8b0 443d d776 1cbd 34ac 3cbf 6ef8 e3be
00000320: 087b 48bf c28e b8bd 861b 1cbe 75c7 433e
00000330: d14b 5fbe ec35 44bc 48f4 43be aeba 53bd
00000340: 0550 09bf 4c83 683d 04de afbd 0200 80bf
00000350: a11e 35bf 755d 16be caa4 013f dff7 d23d
00000360: f766 8fbe 39e1 6b3e eae8 f23e 79fd 823e
00000370: f772 f7bd 5b2f 9ebe 198a 93bd f384 a9bc
00000380: 6981 313f d4a6 3cbc 561a ccbc 780d 8cbc
00000390: b47f 863e c386 73be 6814 c1be 6660 173e
000003a0: dfb1 05be 848d 253f 8a05 143f ebbb e7bd
000003b0: 5158 66bd acb3 ad3e 2cfa e7bd 8029 96be
000003c0: 0dac f9be d8ab 29be a10a 94be 74e6 ccbd
000003d0: d5af a03d 4804 2b3e 1a73 703d d7a3 fe3d
000003e0: 6d87 203d 0c71 1cbf 819c 6dbf 08aa 3cbf
000003f0: f31e bebe c948 eabd 742e e73d 94ba 113e
-0.9192838 -0.703318 -1.0000187 -0.47884563 -0.21088193 -1.0 -1.0 0.031762674
0.6881567 0.26310202 0.121077344 -0.20380883 0.32006356 0.17757274 0.10884333 -0.6465296
0.3352617 0.34972814 0.55954087 -0.4895269 -0.3537299 0.29464015 -0.098361455 -0.27219388
-0.872886 -0.99633926 -0.52689475 -0.13059908 0.11107175 0.33977118 0.09408786 0.0012691421
0.15206675 0.0868058 -0.40453023 0.18938762 0.68770736 0.27389488 -0.39277968 -1.0
-0.951992 -1.0 -0.025299832 -0.00068423984 -0.06590277 -0.032681573 -0.74139225 -0.20463736
0.4906236 0.26411578 0.044046458 0.4910123 -0.29273 -0.48701954 -0.81404525 -0.7512901
-0.2500673 -0.9157286 -0.020361144 0.18176135 0.46623915 -0.17696024 -0.06662837 -0.18634593
-0.10437156 -0.22168635 0.094247766 -0.42807078 0.060220122 0.16832483 -0.8923847 -0.47487026
0.10441986 0.84999835 0.96452403 0.5481984 0.29194388 -0.17325135 0.010221846 0.37736368
-0.08284503 -0.018536827 -0.02833885 1.0 -0.6135162 -1.000006 -0.7664628 -0.39762193
0.046829335 -0.24083833 0.15259188 -0.06457501 0.07599424 -0.71882856 -1.0 -0.14827612
-0.03759985 0.17919613 0.42738783 0.40844277 0.16430502 0.07421435 -0.07306494 -0.19610704
0.006065872 0.115327366 0.23929743 0.09389437 -0.051997665 0.09150153 -0.08212702 -0.529578
-0.3451653 -0.27647528 0.34275538 1.0000173 0.9437148 0.21078347 0.061927907 0.6827786
0.8174054 1.0000005 0.44532144 -0.13195069 -0.20656863 0.091420054 0.5025376 0.0028470114
-0.32717156 0.051399823 0.031772006 0.21392544 0.28591108 0.5044379 0.12463662 0.7066582
0.10057391 0.22605765 -0.0899721 -0.3566261 0.22137438 -0.041355476 -0.16597027 -0.43511045
0.027493812 0.39142746 0.29287973 -0.41069436 0.013032575 0.14401188 0.3148687 -0.25283274
0.051997233 0.4161034 -0.63007945 -0.9397107 -0.7591558 -0.19435507 -0.013112526 0.8199405
0.63251907 0.15750179 0.70285004 0.3670864 -0.0201393 -0.20051008 0.61673385 0.095400244
-0.012542942 0.06632599 -0.21938382 -0.12521616 -0.11438277 -0.4687136 -1.0 0.041404396
0.18477137 0.013354944 0.12729728 0.0017733631 0.34165215 -0.006389284 0.28871682 0.29748997
0.43830505 0.0010449564 -0.48437718 -0.32026827 -0.30481783 -0.51154226 0.025095865 0.7022544
0.48646522 0.06660644 -0.023283826 0.025255177 0.048020095 -0.038199272 -0.7370026 -0.44525474
-0.7831273 -0.09011604 -0.15244874 0.19119056 -0.21806265 -0.011975747 -0.19136155 -0.051691703
-0.53637725 0.05676584 -0.08587268 -1.0000002 -0.7074986 -0.14684089 0.50642073 0.10301184
-0.28008243 0.23035134 0.47443324 0.2558401 -0.12082475 -0.30895504 -0.072040744 -0.020693278
0.6933809 -0.011514384 -0.024914902 -0.017096266 0.26269305 -0.23781876 -0.3771088 0.14782867
-0.13056134 0.6466906 0.5782095 -0.113151394 -0.05623657 0.3392614 -0.113270134 -0.29328537
-0.48764077 -0.1656946 -0.2891436 -0.10004893 0.07846037 0.16700852 0.05870352 0.12433594
0.039191652 -0.61109996 -0.9281693 -0.7369695 -0.37132987 -0.11439664 0.11288157 0.1423133

weight f4 [64]
00000000: b473 6e3f e314 8a3f ae08 943f d9e9 033f
00000010: b70f 023f 72d8 073f f908 9c3f e159 4a3f
00000020: 85cf 723f 0a34 9d3e 29d3 3b3f 0750 283f
00000030: ee40 663f 0917 713f 2b53 4b3f 25f0 513f
00000040: 4a77 263f a133 673f afe0 423f 0ab3 4f3f
00000050: ffbf 533f 008f 4b3f c022 713f eb64 603f
00000060: 2a12 363f 970a 3f3f 06e0 6b3f a2ad 033f
00000070: 3b84 693f d579 4d3f adff 1d3f cc21 113f
00000080: dc21 753f 1447 953f e3b8 3d3f eea4 8f3f
00000090: e9f5 473f 775f 3c3f 16cb 623f bdf8 433f
000000a0: 586d 5e3f faa1 6f3f e9e0 893f c2fd 3e3f
000000b0: a39a 563f 45bd 4c3f a3e9 5f3f 1e3c 873f
000000c0: 0fc5 383f 509e 073f b03a 6f3f 5a8d 423f
000000d0: ae0a 4f3f 7e5b 883f 6de0 2a3f 8568 733f
000000e0: 26b2 633f 84c1 043f 9961 8e3f 8721 533f
000000f0: 401c a53f 1213 2b3f 3b7b 723f 8816 4d3f
0.931453 1.0787624 1.1565149 0.515287 0.5080523 0.53064644 1.2190238 0.79043394
0.948479 0.30703765 0.7336908 0.6574711 0.89942825 0.94175774 0.7942378 0.82007056
0.6502577 0.90313154 0.7612409 0.81132567 0.8271484 0.79515076 0.9419365 0.8765399
0.71121466 0.74625534 0.9213871 0.5143682 0.9121739 0.80264026 0.61718255 0.56692195
0.9575479 1.1662316 0.7411024 1.1222208 0.78109604 0.7358317 0.88591135 0.7655142
0.86885595 0.9360653 1.0771762 0.74605954 0.83829707 0.799763 0.87465876 1.0565221
0.7217569 0.5297594 0.93448925 0.75996935 0.8087567 1.0652921 0.66748697 0.9508136
0.8894371 0.5185778 1.1123534 0.82473034 1.2899246 0.66825974 0.94719285 0.80112505

bias f4 [64]
00000000: 8322 edbe 50f7 02bf 57f8 9d3d ad41 01be
00000010: bcdd 13bd 336e d4bd 311f e0be e851 59bf
00000020: 1d00 26bf a8d4 22bd 6072 4cbf 75be c6be
00000030: ae20 ddbe 4960 4fbf 9aa3 43bf 9d46 563d
00000040: 9f3a 40be 791a 39bf cdbd 4fbf 4cf3 babe
00000050: 1ef0 2ebe 6c71 d3be 341a 40bf 8053 1ebf
00000060: c278 983e 6b00 7bbf f436 323f 7ed9 443c
00000070: e22b 433e b9b1 8ebf e201 abbe ba49 1dbe
00000080: ed83 3b3f cada afbe bc21 5fbf a828 efbe
00000090: f38e 00be ac83 10be fff4 1fbf fcdb 20bf
000000a0: 560d d4be 4ffa 2dbf 546e 193d 12d7 f93e
000000b0: bd34 2f3e b65b 063f 6a9c 1ebf 3da7 a03e
000000c0: c0d8 41bf c8f9 c4bc 4d71 c43d 80fb bcbe
000000d0: 8f6d cabd 3740 9bbe 632a 863e fb87 51be
000000e0: ace9 11be 7840 aebd 814e aabe 93c3 e6be
000000f0: ad3f b1be af87 0fbf f0b0 0dbf 6c1e 7ebf
-0.46315393 -0.5115862 0.07713383 -0.1262271 -0.036100134 -0.10372581 -0.43773797 -0.84890604
-0.6484392 -0.039753586 -0.7986202 -0.38817182 -0.43188995 -0.81006294 -0.7642151 0.052313436
-0.18772362 -0.7230602 -0.8114899 -0.36513746 -0.17083785 -0.41297472 -0.7503998 -0.6184616
0.2977963 -0.9804751 0.696151 0.012014745 0.19059709 -1.1147987 -0.33399874 -0.15360156
0.7324818 -0.3434661 -0.8716085 -0.46710706 -0.12554531 -0.14112729 -0.6248321 -0.6283567
-0.41416425 -0.67960066 0.037458733 0.48796898 0.17109962 0.5248369 -0.6195742 0.31377593
-0.7572136 -0.024044886 0.09591923 -0.3691063 -0.09884178 -0.3032243 0.26204214 -0.20462029
-0.14249295 -0.0850839 -0.3326302 -0.45071086 -0.34618893 -0.5606641 -0.5534811 -0.9926517

running_mean f4 [64]
00000000: 2f07 0440 2bf3 c540 9fe7 e441 27a3 c141
00000010: 313b 3341 0c36 b041 439d 5441 c61e 3b41
00000020: 394a 9641 e311 9a41 5c47 5141 04b0 8241
00000030: 258b be40 d3a9 2a3f 4c36 c640 6a39 1642
00000040: 8be5 b941 20e6 fd40 6a1b fb40 03af cb41
00000050: f4f0 0242 560c 9141 345b 6b41 886b ac41
00000060: 413e 3042 714c 47bf 304d 2c41 e335 8741
00000070: 5bf8 14c1 a9d0 5541 760e a441 856e fd41
00000080: 0d9d 1342 15ba 0842 ac18 3b41 bb85 1042
00000090: 4814 c841 db02 a541 0176 1d41 5c05 a041
000000a0: 320b c541 a541 d841 9f6d 8841 0201 0e42
000000b0: aa0e bd41 4846 ee41 4f99 d241 19e0 8a40
000000c0: 09d9 8441 699f a541 b4d5 1841 5cf2 ab41
000000d0: 2611 7440 a5aa 1e42 1a8e 0742 b651 d641
000000e0: fdd2 cd41 0dce a341 96f6 9840 2456 6d41
000000f0: 54ed 2742 f557 b240 c353 ef41 f644 00c0
2.0629385 6.1859336 28.613096 24.204664 11.201951 22.02639 13.288394 11.695013
18.786242 19.258734 13.079922 16.335945 5.9544854 0.6666538 6.194128 37.55607
23.237082 7.9343414 7.8470964 25.460455 32.735306 18.131023 14.709766 21.552505
44.060795 -0.77851015 10.768845 16.901312 -9.310634 13.363442 20.507061 31.678965
36.90337 34.18172 11.693523 36.130596 25.009903 20.626394 9.84131 20.002617
24.630466 27.032053 17.053526 35.500984 23.63216 29.784317 26.324858 4.3398557
16.605974 20.702837 9.552174 21.49334 3.8135467 39.666645 33.88877 26.789898
25.728022 20.47561 4.780101 14.83353 41.981766 5.573237 29.9159 -2.004209

running_var f4 [64]
00000000: e293 d543 c1d5 d443 716f dd43 5dc1 aa43
00000010: 20fb 8843 db05 be43 174b 3944 70ad 5d43
00000020: eba6 0344 6483 5d43 2689 6f43 3edf 7d43
00000030: 758c 7c43 4c5f 1144 80ab aa43 1175 ac43
00000040: eeb0 8a43 1473 dd43 f5d2 bd43 66b1 be43
00000050: b4cd af43 0c2a c143 3543 a543 fd9e b243
00000060: ce02 d843 1747 cb43 69be d843 8227 9243
00000070: ca02 c843 3cf3 ae43 a6ae 9743 58a6 b543
00000080: 7fe5 cd43 1025 0e44 2374 8243 8c05 f243
00000090: b3ad e343 8c01 b443 3d88 1244 d8a5 9e43
000000a0: 1d30 0444 df24 c043 4a05 0544 2563 f743
000000b0: ce23 8743 b57e 9d43 89d8 d843 af3c 1144
000000c0: adfe c243 8cf6 8743 e3c7 ee43 7393 8d43
000000d0: f345 d243 13af e143 805c 8443 0cc4 e943
000000e0: b62d 8e43 bfaa 6743 17a7 0144 319d 7443
000000f0: 43b7 2444 91bc 9343 2a5b f343 1b1b b043
427.15533 425.66995 442.87064 341.51065 273.9619 380.04575 741.1733 221.67749
526.6081 221.51324 239.53574 253.87204 252.54866 581.489 341.33984 344.91458
277.38226 442.89905 379.6481 381.38593 351.60706 386.3285 330.52505 357.2421
432.0219 406.5554 433.48758 292.30865 400.0218 349.90027 303.36444 363.29956
411.79294 568.5791 260.90732 484.04333 455.35703 360.0121 586.1287 317.29565
528.7518 384.28806 532.08264 494.77457 270.27972 314.9899 433.69168 580.9482
389.98965 271.92615 477.5616 283.15195 420.54648 451.36777 264.72266 467.53162
284.35712 231.66698 518.6108 244.61403 658.86346 295.47318 486.71222 352.21176

weight f4 [64, 64, 5]
00000000: 6401 65bf d86b a5be 70d4 32be 1331 c33d
00000010: 3458 f83e fe51 b03d d77c 86bd 80f2 bb3d
00000020: bf7f a53d c70c 0e3d 6618 093e 79a5 0abe
00000030: 3971 913e 78e5 7d3e 390f 3e3f 71d2 29be
00000040: a365 87be d4bd ffbd cc22 60bd ee4e ffbd
00000050: c527 f9b8 d6e6 7ab9 8a89 1abe 9ae0 22be
00000060: 0d68 003e 27fd e0be 6295 7c3d 7c03 443e
00000070: fd21 a63e 799f a7bd 3171 45be d737 753b
00000080: 748a 033e 5562 22bf 9313 6dbe 5041 0ebe
00000090: bc8e 713e b0e4 4abd 06f4 abbc 34bc 0dbf
000000a0: 0000 80bf 4dcd 26bf 173e 06bf 7eac f9bd
000000b0: 3765 01bf 92dd df3e d19d b63d 262b e0bd
000000c0: 02d3 83bd 3d41 173f fd05 21be e193 6b3e
000000d0: a1ac 853d 13b4 00be 6336 89bd 499f d1be
000000e0: da67 20be cf2b 223e 1501 2e3e 45ab 75bd
000000f0: 4635 60bd 62bf e2be 0b86 91be 6c91 4d3c
00000100: 46d1 9abe 0000 80bf eaa8 14bf 71dd 29bf
00000110: b758 a4be 9c80 efbe 3e25 ce3d 6539 2bbe
00000120: cf91 6fbc 54c5 133f da23 2c3f bfeb 353f
00000130: 066d 473e 4802 bbbe e36f a9be cab3 373f
00000140: c294 b0be 0a95 42be 53b6 7bbd 6e2f 0bbf
00000150: e168 61bf 62d4 be3c f733 91be 5f6a aebe
00000160: 6da8 f73d eae9 1a3f 1b38 6dbe 0af4 68be
00000170: dd83 433e d406 05be 3f24 063f ca47 cebd
00000180: e729 b03d 6849 81be 14d2 33be 769e 78bc
00000190: 2edf b73e 1616 bbbd 18f5 f03c 4c26 1b3f
000001a0: 3a76 2d3f 549d ff3e 1acb bbbe e8fb 47be
000001b0: 22ef 113e 0a80 353e d2ad 16bf 7be5 e6be
000001c0: 1df1 edbe 9f95 28bf 5db0 813e 2881 953e
000001d0: c6eb 1b3f 9ffc 0e3f dc38 f33e 7dcf 143f
000001e0: cd91 243e 094e a1bc cab0 c63d 8ca8 cebd
000001f0: 836f 28bd ca3c fcbb 5000 0b3e 05ea ea3e
00000200: 5e8d 233f 8beb 403f d465 6b3c 87e7 b6be
00000210: 907c 1fbe 3bd7 9abd a104 183e 2ae0 03be
00000220: 6960 bf3e bb25 5e3c e756 86be b7da 62be
00000230: 734d 26be 199e d63c 620e 80be bee2 22bd
00000240: 072a 0cbd 3217 92be b10d 36be 2a53 39bf
00000250: 68c4 1bbf 3788 12bf e84b 94be 7062 92bd
00000260: be2f 4d3c d421 4dbf 177f 33bf 01ad 28bc
00000270: 924e 5fbd e47a a83d e1e1 683d 9f89 0a3f
00000280: ffe4 b9bd f6d5 bf3d ab44 cdbd 82a5 da3d
00000290: ea73 ff3d 0fb7 c4be 849d 8fbc 18eb 6d3e
000002a0: ecf2 663e 4294 1d3f e318 5a3e 30da 87bd
000002b0: d4ab 003e 7430 7ebd b77d 883d f438 e4be
000002c0: 5d5b d03b 7379 ba3a b9ef f2be 6669 24bf
000002d0: 5439 0abf 9ec6 41bd 3009 81be 5f6a 16bf
000002e0: efa3 59bf d112 c8bd fb67 94be b5e3 f73d
000002f0: 6dde 623e f89d 6abe 0867 a23d ed8b 08be
00000300: 4271 2f3e 8656 5a3e c3d6 28be 0100 80bf
00000310: b730 45bf abcd 5abf 9b7c a0be f137 86be
00000320: abae 863e 655f 9ebe d54e 0bbe cf22 d23c
00000330: e984 9b3d ad6b 60bf cdb2 1dbf 0714 84bd
00000340: 8e7f b4be e560 0dbf 2305 80bf 7b80 4bbf
00000350: 9baa 04bf 356c b8be 757a a9be 10e7 033f
00000360: 83de 18be d5da 923e ec4c 033f 8990 4a3f
00000370: b85f a3be f393 f4be c13b a1be fd3b fdbd
00000380: 2d0b 1fbf 8afb 2d3f c0f5 993c 35e7 863d
00000390: 49b3 603e 6c6e 163e 0878 40bc 7d30 5e3d
000003a0: 1dc9 ffbd 3f13 f8be 4e3d 9bbe ce15 903e
000003b0: ace1 4ebe a0c3 14be df2f aabc fdde 6c3e
000003c0: 5815 033f e38f 5bbe b402 0dbe 5b66 fc3d
000003d0: a90d cf3d 7a9d 39bd 0f0a 913e c173 9dbe
000003e0: 074b 32bf 705c a0be bd5f 3a3e 0e63 3bbe
000003f0: bdd8 69bc 359f c83e bcee af3e 4b79 c43e
-0.89455247 -0.3230884 -0.17463851 0.095308445 0.48504794 0.08609389 -0.0656678 0.091771126
0.08081006 0.034680154 0.13388214 -0.13539685 0.28406695 0.24794567 0.7424198 -0.16584183
-0.2644473 -0.12487379 -0.054720685 -0.124662265 -0.00011880653 -0.00023927851 -0.1509153 -0.15905991
0.12539692 -0.4394314 0.0616659 0.19141954 0.32447806 -0.08184714 -0.1928146 0.0037417316
0.12845784 -0.6343129 -0.23151998 -0.13892102 0.23589605 -0.0495345 -0.020990383 -0.553653
-1.0 -0.65157014 -0.5243849 -0.121911034 -0.50545067 0.43723732 0.0891682 -0.1094573
-0.06436731 0.5908392 -0.1572494 0.2300563 0.06527067 -0.12568693 -0.066998266 -0.40941837
-0.15664616 0.15837024 0.169926 -0.05997779 -0.054738306 -0.44286638 -0.2842258 0.012546878
-0.30237788 -1.0 -0.5807024 -0.6635352 -0.32098934 -0.4677781 0.10065697 -0.16721113
-0.014622166 0.57722974 0.67242205 0.71062845 0.19475183 -0.36525178 -0.33093175 0.7175871
-0.34488493 -0.19002166 -0.061453175 -0.54369247 -0.8805066 0.023294631 -0.2835996 -0.3406553
0.120926715 0.60513175 -0.23165934 -0.22749344 0.1909327 -0.12990886 0.5239906 -0.100722864
0.08601742 -0.25251317 -0.17560607 -0.015174499 0.3591246 -0.09135072 0.029413745 0.6060531
0.67758524 0.4992472 -0.36678392 -0.19529688 0.14251378 0.17724624 -0.5885898 -0.45096955
-0.46473017 -0.65853304 0.25329867 0.292001 0.60906637 0.5585422 0.47504318 0.581291
0.16071244 -0.01969053 0.097016886 -0.100907415 -0.04112197 -0.0076976763 0.13574338 0.45881668
0.63887584 0.7535941 0.014367539 -0.35723516 -0.1557486 -0.07560583 0.14845516 -0.1287848
0.37378243 0.0135588 -0.26238176 -0.22153746 -0.16240482 0.026198434 -0.25010973 -0.03976702
-0.034219768 -0.28533322 -0.1777866 -0.72392523 -0.6084657 -0.572391 -0.28964162 -0.07147682
0.01252359 -0.8012974 -0.701158 -0.010295154 -0.05451829 0.082265645 0.05685604 0.54116243
-0.09076881 0.09366982 -0.10022863 0.10676099 0.12473281 -0.38420913 -0.017531164 0.23234212
0.22553605 0.6155435 0.21298556 -0.06633413 0.12565547 -0.062057927 0.06664603 -0.44574702
0.0063585476 0.0014226869 -0.4744852 -0.64223325 -0.53993726 -0.047308557 -0.25202322 -0.5875606
-0.8501577 -0.09769214 -0.2898558 0.121039785 0.22155161 -0.22911823 0.07929808 -0.13334627
0.17133048 0.21322069 -0.16488175 -1.0000001 -0.7702746 -0.85470074 -0.31345066 -0.26214555
0.26305136 -0.30932155 -0.13604291 0.025651364 0.0759371 -0.876643 -0.61600953 -0.064491324
-0.35253567 -0.55225974 -1.0001568 -0.7949292 -0.51822823 -0.36020055 -0.3310124 0.5152445
-0.14928631 0.2868258 0.5128925 0.79126793 -0.31908965 -0.47769126 -0.314909 -0.123649575
-0.6212643 0.67961943 0.01879394 0.06587068 0.21943392 0.1469056 -0.011747368 0.05424546
-0.12489531 -0.48452184 -0.3032021 0.28141636 -0.20203274 -0.1452775 -0.02077478 0.23131938
0.5120444 -0.21441607 -0.13770562 0.1232421 0.10110027 -0.045316197 0.28327987 -0.30752376
-0.6964573 -0.31320524 0.18200584 -0.18299505 -0.014272866 0.39183965 0.34361827 0.3837379

weight f4 [64]
00000000: ddb3 2a3f b1c5 6f3f 0f51 6f3f c8c8 b13f
00000010: 9aba 7f3f f539 2e3f 5276 453f 59ff 443f
00000020: 0b2a 8a3f f1cc 013f 7a24 243f 2162 213f
00000030: f7c9 633f d55c 373f 01e9 5f3f e3a7 633f
00000040: 2e89 5e3f 2f0b 9d3f 9d4e 633f 6e3b 0c3f
00000050: d152 6a3f ba58 6d3f f104 583f 69f7 9a3f
00000060: 14de 843f a3f5 703f 188f ad3f 8890 293f
00000070: 388c 6e3f f4f9 2f3f 9672 263f b06c ab3f
00000080: 18f7 983f 9dde 4b3f 16f5 893f c361 9c3e
00000090: a19e 763f 2f61 993f 731a 4a3f 6d2a 7f3f
000000a0: da20 7a3f 4ebb 113f 82de 3a3f 9abc 7b3f
000000b0: 5ee6 593f ad6b 143f e1bc ad3f a346 783f
000000c0: 5555 6c3f b347 793f d432 1d3f bcff 9d3f
000000d0: b872 833f f931 9b3f d6f0 033f cf6b 443f
000000e0: d88f ad3f ca9b 943f e14a 6d3f 238a 913f
000000f0: 3ab5 333f 564f 6e3f e27a 973f 2dc6 5a3f
0.666807 0.9366103 0.9348306 1.3889399 0.99894106 0.68057185 0.7713367 0.7695213
1.079408 0.5070334 0.6411816 0.6304036 0.8898005 0.71626025 0.8746491 0.8892805
0.8692807 1.2269038 0.8879183 0.5477818 0.9153262 0.9271351 0.8438254 1.2106754
1.0380273 0.9412481 1.3559294 0.6623616 0.93182707 0.68740773 0.65018594 1.3392544
1.1950407 0.79636556 1.0777919 0.30543336 0.963358 1.1982783 0.7894661 0.9967411
0.9770638 0.5692643 0.7299577 0.9833466 0.8511714 0.579768 1.3573266 0.96982783
0.92317706 0.9737503 0.6140568 1.2343669 1.0269384 1.2124625 0.5153936 0.76727
1.3559523 1.1610043 0.9269238 1.1370281 0.70198405 0.9308981 1.1834376 0.8545864

bias f4 [64]
00000000: a98b 88be 03e0 08bf 5d57 17bf e0e2 8fbd
00000010: 724f 56bf b615 1abf f33d 94bf a214 9fbf
00000020: 38e1 3b3f 0c34 fb3b 8cc3 023e 56cf 23bf
00000030: e735 e13d 773c bdbf fe64 a0bf ecb5 81be
00000040: 0c19 5cbf 7b38 6ebc 3f99 67bf 5ef3 373f
00000050: df2c 98bf a5e2 8abf 0cd4 e4be 11ee 373e
00000060: 441e 833d 3867 1dbf bbd3 1f3e 84b6 45bf
00000070: 4013 b0be 658a 81be a4fb 7abe 90d1 d3bc
00000080: f676 13bf 679e 073f 3db4 3ebf d78a 2dbe
00000090: be84 4abf 9c66 adbe a27e 3fbd 7416 2fbf
000000a0: 9053 6dbf 75a0 debe 3dde 46bf 5256 b3be
000000b0: 1ad0 f5be 7c2d 3abe 8865 ef3e ef05 463d
000000c0: 0cd6 3f3f bfcf 51bf 530e ccbd c47d 2bbe
000000d0: 4494 4abd 1cdf c13d b25e 973f ac42 a23d
000000e0: f9e0 aabe 8980 c6be 977f 2dbf 08e0 50be
000000f0: 5d12 f9be 7545 26bf cfb6 783e 6cec 8c3f
-0.26669052 -0.53466815 -0.5911768 -0.07025695 -0.83714974 -0.6018938 -1.1581405 -1.2428172
0.7339053 0.0076661166 0.12769908 -0.63988245 0.10996609 -1.4784077 -1.253082 -0.25334108
-0.8597572 -0.014539833 -0.9046821 0.71855724 -1.1888694 -1.0850416 -0.4469303 0.17961909
0.06402257 -0.61485624 0.15608113 -0.7723162 -0.34389687 -0.253009 -0.24510056 -0.025856763
-0.57603395 0.5297608 -0.7449377 -0.16947494 -0.791088 -0.33867347 -0.046751626 -0.68393636
-0.9270563 -0.43481794 -0.7768286 -0.35026795 -0.4801033 -0.18181413 0.4675715 0.048345502
0.74935985 -0.8195762 -0.0996367 -0.16747195 -0.049457803 0.09466383 1.1825774 0.07922873
-0.33374766 -0.3876994 -0.6777281 -0.20397961 -0.48646823 -0.64949733 0.24288486 1.100965

running_mean f4 [64]
00000000: d60f fd41 51f3 b03f 0199 c4c0 a445 84c1
00000010: 36ae 4ac2 5d6f 1642 03fa dd3f f69f cb40
00000020: ae04 c641 ea2f 2a42 c994 7741 b1ac 31c0
00000030: 1615 e1c1 8ad5 04c2 5920 33c1 8341 9a41
00000040: 5f7d acc1 3ab5 bdc1 2831 a3c1 1343 3841
00000050: 2860 8fc1 c0ea 0941 7c2b d541 214e e5c1
00000060: 7ae6 1dc2 1379 eec0 116e f8c1 1d52 12c1
00000070: e690 76c0 c809 3141 8e0e 1742 011f bcc1
00000080: daab ddc0 4426 4041 ec59 90c1 a77c 0941
00000090: eabb 9ebe ca34 e5c1 3ca5 3941 68b6 1cc0
000000a0: 642e 9341 5146 633f d017 dd40 ea5b 85c1
000000b0: 77fc d740 979b 8ac1 77c8 e741 5e05 ccc1
000000c0: 6753 c2c1 93bd a441 b034 6941 26c4 cfc1
000000d0: b650 6140 089b 1e41 8150 8842 a6e5 b0c0
000000e0: 2a0b a3c1 e262 0bc2 0d83 ac40 c346 20c2
000000f0: e5df a441 7961 ce40 a3da edc0 49ff 4f41
31.632732 1.3824254 -6.143677 -16.534004 -50.670128 37.608753 1.7341923 6.3632765
24.752285 42.54679 15.4738245 -2.7761652 -28.135296 -33.208534 -11.195397 19.281988
-21.561216 -23.71349 -20.399002 11.516376 -17.921951 8.619812 26.646233 -28.663149
-39.475075 -7.4522796 -31.053743 -9.145047 -3.852594 11.064888 37.764214 -23.515139
-6.927228 12.009342 -18.043907 8.592933 -0.31002742 -28.650776 11.60284 -2.4486332
18.397652 0.8877917 6.909157 -16.66988 6.7495685 -17.325972 28.972883 -25.50262
-24.290724 20.592566 14.575363 -25.970776 3.5205512 9.912849 68.157234 -5.5280333
-20.380451 -34.846565 5.3909974 -40.069103 20.609324 6.4493985 -7.432939 12.9998255

running_var f4 [64]
00000000: e054 5044 104b 5244 91b8 1a44 855c 8c44
00000010: 34dc 9044 960b 4b44 24c7 d243 e1fb 0644
00000020: 2bd6 9444 9793 4944 f119 0c44 edc3 3544
00000030: ef83 b044 737e 8144 0c0b 1644 39ef 8244
00000040: 3418 5044 7268 7444 8f9d 1e44 830a b743
00000050: 8f6b ca43 0308 1d44 d4e0 3044 6bc2 ad44
00000060: 4462 8c44 59f2 5844 420d b744 9881 b543
00000070: 5441 7744 1cfe 6a44 b497 2444 91f8 b544
00000080: e40d 8244 379a 1144 bf90 2344 7c1f 5144
00000090: 8fe6 3744 b752 8c44 8cb0 2644 428e 0344
000000a0: beb8 3544 4552 0c44 f3d0 2244 023d 8844
000000b0: 0466 8744 a5bd 0b44 7927 b144 cf90 9244
000000c0: a842 6544 9378 5444 176a 8844 6470 7b44
000000d0: c8bd 8e44 5088 5344 ff27 b944 e549 1f44
000000e0: 67f7 9e44 805f 8544 b891 1944 7884 c744
000000f0: 7ef5 f743 6423 0744 496b 5044 558c 0d44
833.3262 841.17285 618.88385 1122.8912 1158.8813 812.181 421.5558 539.9356
1190.6927 806.3061 560.40533 727.06134 1412.1229 1035.9515 600.1726 1047.4757
832.3782 977.63196 634.46185 366.08212 404.8403 628.1252 707.51294 1390.0756
1123.0708 867.7867 1464.4143 363.01245 989.02075 939.97046 658.37036 1455.7677
1040.4341 582.4096 654.26166 836.49194 735.6025 1122.5848 666.75854 526.2228
726.8866 561.28546 651.26483 1089.9065 1083.188 558.9632 1417.2335 1172.5253
917.0415 849.884 1091.3153 1005.7561 1141.9307 846.1299 1481.2499 637.1546
1271.7313 1066.9844 614.27686 1596.1396 495.9179 540.553 833.67633 566.1927

weight f4 [64, 64, 3]
00000000: 7036 c4be 1657 91bd 2515 50bd b607 94be
00000010: 40e1 c5be 59b3 dbbe ad40 ccbe 77ac 283e
00000020: ca69 c23e 557e 5a3e 9f5a 923e e8ba 1e3e
00000030: a981 5ebf 8427 6cbf 1881 4bbf 37bd 2bbc
00000040: 8663 09bd c6d5 ff3c 272a 313e f2e8 d83e
00000050: 5566 5c3f 6d9a 1dbe eaf3 e33c 8b47 4d3f
00000060: 9f5a 85bd aca0 6bbe ee0a 1abf 7bb9 233e
00000070: e42a d63e 668b ad3e b0a2 cbbe cd3b 35bf
00000080: 75f2 33be d574 1b3e 9cf7 833e 8a6d 2d3f
00000090: d187 8fbe 515b 07be 7a7c 7abe 7ccb 60be
000000a0: cc8f 22be 0675 bcbe 83a1 cfbe 787a 2abf
000000b0: 41da 4abf fb22 bcbd 8a82 173e 9bcd 903e
000000c0: 8d3d 20bd 721a 183c cd21 52bc 9709 a53e
000000d0: 0b03 063e b6b1 c23d ca06 20bc 76b2 93be
000000e0: 1be4 12bf 298e b63d 641f a23e 8b0d 1f3d
000000f0: 4352 20bf d87e ccbe d887 7abe 2459 003e
00000100: 4692 8cbe 4cd2 0b3d 58b2 6ebf b2d0 f5be
00000110: 8d6e 7bbf 0820 3cbe c2bf 043d d1d3 96bc
00000120: 018b a13c 3426 183d 0ab6 d6bd a0bf 89bd
00000130: 8acb 5cbe 3cea a3bd 2d12 a13e 1d92 5a3d
00000140: c9c1 bd3e abd9 9dbe 7f88 99be 8383 a1be
00000150: 38cc 463d 648a 033f b0c3 7a3f 72c0 b13d
00000160: 8a21 c33d 571d b5be a17c 15bd 7296 d83a
00000170: 35a4 81be 8b2e c6bc d1a8 873e b8b7 d4bd
00000180: 1399 813c 285e 48bd df82 13be 118e 223f
00000190: 0fd9 913e 74ed aa3d 7d8f 043f f3c7 71bb
000001a0: 8edd 553e 2d63 f43d be61 f6bc 3851 723c
000001b0: 1e5c d2be ccf1 a43c 52f2 cbbe f351 debd
000001c0: b297 8bbe 5015 b53c 93bc b83e a63e 323e
000001d0: 6733 343f e405 51bd 774a c93c e050 06be
000001e0: 9573 293f 7ec9 123f 16cf 693f e22a 89bd
000001f0: ef77 ddbd dbed 01be 7174 e03d 3ede 9bbc
00000200: a5dd 233e 0000 803f d755 543f 0000 803f
00000210: 0000 803f e242 2f3f 0000 803f a986 423f
00000220: 99ac 0e3f 0200 803f 5e3a 1d3f 140f 163f
00000230: 08d8 1b3f 0cbb 043f fa10 6d3e dfb2 903d
00000240: 770a 153f 850d 113f d0c9 603e 522b e9bd
00000250: c93d ebbd 859b 88bc 0000 803f 85f6 113f
00000260: f6f5 2d3f dc01 c33e 395f 3cbd f04c fdbd
00000270: be5a a1bd fc96 e83e 9d05 a63e 5f42 433f
00000280: 6476 e43e 78b9 e0bd 7042 b6be fd80 04bf
00000290: 8727 d2bd d7ed f33e aad0 19bc 9d8e dc3e
000002a0: a571 cf3d 5dfa 04be f509 873e cda6 01bf
000002b0: 546f 13bf 1662 debe 746d 47bf 5269 2e3d
000002c0: 6942 38bf 4c8a 76be bb8d e93c e60e 59be
000002d0: 1ef6 013f 269c a83d 626e b53c e43f 1d3c
000002e0: ba6c c83e d3a1 b13c fab1 88bc 7ae3 9bbc
000002f0: b5b8 69bd 0751 e9be bdb3 91be 1f62 7bbe
00000300: 6538 c7be af63 08be 2987 adbe fe63 2e3f
00000310: 28bc 393e 5a44 a2bc 692f dfbe 213a 243e
00000320: 3b6b 1d3f ed48 2bbe 5ca4 cebe 8d1d 203f
00000330: 52a0 6fbd 8b0f c83e 0000 803f c25f 1d3f
00000340: 6d46 273f 1a54 0f3f 2ff1 083f 812f 11bf
00000350: 9c29 0dbf 7488 0c3d 3228 f13e 0000 803f
00000360: bb40 8a3c 6588 6bbe 0000 80bf a674 3b3e
00000370: 321c 913c 295e ffbe 4c58 c9bd e604 9dbd
00000380: 0cfd 6fbf 8bb9 91be bbb2 ec3e ce52 813c
00000390: 6dbb 6a3e c78c bc3e 0400 803f 9446 47bd
000003a0: ccfb f43e 1690 e63e f20e fbbe 3458 d83e
000003b0: 6d42 513f 84c3 af3e aeac 003e 0200 80bf
000003c0: 2d7d 56be 02ad e73d 45dc eb3e e3a8 50be
000003d0: 5560 1d3d e806 343e 3784 14be e8f8 8b3e
000003e0: e403 5fbc 987e 9dbe a632 91be 0011 6fbf
000003f0: 9495 1d3e d09f 463f 6500 803f e53c 51bf
-0.38322783 -0.070966884 -0.050801415 -0.28912133 -0.38648415 -0.4291027 -0.39893094 0.1647204
0.37971336 0.21337254 0.28584763 0.15500987 -0.86916596 -0.92247796 -0.79493856 -0.010482124
-0.03354218 0.031229865 0.17301236 0.42365223 0.86093646 -0.1539094 0.027826268 0.8018729
-0.06511425 -0.2301051 -0.6017293 0.15988724 0.41829598 0.33895415 -0.39772558 -0.70794374
-0.17572959 0.15181287 0.25774848 0.6774527 -0.28033307 -0.13218428 -0.24461547 -0.21952623
-0.15875167 -0.36808032 -0.4055291 -0.6659312 -0.7923928 -0.091863595 0.1479589 0.28281865
-0.0391212 0.009283649 -0.012825442 0.3223388 0.13087098 0.09506552 -0.009767244 -0.28847092
-0.5737931 0.08913834 0.31664574 0.038831275 -0.6262552 -0.39940524 -0.24465883 0.12534004
-0.27455348 0.0341361 -0.9324088 -0.48010784 -0.9821556 -0.18371594 0.032409437 -0.018411549
0.019719603 0.03714581 -0.1048394 -0.06726003 -0.21562019 -0.08003661 0.3145918 0.053362
0.3706191 -0.3083013 -0.2998695 -0.31545648 0.048534602 0.5138304 0.97954845 0.08679284
0.095278814 -0.35373947 -0.03649581 0.0016524328 -0.25320593 -0.024192115 0.26495984 -0.10386604
0.015820062 -0.04891792 -0.14405392 0.63498026 0.28485915 0.08346072 0.51781446 -0.003689286
0.20885298 0.11932979 -0.030075904 0.014789872 -0.41085905 0.020134829 -0.39833313 -0.10855474
-0.27264172 0.02210489 0.3608137 0.17406711 0.70390934 -0.05103101 0.02457164 -0.13116789
0.6619199 0.573387 0.91331613 -0.06697632 -0.10813891 -0.12688391 0.109597094 -0.019026872
0.1600252 1.0 0.8294348 1.0 1.0 0.6846143 1.0 0.75986725
0.55732113 1.0000002 0.61417186 0.5861676 0.6087651 0.5184791 0.23151007 0.07065367
0.58219093 0.56661254 0.21951985 -0.11385216 -0.11486394 -0.01667572 1.0 0.57016784
0.6795343 0.38087356 -0.04598925 -0.1236819 -0.07878636 0.45427692 0.32426158 0.7627315
0.44621575 -0.10972875 -0.35597563 -0.5175932 -0.102614455 0.47642395 -0.009388128 0.43077555
0.10129098 -0.12986131 0.26374784 -0.5064514 -0.5759175 -0.4343421 -0.7790139 0.04258091
-0.71976334 -0.24076194 0.028509965 -0.2119709 0.5076617 0.08232908 0.022147361 0.009597752
0.39145452 0.02168361 -0.016686428 -0.019029368 -0.057060916 -0.4556963 -0.28457442 -0.24549149
-0.38910213 -0.13319276 -0.33892182 0.68121326 0.18138182 -0.019807983 -0.4359086 0.160378
0.61491746 -0.16727038 -0.4035977 0.6254509 -0.058502503 0.39074358 1.0 0.6147424
0.65341836 0.55987704 0.53493017 -0.5671311 -0.55141616 0.03430982 0.4710098 1.0
0.016876569 -0.23001249 -1.0 0.18306217 0.01771364 -0.49876526 -0.098312944 -0.0766695
-0.93745494 -0.2846187 0.4623011 0.015786555 0.2292306 0.36826155 1.0000005 -0.048651293
0.47848356 0.45031804 -0.4903484 0.42254794 0.8174198 0.34328854 0.12565872 -1.0000002
-0.20946188 0.113122955 0.4606649 -0.20376925 0.038421948 0.1758076 -0.14503561 0.27338338
-0.013611767 -0.30760646 -0.28358954 -0.93385315 0.15389091 0.77587605 1.000012 -0.8173354
