model/fbin-p,95.80,450,5.pt (torch, 290212 bytes, 36 tensors)

weight f4 [8, 1, 16]
000000 e8 50 ac 3f cb f7 5a 3f 3f ff 6e b8 52 1a dd be
       1.3462191 0.8553435 -5.698134e-05 -0.43184143
000010 95 af a8 bf 4c a4 f5 bf a1 b4 04 c0 d3 d3 09 c0
       -1.3178583 -1.9190764 -2.0735247 -2.1535537
000020 30 34 f2 bf ca 4c 95 bf 17 82 80 bf d6 69 08 bf
       -1.8922176 -1.1664059 -1.00397 -0.5328649
000030 d3 2b bc 35 d8 ca 15 3f 04 f6 6e 3f b3 f9 a7 3f
       1.4019846e-06 0.5851264 0.9334414 1.3123077
000040 ff 83 c9 3d 6e 7a 65 bb 8f e4 a3 3e cc 93 2f 3c
       0.098396294 -0.00350156 0.32010314 0.01071639
000050 6f fb 49 3f 25 9a 63 3f 8e e2 7a 3f 01 c6 99 3f
       0.7889928 0.8890708 0.98001945 1.2013551
000060 06 f7 3c 3f 77 0e 9f 3e 34 37 35 3c 89 02 a2 be
       0.7381443 0.31065723 0.011060525 -0.3164256
000070 c0 6e 5c bf 87 31 98 bf b6 c2 c9 bf fb d6 1c c0
       -0.8610649 -1.1890115 -1.5762546 -2.4506214
000080 68 19 00 40 fb b3 95 3f ee 07 98 3f ba 0f 2e 3f
       2.0015507 1.1695551 1.187742 0.67992747
000090 fa 68 cc 3e eb 60 b3 35 27 25 bc 3d d0 89 9c bd
       0.3992384 1.3364746e-06 0.09186774 -0.07643473
0000a0 d0 d3 60 bd 9b 95 87 3d be 64 c1 be d3 fa f8 bd
       -0.0548895 0.06620332 -0.37772173 -0.12157216
0000b0 ad 9a ee be c2 83 8e bf 8d 59 ab bf 44 35 da bf
       -0.46602383 -1.1133959 -1.3386704 -1.7047505
0000c0 c3 ba 9d bf 67 65 fc bf 59 c6 ea bf 93 6c ac bf
       -1.232262 -1.9718446 -1.8341781 -1.3470634
0000d0 78 66 b1 bf f2 83 7b bf 9b d6 1e bf 3b 52 a8 34
       -1.3859396 -0.9824821 -0.6204621 3.135227e-07
0000e0 18 ae ee 3d 4b 91 62 be 4d 00 d5 3d 23 85 3b 3e
       0.116542995 -0.22125737 0.10400448 0.18312506
0000f0 81 14 15 3f 6c 1b 97 3f f1 3b c7 3f ab 31 0d 40
       0.5823441 1.1805243 1.5565168 2.2061565
000100 e3 39 88 be cb 0a 51 bd fa 14 85 3c e6 36 a9 3c
       -0.26606664 -0.051035684 0.016245354 0.02065606
000110 93 0c cf 3e 8b e5 62 3f 67 f8 06 40 3f c7 45 40
       0.4043928 0.88631505 2.1089113 3.090286
000120 94 60 53 40 48 64 20 40 43 db c8 3f f1 df 6f 3f
       3.3027697 2.5061207 1.5691913 0.9370108
000130 cb b3 9e 3c 4d 9d 71 3d 93 7f 13 bf e4 76 17 bf
       0.019372841 0.058987904 -0.5761654 -0.5916579
000140 db d2 e9 bf 8c 5c 0c c0 5f eb 0c c0 13 6d da bf
       -1.8267473 -2.1931486 -2.201866 -1.7064537
000150 7b 46 8c bf 52 7c 7b bf 3f 07 bd be 9e fc 02 bf
       -1.0959009 -0.9823657 -0.3691959 -0.51166713
000160 57 14 06 3d c9 7d 9d 34 35 a5 46 3e 1f 9c 2f 3e
       0.03273424 2.933505e-07 0.19398959 0.17149399
000170 f2 cc 96 3c 93 d0 35 3e 6e 2a 40 3f 62 47 96 3f
       0.018408272 0.17755346 0.7506474 1.1740534
000180 c0 a9 f3 3f ab 70 05 40 d6 82 02 40 bc 93 be 3f
       1.9036179 2.0850017 2.0392356 1.4888835
000190 6e 6f 7f 3f 3a 9e 92 3e 2d 91 81 3e 6f 9f 17 38
       0.99779403 0.28636342 0.25306073 3.614969e-05
0001a0 94 cb a6 be a0 8a f8 be d2 21 82 b8 f4 81 c4 bd
       -0.32577193 -0.48543262 -6.2051826e-05 -0.09595099
0001b0 f3 15 36 3e 48 ed 6b 3f 07 ad c6 3f 83 52 24 40
       0.1778181 0.9215894 1.5521554 2.567536
0001c0 0c f4 a6 3f 88 1c 33 3f f9 6f 3c 3f 14 78 19 3f
       1.3043227 0.6996541 0.73608357 0.5994885
0001d0 4c 72 e0 3e ea 1c 09 3f 84 f4 62 3d 7a 19 c8 3e
       0.43837202 0.53559744 0.05540897 0.39081937
0001e0 19 b5 60 bc c0 fe ef bd df cd b9 bc bb 33 f8 be
       -0.013715052 -0.117185116 -0.022681175 -0.48476967
0001f0 08 55 2e bf 98 db 79 bf ae 19 b7 bf 85 8e e6 bf
       -0.680985 -0.976007 -1.4304712 -1.8012244

weight f4 [8]
000000 6c ad c4 3e 46 20 21 3f 49 79 91 3f 5a 9b 85 3f
       0.3841356 0.6293987 1.1365138 1.0438035
000010 14 88 d1 3e e9 40 85 3f f0 1f 45 3f 36 2d 45 40
       0.40924132 1.0410434 0.7700186 3.0808845

bias f4 [8]
000000 df 75 24 be 3f 44 4d bd a3 18 a9 be ae 0d 2e 3d
       -0.16060589 -0.050113913 -0.3302661 0.042493515
000010 cf 32 37 be b2 f3 dc be cb cf 80 bf a2 1b f8 3e
       -0.17890476 -0.43154675 -1.0063413 0.48458582

running_mean f4 [8]
000000 ed 1f db 3e 76 a0 af bd ff e4 41 3e a0 94 43 3e
       0.42797795 -0.08575527 0.18935011 0.19099665
000010 4f 97 b0 be 83 d1 4d 3e 1f 5e c0 be 47 f0 56 3e
       -0.3449044 0.20099454 -0.3757181 0.20990096

running_var f4 [8]
000000 07 69 14 3e ca 92 e2 3e 08 a5 93 3e 35 73 44 3e
       0.1449319 0.44252616 0.28836846 0.19184573
000010 c6 19 4b 3f c6 fa 6d 3e f7 5d 18 3f e5 7f b6 3e
       0.793362 0.23240194 0.5951838 0.3564445

weight f4 [12, 8, 12]
000000 41 a8 44 40 21 58 dc 3f b0 1c 3b 3f 38 64 2f bc
       3.0727694 1.7214395 0.7309065 -0.010705046
000010 0f aa 8d be 32 6f 00 bf 2c 30 34 bf 55 a9 73 bf
       -0.27668807 -0.5016967 -0.70386004 -0.95180255
000020 62 0e 0a bf 78 39 0e bf c0 7b 58 bf 27 3c f8 be
       -0.53928196 -0.5555644 -0.8456383 -0.48483393
000030 11 9e eb be 26 55 9a be 7b 9c 6f be 99 1b 4c bd
       -0.46019033 -0.30143088 -0.23399536 -0.049831007
000040 a4 48 ba bc 31 f8 34 bb 2f 36 e4 bb ae 49 7e bc
       -0.022739716 -0.0027613754 -0.006964467 -0.015520496
000050 e9 c8 79 3b 44 3b a1 b5 90 84 40 bb de 38 94 b8
       0.0038114137 -1.2012683e-06 -0.0029375888 -7.067782e-05
000060 ba d9 b8 3f af c2 b7 be cc 9a 22 bf a3 40 06 c0
       1.4441445 -0.3589072 -0.6351745 -2.097695
000070 51 11 12 c0 81 8f 4f c0 c3 22 c0 bf e6 f2 eb 37
       -2.282307 -3.2431338 -1.5010608 2.8127291e-05
000080 e1 24 cd 3d 2c da 67 3d 02 06 bf 3e 8a c5 79 3e
       0.100168 0.05660455 0.3730927 0.24391761
000090 ab ef 3c 40 7f bf 05 40 6e 0d 8c 3f 9a 74 45 3f
       2.9521282 2.089813 1.0941598 0.77131045
0000a0 ca af ab 3f 09 d5 57 3f d9 74 08 3d bd 52 c3 bc
       1.3413022 0.8430944 0.03331456 -0.023843164
0000b0 dc 67 e6 be 93 c2 70 bf 96 00 22 c0 b8 db 28 c0
       -0.45001113 -0.94046897 -2.5312858 -2.6384106
0000c0 fe 7e c8 be 17 f6 9a bc 1e 89 05 bf 2c c1 8d be
       -0.39159387 -0.018916173 -0.5216235 -0.2768644
0000d0 77 0a ae bd 22 34 b8 3c 3e 01 c6 3c 3a fe af 3b
       -0.0849809 0.022485796 0.024170514 0.0053708823
0000e0 d5 e1 c8 3d 7f f5 e0 3b 90 4c ce 3e da 12 0e 3c
       0.09808699 0.006865203 0.40292788 0.008671487
0000f0 7d 4f 16 40 f4 82 8c 3f 5f cc 07 3f eb 9d bf 3b
       2.3486016 1.0977464 0.5304622 0.0058476827
000100 f5 00 78 bc 57 76 c5 3e 69 9f f7 bc b8 35 20 be
       -0.015136947 0.3856685 -0.03022738 -0.15645492
000110 24 79 fc be 33 24 a3 bf d0 83 05 c0 a1 18 35 c0
       -0.49311173 -1.2745422 -2.0861702 -2.8296282
000120 ec 73 e6 3d 71 1f 15 bf 86 32 b2 bf 50 95 63 bf
       0.11252579 -0.582511 -1.3921669 -0.8889971
000130 41 2e 93 3c bd c7 9f 3f f4 5b 8e 3f bd a8 5b 3f
       0.017966392 1.248283 1.1121812 0.8580435
000140 4e f5 21 3f 7e 51 46 3f a1 87 91 3e 93 22 0d bd
       0.6326493 0.774681 0.2842379 -0.0344568
000150 96 09 b3 be 39 37 d1 bf 20 d9 ec bf 71 96 26 c0
       -0.3496825 -1.6344978 -1.8503761 -2.6029322
000160 dd 28 0b c0 5a 2e 1e c0 6f b9 0a bf e6 12 97 bc
       -2.174369 -2.471579 -0.541892 -0.018441629
000170 61 c4 84 b6 d9 5c ae bd c6 cf 73 3f 0f ad 75 3f
       -3.956768e-06 -0.08513803 0.9523891 0.9596719
000180 0c 84 9f 3e 58 80 07 3f 70 92 e7 3c 10 0e b1 bd
       0.3115543 0.5293021 0.028268069 -0.0864526
000190 43 40 27 be 70 33 06 3c 9c c4 24 3e 7e 5b ac 3e
       -0.16333108 0.008190975 0.16090626 0.33663553
0001a0 de b2 fe 3d b2 d9 27 bd 43 e9 96 3d 7f 3b 34 3c
       0.1243646 -0.040979095 0.0736871 0.011000513
0001b0 59 da 3d 3f 37 13 25 3d 14 70 85 bc 4c 8b 43 39
       0.741613 0.040301528 -0.016288795 0.00018648541
0001c0 97 04 70 be 76 b2 6a bd 42 9a 30 3d 3e 8e f7 bd
       -0.23439251 -0.0572991 0.04311586 -0.120876774
0001d0 12 05 2e 3c d3 fe 04 be 97 aa b0 3c 49 d8 18 bd
       0.010621326 -0.12987833 0.021565719 -0.03731564
0001e0 3d e6 8c 3e d5 33 19 3f 74 d5 8a 3f 9b 26 45 3f
       0.27519408 0.59844714 1.0846391 0.7701203
0001f0 a3 76 0f 3e 9f e4 c9 bf fd e0 dc bf 2b 13 ca bf
       0.140101 -1.5772895 -1.7256161 -1.57871
000200 7a 10 31 bf 66 c6 d7 be a5 b4 fd be a7 35 27 bf
       -0.69165766 -0.42143553 -0.49551883 -0.6531624
000210 fd 03 a6 be 38 5c dd bc bf 6a 68 3e 4c 4c ac be
       -0.32424918 -0.027021512 0.2269697 -0.3365196
000220 79 06 ac be 08 a1 54 bf 67 21 fe bc cc 4e 36 3e
       -0.33598688 -0.83058214 -0.031021787 0.17803496
000230 d1 76 27 3f 8a 2e 10 b6 ae ec 9a be 03 5c 97 be
       0.65415674 -2.1484761e-06 -0.30258697 -0.29562387
000240 c1 ba 07 3e 8f 93 10 3e e1 4b fb 3a eb 0d 48 bd
       0.13254835 0.14118789 0.0019172394 -0.0488414
000250 4b e8 88 bf 23 06 94 be 18 6d 07 3d 54 13 11 bc
       -1.069589 -0.28910932 0.033063024 -0.008854706
000260 a7 d7 7f bd 79 28 88 bd 10 c9 4c be 8c 93 6d 3b
       -0.06246152 -0.066483445 -0.19998574 0.0036251275
000270 93 fc 14 3f 51 21 1e 3f cd ce 3a 3e 09 db a8 bf
       0.581979 0.61769587 0.1824295 -1.3191844
000280 72 f6 f2 bf 69 0f c7 bf d2 c4 11 bf 66 6d 22 bc
       -1.8981459 -1.5551578 -0.5694095 -0.009913778
000290 2f 92 35 3f 3f b3 e2 bd c8 f8 a2 bf 71 0d d0 bf
       0.70926183 -0.11069345 -1.2732172 -1.6254102
0002a0 51 29 57 40 5b 34 00 40 c1 6c ab 3f c4 03 57 3f
       3.3618968 2.0031955 1.3392564 0.8399012
0002b0 41 bb 9a bf c3 a0 09 c0 7d 7d 2b c0 af b9 01 c0
       -1.2088395 -2.150437 -2.6795342 -2.0269582
0002c0 43 6b e7 bf 1c 7c 7e bf c8 0c 59 bf 25 bc 94 bf
       -1.8079609 -0.99408126 -0.8478513 -1.1619917
0002d0 b2 0a 8b 3f ce 7b 3c 3f 4d 44 45 3e c0 fe 70 be
       1.0862639 0.7362641 0.19264336 -0.2353468
0002e0 55 c4 07 bf 76 bf 46 bf 81 25 cf bd b1 b5 45 bf
       -0.53033954 -0.77635896 -0.10114575 -0.77230364
0002f0 a0 e5 8d bf ca e3 fa bf 40 c8 8a bf 58 0a 64 bf
       -1.1085701 -1.9600766 -1.0842361 -0.89078283
000300 bd b6 41 bd 74 ff b4 be fa b9 38 be bf f9 ee bb
       -0.047293413 -0.35351145 -0.18039694 -0.0072929556
000310 93 0b cd 3c e6 7f 28 bf 6f 4f 6a bf 0d a5 05 bf
       0.025029933 -0.6582016 -0.91527456 -0.5220497
000320 73 17 62 bf 5a 47 46 bf 65 b3 89 bf 2c 1f 4a be
       -0.8831703 -0.77452624 -1.0757872 -0.19738454
000330 58 1c 8f b9 97 1d 55 be 8b 65 06 be e1 25 3d 3e
       -0.00027296203 -0.20812069 -0.13124673 0.18471481
000340 19 c9 9c 3d 7b ee 09 be 71 a1 49 3e dc 19 82 3e
       0.07655544 -0.1346988 0.19690491 0.25410354
000350 0e 62 39 3e cd 54 64 be 87 1b 0e 3b 29 db 9f 3d
       0.18103811 -0.22297974 0.0021683888 0.07805473
000360 00 7f 02 be 2b 5c 9c bf 61 e4 7a bf 29 2b 60 bf
       -0.12743759 -1.2215627 -0.9800473 -0.8756586
000370 83 de c3 bf e2 4b 15 c0 8b 87 cc bf 01 76 0e bf
       -1.530228 -2.3327565 -1.5978864 -0.5564881
000380 94 a1 17 bf be f3 85 bf 2e 91 dd bf 34 5c a4 bf
       -0.59230924 -1.0465009 -1.730993 -1.2840638
000390 e0 5e 1b 3f 6d c8 8d be f8 61 45 bf ab 51 f4 be
       0.6069164 -0.27691975 -0.77102613 -0.47718558
0003a0 b5 4d 53 bc d0 e7 fd 3c cf b7 80 3e 58 7a 21 bc
       -0.012896945 0.030994326 0.25140235 -0.009855829
0003b0 50 a7 cb bf 36 79 1a c0 2a b6 1d c0 5c 13 ba bf
       -1.5910435 -2.4136481 -2.4642434 -1.4537158
0003c0 2b 3b a9 3c 4e fb dc bc 72 8a d6 bc 9b 0c 27 3d
       0.020658096 -0.0269753 -0.026189063 0.040783506
0003d0 c2 c6 37 be 7b 9c 4c be 30 2f 1d 3e ff 9b f7 3d
       -0.17946914 -0.19981568 0.15350032 0.12090301
0003e0 06 c2 bf 3d 24 00 48 be 0e be f9 be 30 33 01 bf
       0.09363179 -0.19531304 -0.48777813 -0.5046873
0003f0 e2 0d 47 bf 47 d9 1c c0 07 88 c4 bf bd 62 07 c0
       -0.7775556 -2.4507616 -1.5354012 -2.1154015

weight f4 [12]
000000 db 84 07 3f a3 27 34 3f bc 03 1c 3f ec 15 9a 3e
       0.52937096 0.7037298 0.609432 0.3009485
000010 d8 19 34 3f 6c 5a 05 3f 60 f0 21 3f ad 09 42 3f
       0.70351934 0.520911 0.6325741 0.75796014
000020 89 f9 5e 3f 54 36 35 3f b1 29 39 3f 5b 38 12 3f
       0.8709951 0.70786023 0.7232924 0.5711724

bias f4 [12]
000000 43 95 2f be 68 58 5f 3e 38 db 2a 3e bb 6a ce 3d
       -0.17146783 0.21811068 0.16685188 0.10078951
000010 7d 74 27 bf 69 28 29 bf 55 27 97 be e5 9f 93 be
       -0.6541212 -0.66077286 -0.29522195 -0.28832927
000020 e6 a4 18 be bc de 60 be d7 eb 11 be 7a 7e 83 be
       -0.14906654 -0.21959966 -0.14250122 -0.2568243

running_mean f4 [12]
000000 51 cf 71 41 9f 4c bd 41 92 fe 33 42 4b 38 b0 41
       15.113114 23.662413 44.998604 22.027487
000010 63 9f 93 c0 fe d5 b1 40 da 7b 09 c0 01 32 81 40
       -4.6132064 5.557372 -2.1481843 4.037354
000020 1f d6 df 40 d1 67 e0 40 9c 4b 46 41 85 52 a8 41
       6.994888 7.012673 12.393459 21.040293

running_var f4 [12]
000000 27 68 c2 42 7b 33 23 43 8f c4 37 43 a7 42 ae 42
       97.20342 163.2011 183.7678 87.13018
000010 fd b4 34 43 b2 d0 e5 42 44 4a 2b 43 65 68 50 43
       180.70699 114.90761 171.2901 208.40779
000020 2e 1d 5b 43 23 3a 0f 43 c3 06 e4 42 fe a6 8f 42
       219.11398 143.2271 114.01321 71.82616

weight f4 [32, 12, 9]
000000 a3 ad a0 bf 98 91 5d bf 3f 87 06 bf 83 2b c1 3e
       -1.255299 -0.86550283 -0.5255012 0.3772851
000010 d8 2e eb 3e 69 dd e9 be cc 1d ca 3e ef 3e d0 bc
       0.45934176 -0.45676735 0.39475858 -0.025420634
000020 d8 68 ac bf 85 fa 50 3e 70 ab 16 be 50 77 41 bd
       -1.3469496 0.20408066 -0.14713836 -0.047232926
000030 5f 66 75 bb e0 f2 4d bf b6 df 1e 3e a0 d9 47 3d
       -0.003744505 -0.8044872 0.15515026 0.048791528
000040 19 19 97 bc 1d a8 b3 3e d9 fe 9e be 67 ef 32 be
       -0.018444585 0.35089198 -0.31053808 -0.17474137
000050 93 1a 5b bb 60 72 71 3d 8e 52 89 3e 04 05 94 3f
       -0.0033432588 0.058946967 0.26820797 1.1564031
000060 75 23 a7 3f da 3d 90 3f 49 6a 8e 3f 00 60 44 3c
       1.3057696 1.1268876 1.1126186 0.011985779
000070 5b 13 5a 3e a1 b3 17 bf f9 73 01 b5 69 88 68 3f
       0.21296446 -0.59258467 -4.822501e-07 0.90833145
000080 22 dd 73 3f 31 d6 75 3f 6e da c9 3e e2 fb a8 bf
       0.95259297 0.96029955 0.3942446 -1.3201869
000090 54 20 d2 bd 76 aa 85 3d 53 54 6a 3e 2f 56 2f 3f
       -0.10260072 0.065266535 0.2288373 0.6849088
0000a0 bd f6 f6 3e e0 44 8a 3d 02 07 21 bf 31 06 b4 bf
       0.4823512 0.06751418 -0.6290132 -1.406439
0000b0 66 cf 36 bf 0c a1 e2 3d a0 4a db be 4c 85 8a 3d
       -0.71410215 0.110658735 -0.42830372 0.067637056
0000c0 3a 7e d4 3b 65 a6 93 bd f6 83 13 bd 0d 44 d4 3e
       0.006484774 -0.072094716 -0.03601452 0.4145817
0000d0 59 84 31 bf 73 5e cb be 26 94 34 36 ef 8e 2d 3b
       -0.6934257 -0.39720497 2.6908324e-06 0.00264829
0000e0 2f 76 9f bf 69 1c 7a 3e 0d 18 09 3d f0 ce 9a 3d
       -1.2457942 0.244249 0.033470202 0.075590014
0000f0 62 13 ac 3e 75 d6 56 bc ab 73 8c bf 60 98 d0 bf
       0.33608538 -0.013112654 -1.0972799 -1.6296501
000100 de 76 89 bf 42 f7 c3 3c 8a c3 91 3f 7a 11 37 3f
       -1.07394 0.023921613 1.1387799 0.7151104
000110 84 35 69 bf da 36 81 bf bb b4 b5 bf 84 dc c9 bb
       -0.91097283 -1.0094864 -1.419578 -0.0061603207
000120 af ae 68 3e 8e ae e4 bc 8c 59 42 bf 3b 07 e9 be
       0.22722887 -0.027915265 -0.7591789 -0.4551333
000130 ed d0 a2 3f fe b0 4d 3f c1 fb 1a 3e 4d 77 90 3c
       1.2720009 0.80348194 0.15135099 0.017635012
000140 80 e3 77 bf 75 66 47 bf 56 22 6e bf d9 96 09 bf
       -0.9683151 -0.7789071 -0.9302114 -0.537458
000150 70 9e 26 3c 2b af 06 bf 22 57 93 be 67 3c 5b bf
       0.01016961 -0.52611035 -0.28777415 -0.8563904
000160 c1 39 bd bf 91 80 97 3d 15 d1 8a bc a7 da 12 bf
       -1.478325 0.07397569 -0.016945401 -0.57364887
000170 60 44 70 bf f0 83 90 bd 28 ef a6 ba 38 5b 23 3e
       -0.9385433 -0.07056415 -0.0012736069 0.15952766
000180 25 fe b3 be 03 02 fe bf c7 e4 cc 3e 9d 81 bc 3f
       -0.35154834 -1.9844364 0.40018293 1.4727055
000190 79 e6 5f 3f ae 5e 01 bc 85 b0 5d bf 2b 51 39 3e
       0.8746105 -0.007896109 -0.8659747 0.1809737
0001a0 6a 00 8a 3e 0f 5a 5b 3f e1 ee 6d 3f 16 0c c2 3e
       0.2695344 0.85684294 0.92942625 0.37899846
0001b0 24 eb 63 bc fb 02 78 3b e4 4a 18 bd 3e ce a8 be
       -0.013911042 0.0037843573 -0.037180796 -0.3296985
0001c0 d5 c6 ed bf 1c 38 9c be 02 ae c0 3e c3 b3 83 be
       -1.8576304 -0.30511558 0.37632757 -0.25723085
0001d0 56 ec b9 3c e9 24 e9 3c 76 82 0b bf 8c c6 69 bf
       0.022695702 0.028459983 -0.5449594 -0.91318583
0001e0 8f 99 a0 bf fe 38 94 3f 69 b2 01 40 13 6b fc b5
       -1.2546862 1.1579893 2.0265143 -1.8806626e-06
0001f0 9b 30 bc bf 25 44 db be 71 74 0c 3d fa c0 f5 3d
       -1.4702333 -0.42825428 0.034290735 0.11999698
000200 ca ec cf 3c 32 65 1e bf 09 98 51 3e b8 b9 8f 3e
       0.025381465 -0.6187316 0.20468153 0.2807138
000210 6e 3b 8b 3d d3 45 05 37 f4 9a 86 bd 7c bf 35 bd
       0.06798445 7.943675e-06 -0.06572524 -0.044372067
000220 34 85 b1 3d 96 56 54 3d 70 f9 52 bd 9f 4e 16 3f
       0.086679846 0.051840387 -0.051507413 0.58713716
000230 2a ea e5 3e 3c c0 ad 3c 9c e7 eb bd ea 7a 30 3d
       0.44905216 0.021209829 -0.11518785 0.04308597
000240 32 53 80 bf 3c 7c be be 93 54 55 3e c2 41 b5 3d
       -1.0025389 -0.37204158 0.20833044 0.08850433
000250 be ca ab be 9a a2 21 bf 03 ad 89 be a2 fe e1 3c
       -0.33553118 -0.63138735 -0.2688981 0.027587239
000260 c7 cb a3 3f 61 b3 3f 3e 0f 1a 3b 3e 58 30 b5 bc
       1.2796563 0.18720771 0.1827166 -0.022117779
000270 f6 92 a9 be 9d da 42 bf 14 c2 2f bf 7c 6e 13 3f
       -0.33119935 -0.7611483 -0.68655515 0.5759046
000280 14 2e 44 3e b3 62 36 bf 44 8a 0e bf 87 8b b8 bf
       0.19158202 -0.71244353 -0.55679727 -1.441758
000290 c9 12 a2 3e e6 52 4e 3f bd e0 38 3f a1 10 a9 3e
       0.31654957 0.8059524 0.72217923 0.330205
0002a0 87 a7 1f 3b 19 98 50 bf 9e 06 86 3d 13 0f ea 3c
       0.0024361329 -0.8148208 0.06544231 0.028571641
0002b0 ee 87 e4 be 87 75 b5 3f af e7 99 3f 09 b2 37 bf
       -0.44634956 1.4176491 1.2023829 -0.71756035
0002c0 4b f7 b3 bf 4c 8a 72 bf a4 25 8f bd fc c8 a7 3d
       -1.4059843 -0.94742274 -0.06989601 0.081926316
0002d0 43 85 4e 3d 18 ab 07 bf f8 b6 11 bf 7f b2 27 40
       0.050420057 -0.52995443 -0.56919813 2.6202695
0002e0 04 f9 54 40 36 1b c7 35 f5 2f 84 bf 8c 50 8a 3d
       3.3276987 1.4834575e-06 -1.0327135 0.06753644
0002f0 31 2d 17 3f 78 95 0c c0 ed 76 c4 bf d8 be 0e 3f
       0.5905333 -2.1966228 -1.5348793 0.55759954
000300 dc 80 fd 3c e3 4a 76 3f 43 9c de 3f 9e 93 38 be
       0.030945234 0.9620802 1.7391437 -0.18025061
000310 bb 27 70 be 2e 90 3c bd 5f 35 03 c0 96 d0 bb bf
       -0.23452656 -0.046035938 -2.0501325 -1.467303
000320 34 75 f3 3f 35 24 31 40 ea 02 7c 3f 32 af 99 3c
       1.9020143 2.767835 0.98441947 0.018760297
000330 46 fa 4c bf 3e 47 17 be f5 c9 4a bf 65 ab 05 3e
       -0.80069387 -0.1477327 -0.7921441 0.13053663
000340 b4 a8 64 3f dc 47 e3 bc df 6f 46 bf b5 a6 10 bf
       0.8931992 -0.027744226 -0.7751445 -0.56504375
000350 1c 3f 8a bf 1a 15 85 3e 92 21 52 3f 9d 3c 0f 3e
       -1.080051 0.25992662 0.82082474 0.13987966
000360 30 7b 3f 3f 06 a7 46 bf d0 92 58 bd 06 17 64 3e
       0.74797344 -0.7759861 -0.052874386 0.22274408
000370 b7 ca 82 b9 b5 44 9d 3b 17 15 50 bc ab 0c 02 3f
       -0.00024946567 0.0047994503 -0.012700341 0.5080058
000380 e1 b5 f1 3b be 54 67 bf b6 d4 09 be 6c 11 9a bd
       0.007376418 -0.9036368 -0.13460049 -0.07522854
000390 72 8e 15 3c 32 d0 8d 3f 52 c0 85 3f 68 2f 87 3d
       0.0091282 1.1079161 1.0449317 0.06600839
0003a0 f5 c5 8e ba 6f e7 bc b9 90 26 80 bf 63 83 b9 bf
       -0.0010892736 -0.00036030586 -1.0011768 -1.4493221
0003b0 ea 3f 94 bf 2c 32 5a bf 09 34 12 bf 74 fa e8 be
       -1.1582005 -0.85232806 -0.5711065 -0.4550358
0003c0 8f 9b 0a be 9b 40 60 3e a6 ce 1b 3f 49 da 17 bb
       -0.13535903 0.21899645 0.60862195 -0.002317088
0003d0 80 02 8a bf 24 cf 3b 3e 00 8c ab 3e 42 01 a2 bf
       -1.0782013 0.18340737 0.3350525 -1.2656634
0003e0 9f 31 1d be 45 92 18 3d 02 33 01 3e bd f6 56 be
       -0.1535096 0.03724887 0.12617114 -0.2099256
0003f0 12 96 21 3e 84 33 83 3f d0 9a d6 3e 73 40 4e 3e
       0.15779904 1.0250096 0.41914988 0.20141773

weight f4 [32]
000000 44 2f 1b 3f aa 27 7b 3f c3 24 62 3f 09 de 5d 3f
       0.60618997 0.981074 0.88337344 0.86666924
000010 3c df 95 3f 9f 09 18 3f 38 d4 23 3f 63 4d 90 3e
       1.1708751 0.5938968 0.63995695 0.2818404
000020 c2 30 46 3f 1a a6 01 3f 9e 33 65 3f 8c 2d 2e 3f
       0.7741815 0.50644076 0.89531887 0.6803825
000030 1d 61 63 3f 41 fc 25 3f 0e 26 0d 3f db 40 08 3f
       0.8882006 0.64838034 0.5513619 0.5322396
000040 3f 0e 23 3f 53 e2 1b 3f 9b 75 39 3f 11 5e 5a 3f
       0.6369361 0.6089222 0.72445077 0.85299784
000050 c0 fe 2d 3f 76 f2 44 3f 8b 20 6a 3f e7 2f 27 3f
       0.6796684 0.76932466 0.91455907 0.6530747
000060 cc a3 2a 3f ac fb de 3e 57 9f 66 3f f5 42 50 3f
       0.66656184 0.43551385 0.90086883 0.8135217
000070 e0 97 28 3f 9f d0 16 3f 22 54 22 3f 7d 60 34 3f
       0.6585674 0.5891208 0.63409626 0.7045973

bias f4 [32]
000000 36 c2 4a be f5 45 2c 3e 24 ce 1d 3e ea d0 27 bc
       -0.19800648 0.16823561 0.15410668 -0.01024268
000010 f4 ef 38 3e 06 07 28 bf 4f 97 86 bf 83 f9 45 bd
       0.18060285 -0.65635717 -1.0514926 -0.048333656
000020 d5 33 07 3d b8 38 18 be f7 d6 b9 be cc f7 4e be
       0.033008415 -0.14865386 -0.36296818 -0.20211715
000030 18 d9 4b 3e a4 66 4d be ac 72 14 bf 05 a4 c5 be
       0.19907033 -0.20058686 -0.57987475 -0.386017
000040 53 c1 3d bf 02 09 02 be ee 90 35 bf 5a 71 31 3e
       -0.74123114 -0.12698749 -0.7092427 0.17328396
000050 6b 7a c4 be 22 d4 7b 3e f6 98 b2 3e 4d 7e a5 be
       -0.38374647 0.24592641 0.34882325 -0.32322922
000060 dc 5a ab 3c f4 c6 b8 be b4 e0 24 3e df 72 38 3b
       0.020917349 -0.3608929 0.16101342 0.002814464
000070 60 6c d2 be 2d 9e 81 3d 4d 12 5e be 57 6b b8 be
       -0.4109831 0.06328998 -0.21686669 -0.36019394

running_mean f4 [32]
000000 9b 68 67 41 63 4e a9 41 b5 4f 92 41 50 3a af 41
       14.463038 21.163275 18.28892 21.903473
000010 0c fd a8 41 56 8c eb 40 80 53 c0 40 2e bf 76 41
       21.123558 7.360881 6.010193 15.421675
000020 35 64 ad 41 cf 99 a2 41 27 ac 9f 41 52 c9 9b 41
       21.67393 20.325102 19.959059 19.4733
000030 6b 19 da 41 c1 96 b2 41 62 ff 50 41 fe 80 20 40
       27.262411 22.32361 13.062349 2.507873
000040 56 06 4b 41 92 dd 45 41 5b 44 4a 41 3e 5c af 41
       12.689047 12.366594 12.641688 21.92004
000050 7e 14 a6 41 30 c2 cb 41 b3 a5 bd 41 e0 a2 96 41
       20.760006 25.469818 23.705908 18.829529
000060 ca 81 7f 41 7e 23 e1 40 a5 85 a7 41 b8 20 87 41
       15.969187 7.0355825 20.940256 16.890976
000070 b8 b1 59 41 1a 2d 2a 41 82 0f a6 41 26 04 82 41
       13.605888 10.636011 20.757572 16.252026

running_var f4 [32]
000000 24 06 9d 42 57 67 76 43 53 bb 4c 43 73 e3 0a 43
       78.51199 246.40367 204.73174 138.88847
000010 d9 fd 13 43 57 4e f0 42 7f e5 95 42 07 a7 85 42
       147.9916 120.15301 74.948235 66.826225
000020 74 c7 21 43 53 c5 e0 42 cf a6 77 43 8b cf bd 42
       161.77911 112.3854 247.6516 94.90536
000030 68 e0 39 43 63 fd 0e 43 9f bc ee 42 55 56 34 43
       185.87659 142.98979 119.3684 180.33723
000040 9a 67 28 43 c2 27 d6 42 2c 77 be 42 43 98 27 43
       168.4047 107.07765 95.23276 167.59477
000050 16 8f 42 43 a5 4d 49 43 cd 46 3e 43 10 4f dc 42
       194.55893 201.3033 190.27657 110.15442
000060 7d ee f8 42 2d 46 ba 42 56 b4 49 43 0e 2a 0e 43
       124.4658 93.13706 201.70444 142.16428
000070 85 21 04 43 2b 88 06 43 0f 51 06 43 0b e6 f8 42
       132.13094 134.5319 134.31664 124.4493

weight f4 [64, 32, 7]
000000 5f 25 9e be 5e 06 c3 bc a1 06 2a 3e cd 4c be 3d
       -0.30887887 -0.023806747 0.16604091 0.09291992
000010 cb 54 3a 3d dd 0c 01 3e 0f 67 bf bd 57 bd 5a be
       0.04549102 0.12602563 -0.09345829 -0.2136129
000020 a1 06 39 3d 49 67 66 be 06 1a b7 be 85 3d 39 3d
       0.045172337 -0.22500338 -0.35762042 0.045224685
000030 2f b3 5b 3f 08 64 88 3f c8 d5 9b 3f c9 a2 d7 3d
       0.8582029 1.0655527 1.2174616 0.10529096
000040 a8 7c 91 3e 83 de ed be 14 09 80 be b4 ab 94 3e
       0.28415418 -0.46458825 -0.25006926 0.2903725
000050 cc 31 ac 3f 2f e7 bf 3e 1c de 47 bf 54 7a a9 bc
       1.3452697 0.37481067 -0.78073287 -0.020688213
000060 bf 71 8d 3d 82 4b cb be c7 79 63 bf 39 8e 3b 3e
       0.06906461 -0.39706045 -0.8885769 0.18315972
000070 a9 b2 e6 be 7c ae 7b be e6 1d 27 bd 76 7a 13 bd
       -0.45058182 -0.2457828 -0.040799998 -0.03600546
000080 f7 1d 9b 3e 12 3a ff 3c ab 19 23 bf d3 92 2d 3e
       0.302963 0.03115562 -0.6371104 0.1695054
000090 3e 49 1b be db 1c b2 bd 80 88 5d bc d9 77 c8 3e
       -0.15164658 -0.0869691 -0.013521314 0.39153937
0000a0 3b 90 e7 3d f7 d9 a5 3d 28 26 b6 be 78 fe c3 be
       0.11306807 0.08098214 -0.35575986 -0.38280082
0000b0 0f ee 1c 3d 4f aa e8 bd e7 94 cb 3d f8 d3 1f 3d
       0.038312968 -0.11360609 0.0994051 0.03902051
0000c0 7e d3 07 3e c3 b9 d0 3e c6 4a 80 be 8a bb 91 bc
       0.13264272 0.40766725 -0.25057048 -0.01778962
0000d0 d1 8e 1e 3e bd 35 19 be 8a 96 a8 be 23 4b de bd
       0.15484168 -0.14961906 -0.32927352 -0.10854175
0000e0 39 06 34 3f bc 80 06 3e 7c 0c aa be d2 d3 6b be
       0.70321995 0.13135046 -0.3321265 -0.23030022
0000f0 10 b6 83 3e 2a fc d9 bd 59 ed 49 3a e7 58 a9 3f
       0.2572484 -0.106437996 0.0007702909 1.3230256
000100 83 1e c6 bc 6b 8f d3 bb 5f 9f 53 3a 70 40 a0 bd
       -0.024184471 -0.0064563057 0.00080727594 -0.078247905
000110 55 ea 0a be 8e 19 b2 3e f1 86 29 be 67 a6 34 bf
       -0.13565953 0.34785122 -0.16555382 -0.7056641
000120 0d e3 4f bf 5c ce e4 bd ed 47 8b 3e 6a 86 22 3f
       -0.81205827 -0.111721724 0.27203313 0.6348635
000130 a7 57 42 bf 6e a8 0b 3f 60 c0 0c bd b8 c0 67 bf
       -0.75914997 0.5455388 -0.03436315 -0.9052844
000140 66 88 b5 bf b1 44 99 be 64 3e 98 bd 68 90 8d 3d
       -1.418225 -0.2993522 -0.07433775 0.06912309
000150 8f 60 42 3f 14 18 00 bf e1 4a 01 bf ea c3 61 3e
       0.75928587 -0.5003674 -0.5050488 0.22047392
000160 47 19 82 3e 65 83 8c be b9 36 f1 be 1c 58 d5 3e
       0.2540991 -0.27443996 -0.47112063 0.41668785
000170 d6 62 d0 be 44 37 91 be cb d2 21 bd 62 f0 2c bf
       -0.40700406 -0.28362477 -0.03950767 -0.67554295
000180 7f 61 01 bf 67 5c 2e bd 2c 82 3c bf e9 1b e8 3e
       -0.5053939 -0.04256859 -0.73636127 0.45333794
000190 33 fa 3c 3f d9 ba 38 3f 6f 62 b0 be 54 82 09 be
       0.73819274 0.72160107 -0.344501 -0.13428622
0001a0 8e 5f d8 bd 75 5e 1c 3e 41 e2 1d 3c bb 17 a7 3d
       -0.105651006 0.15270407 0.009636463 0.08158823
0001b0 9c ae f4 3c 80 a6 04 3f 33 8f 92 3f 2d e6 6a 3f
       0.029868416 0.5181656 1.1449951 0.9175747
0001c0 a3 ea 1d bf c2 f7 80 3e 82 c9 48 3e ce 7b 68 3c
       -0.6168615 0.25189024 0.19608119 0.014189674
0001d0 c6 ec 61 bd 2a d0 16 bf 8a d4 7c be 27 2a 97 3d
       -0.055157445 -0.58911383 -0.24690452 0.07381087
0001e0 21 9b a2 bc e9 9f a1 be 0f 38 3e bf 1d 5b 8b be
       -0.019849362 -0.31567314 -0.7430429 -0.2721795
0001f0 cf b5 1d bf f3 66 dc bd b8 e4 5b be 45 3f de bd
       -0.6160554 -0.107618235 -0.21473968 -0.108519115
000200 17 6c c7 be ea e7 cd bd 3a b3 29 bf 15 b9 d5 be
       -0.38949654 -0.10054 -0.66289103 -0.4174277
000210 89 34 2f bc 79 76 07 bf c7 1e 4f bf c4 28 17 bf
       -0.010693678 -0.5291515 -0.8090634 -0.5904658
000220 4a 0d a9 39 34 f1 df 3e c7 a1 e7 3e 5f fc 07 bd
       0.00032244093 0.4373871 0.45240614 -0.033199664
000230 9c 04 1b 3f a6 04 c8 bc f7 72 83 3e ca 8f 2a be
       0.6055391 -0.024416279 0.2567365 -0.16656414
000240 b3 50 8c bd d6 5e 3b 3e 05 4b ce 3e de 09 21 bf
       -0.0685133 0.18297896 0.4029161 -0.6290568
000250 e7 34 86 3b 08 7e c7 3d 5e 85 95 3e ac e5 39 3f
       0.004095662 0.097408354 0.29203314 0.72616076
000260 dc 36 81 be 08 da 8a be 17 6b aa 3f ed e7 00 3f
       -0.25237167 -0.2711947 1.3313931 0.5035389
000270 07 7f 40 3e 7c 3b 4e 3e 37 a2 c1 be fa 80 0b bf
       0.18798457 0.20139879 -0.37819073 -0.5449368
000280 38 fa ad 3f a7 49 00 3f b3 36 71 3e c0 c9 78 3c
       1.3591986 0.50112385 0.23556022 0.01518482
000290 16 28 56 bc e3 81 5d 3c 4b 68 5b bf 6e 3a 5e 3d
       -0.013071081 0.013519737 -0.85706013 0.05425494
0002a0 e6 57 d9 bb f3 62 d9 3e 94 10 45 bc 4a b0 1b 3e
       -0.0066327928 0.42458305 -0.012027878 0.15203968
0002b0 a1 b5 0d bf 05 a9 87 bf 86 37 3c bf 35 bb 99 3e
       -0.5535527 -1.0598456 -0.7352222 0.3002564
0002c0 5e 65 07 3e 88 bc 0e 3d 96 e4 39 be 96 e5 ec 3d
       0.13222262 0.034847766 -0.18153605 0.115672275
0002d0 79 8f 9b 3e 67 bd 5a 3d 1a 2c d3 3f 6c 61 29 be
       0.30382898 0.053403284 1.6497834 -0.1654107
0002e0 d3 cc c9 3d 70 39 18 bf 48 96 66 bf 23 5c 2c be
       0.0985352 -0.5946264 -0.9007306 -0.16832022
0002f0 5c 3c 8c 3f b9 e4 c9 be f6 91 06 3e 10 c6 c5 3d
       1.095592 -0.39432314 0.13141617 0.09656918
000300 ba 3d c5 be e9 a5 a6 3e 35 3f 0a 3f af 23 fc 3e
       -0.38523656 0.32548454 0.54002696 0.49245974
000310 b6 c6 a2 3d 48 d7 1c bd a2 2b 26 3f 8a 9f 08 3f
       0.07948057 -0.038291246 0.6491033 0.5336844
000320 fd d0 76 ba 4e f5 c3 bc 4c a5 86 be fe f6 7b 3f
       -0.0009415297 -0.023920681 -0.26297987 0.98423755
000330 3f c3 00 be 39 a4 84 bd 8e 8e 18 bd 29 57 07 3e
       -0.1257448 -0.064766355 -0.037245326 0.13216843
000340 44 de 89 be 5c 57 91 3e 79 f6 a6 3e ec f9 db 3e
       -0.26927388 0.28386962 0.3260992 0.42964113
000350 c2 cc ba 3d 63 9d 3c 3d 5c e4 98 be b8 fb 8e 3d
       0.09121086 0.046048533 -0.29861724 0.06981605
000360 93 66 87 3d 1b d1 23 3f cc 56 b6 3d 32 02 a6 bb
       0.06611361 0.63990945 0.08903274 -0.0050661797
000370 0b 3e 52 bf af b6 49 bf 39 29 c7 3d b7 33 78 3f
       -0.8212592 -0.7879438 0.097246595 0.9695391
000380 85 fc 27 3d b4 36 5d 3e 0a 32 2e 3d 9f f1 34 3d
       0.041012306 0.21602899 0.04252819 0.04417574
000390 4b 4e a0 3b 48 39 92 3e 37 0b 91 3d 42 ed 4e bf
       0.0048921457 0.28559327 0.07082217 -0.80830777
0003a0 6a 2c 4d bc 17 f0 2e 3f 8a 44 fe 3e 12 4c 01 bf
       -0.012522796 0.683351 0.49661666 -0.505067
0003b0 9b 0a 4b be 08 6f 19 3f 07 01 b7 be 28 f0 c2 be
       -0.19828264 0.59935045 -0.3574297 -0.3807385
0003c0 c0 30 72 3d e8 a1 c5 bd 0a ed 27 3c 3d 17 2b bf
       0.059128523 -0.09650022 0.010249386 -0.66832334
0003d0 34 bd 84 bf 3a 8a e7 bd af 42 22 be 3c 68 55 bd
       -1.037024 -0.113056615 -0.1584575 -0.05210136
0003e0 86 0f 5e 3f 47 40 5a 3e 04 97 3a 3e c3 05 36 3d
       0.86742437 0.21313582 0.1822167 0.04443909
0003f0 da 16 e6 be 62 7d d8 be 38 cd a1 3d 03 39 e4 be
       -0.4493931 -0.4228316 0.079004705 -0.44574746

weight f4 [64]
000000 32 19 4c 3f 90 20 4f 3f 34 ce 11 3f 3b 38 2b 3f
       0.79725945 0.8090906 0.56955266 0.66882676
000010 f3 a0 82 3f c3 44 49 3f 05 44 64 3f df 40 38 3f
       1.0205368 0.7862055 0.8916629 0.71973985
000020 3a 78 65 3f 8a 69 58 3f be 69 49 3f 1c 42 3a 3f
       0.89636576 0.8453604 0.78676975 0.72757125
000030 c1 1f 30 3f 19 1a 21 3f d3 c9 27 3f f5 4f 2a 3f
       0.6879845 0.62930447 0.65542334 0.66528255
000040 ed ad 86 3f 11 d8 2a 3f b1 39 37 3f 33 43 1a 3f
       1.0521828 0.6673594 0.71572405 0.6025879
000050 3b dc 2b 3f c1 33 74 3f 15 9f 2d 3f 45 ec 2a 3f
       0.6713292 0.9539147 0.67820865 0.6676677
000060 ad 7c 2e 3f 68 ea 27 3f 9a cb 59 3f 8f 1f 84 3f
       0.6815899 0.6559205 0.85076296 1.0322131
000070 90 8d 3e 3f 86 92 5d 3f e1 44 79 3f bf ee 2a 3f
       0.7443476 0.865517 0.97370726 0.6677055
000080 38 c0 50 3f 69 b5 68 3f 47 72 66 3f 8f e5 42 3f
       0.815433 0.9090181 0.90018123 0.7613153
000090 e3 2c 73 3f c5 e9 5a 3f 59 19 41 3f ca 70 97 3e
       0.94990367 0.85512954 0.754293 0.2957824
0000a0 7a 23 34 3f 5e 9a 4d 3f f5 70 32 3f 22 9e 26 3f
       0.7036663 0.8031367 0.6970361 0.6508504
0000b0 c1 36 10 3f 75 da 1e 3f de 10 33 3f ce f2 7e 3f
       0.5633355 0.6205209 0.6994761 0.9958924
0000c0 1f bd 5d 3f 76 37 37 3f e4 9d 51 3f ec 71 31 3f
       0.866167 0.71569 0.81881547 0.69314456
0000d0 73 7b 90 3f de 94 34 3f e9 fe 44 3f 97 99 1f 3f
       1.1287674 0.70539653 0.7695146 0.62343735
0000e0 e2 24 6d 3f 83 86 5f 3f 89 a7 22 3f ad f3 72 3f
       0.92634404 0.87314624 0.6353689 0.9490307
0000f0 9c 01 95 3f 51 28 80 3f 15 59 48 3f 11 30 81 3f
       1.1641116 1.0012304 0.7826093 1.0092794

bias f4 [64]
000000 aa f6 5f be 76 f3 41 3f a7 2c 54 3e 3f 0b 84 bd
       -0.21871439 0.75762117 0.20720159 -0.064474575
000010 1e db 4f be 54 17 24 bf 4c ba 48 be 35 fd 59 be
       -0.2029843 -0.64098096 -0.19602317 -0.21287997
000020 c6 3c 0e bf 68 b1 30 3f 85 d4 d3 be c0 08 2d bf
       -0.5556148 0.690207 -0.41373077 -0.67591476
000030 09 49 4b bf 75 4b 12 be cf 16 18 bd 19 bb 25 bf
       -0.7940832 -0.14286597 -0.037131127 -0.64738613
000040 68 8a 0a bf d2 ff 18 bf a8 1b 0f bf af 30 aa be
       -0.5411744 -0.5976535 -0.55901575 -0.33240268
000050 de d1 66 be 32 ac 1f 3f be e9 3b bf d7 8d bf be
       -0.22540995 0.62372124 -0.7340354 -0.37412903
000060 f5 b1 3c bf 25 5f 4a bf 43 04 8d be a9 1b ee 3c
       -0.7370904 -0.7905143 -0.27542314 0.029065924
000070 9c 03 1a bf 04 59 5d bf 47 51 09 3f 7e a0 42 bf
       -0.6016176 -0.8646395 0.53639644 -0.7602614
000080 e9 e4 62 bf 5b 12 3f bf 95 13 0a bf 7d e5 c0 3b
       -0.8863054 -0.74637383 -0.5393613 0.005886732
000090 a4 75 43 bf 61 97 d9 be 9b 1d 8a bf 7d d0 15 3e
       -0.7635138 -0.42498305 -1.0790285 0.14630313
0000a0 30 4b 70 be 83 11 2d 3f a5 07 55 bf 20 d7 89 bf
       -0.23466182 0.67604846 -0.8321479 -1.0768776
0000b0 21 bb 2a bf 78 4c 88 3e 6e 47 00 bf 06 21 2e bf
       -0.66691786 0.2662084 -0.50108993 -0.6801914
0000c0 df 0f 23 3e 18 fa 45 bf 95 cd f8 3d 2d dc 62 bf
       0.15924023 -0.7733474 0.12148587 -0.8861721
0000d0 fa 13 92 3d 25 5c 09 3d 35 b3 2b bf 73 38 f7 be
       0.071327165 0.03353514 -0.67070323 -0.48285255
0000e0 ee 7f d3 be 10 91 bf be 05 f9 0e be 84 c4 44 3e
       -0.4130854 -0.3741536 -0.13962181 0.1921559
0000f0 09 50 e1 be 69 66 b7 bd c7 21 e8 3d 38 f2 6a bd
       -0.44006374 -0.0895508 0.113345675 -0.057359904

running_mean f4 [64]
000000 4c 5e bd 41 c5 2f 9d 41 b0 2a f7 41 4d 38 a2 41
       23.671043 19.648325 30.895844 20.27749
000010 90 a8 d5 41 13 fb 89 41 87 5a 27 42 73 f8 d4 41
       26.707306 17.247595 41.838406 26.621313
000020 69 2e ba 41 56 6f 1f 42 09 39 ce 41 cc eb 29 41
       23.272661 39.858727 25.77785 10.620068
000030 20 6d cb 41 04 10 ba 41 dd ea a4 41 31 04 38 40
       25.428284 23.25782 20.61468 2.8752558
000040 5e 11 4d c1 ea 25 ed 41 27 33 51 c1 12 37 ac 41
       -12.81674 29.643513 -13.074988 21.52689
000050 42 b6 b7 41 c7 77 41 42 5d a1 73 41 13 a6 81 41
       22.963993 48.36697 15.226895 16.20609
000060 ae 34 df c0 fe 02 f0 40 84 40 a9 41 a2 5b 90 41
       -6.9751806 7.5003653 21.156502 18.044743
000070 9a 38 6a 41 b9 6f 22 42 a0 5e 0a 42 eb 6b d3 41
       14.638819 40.609104 34.592407 26.427694
000080 ba 37 84 41 91 e9 82 c0 52 b6 bd 41 22 1e eb 41
       16.52721 -4.0910115 23.714024 29.389713
000090 73 e3 26 41 bc d8 be 41 0b 16 8f 40 de a0 48 40
       10.43053 23.855827 4.471441 3.1348186
0000a0 68 d5 ce 41 9e 5a 20 42 ef 47 50 41 fa 0e 22 41
       25.854202 40.088493 13.017562 10.128656
0000b0 12 6e fc 41 73 db 04 42 db 62 0c 41 a7 ff a0 40
       31.553745 33.214306 8.774135 5.0312076
0000c0 ad cd 15 42 6f fb ea 40 dc c8 9a 41 fe 84 88 41
       37.450855 7.3431926 19.348076 17.064938
0000d0 b2 35 99 c0 87 9b 27 42 42 73 f1 40 90 09 aa 41
       -4.7878046 41.901882 7.5453196 21.25467
0000e0 b1 c2 c7 41 cf 4a c5 41 6c 6a a2 41 24 20 e9 41
       24.970064 24.661528 20.301964 29.140694
0000f0 aa 45 bf 41 31 7e 07 42 8f 8f 0a 42 1f 46 de 40
       23.909016 33.873234 34.640194 6.9460597

running_var f4 [64]
000000 e9 01 a1 43 24 ad a5 43 44 43 8b 43 1f 8d a1 43
       322.01492 331.35266 278.5255 323.1025
000010 88 b6 e6 43 05 94 c4 43 97 3d 0a 44 bd fd 96 43
       461.42603 393.1564 552.96234 301.98233
000020 14 9b 95 43 52 16 c2 43 39 b9 95 43 0c fb 62 43
       299.21155 388.17438 299.44705 226.98065
000030 73 08 73 43 67 67 39 43 2c 14 be 43 5f 40 9a 43
       243.033 185.40392 380.1576 308.5029
000040 65 e6 03 44 bd 67 9d 43 5f 2f e0 43 c6 e5 4e 43
       527.5999 314.81046 448.3701 206.89755
000050 4a 1b 7d 43 bc 78 d1 43 0b 1a 2a 43 75 ee ab 43
       253.1066 418.94324 170.10173 343.86295
000060 54 a9 c3 43 ea f9 6b 43 8b 13 bd 43 ab dd e8 43
       391.32288 235.97623 378.15268 465.73178
000070 b7 c9 78 43 bd f2 d7 43 93 6f ad 43 80 c2 9c 43
       248.78795 431.8964 346.87167 313.51953
000080 f9 e0 85 43 5c 95 c9 43 25 28 c4 43 21 3f 66 43
       267.7576 403.16687 392.31363 230.2466
000090 1f 39 a7 43 06 b7 9b 43 19 a5 a8 43 d0 3d 9d 43
       334.44626 311.42987 337.28983 314.4829
0000a0 ac 83 bb 43 8e d2 a7 43 ae 9d 89 43 48 37 67 43
       375.0287 335.64496 275.23187 231.21594
0000b0 c7 a1 9e 43 90 7e e3 43 93 65 90 43 c4 8a a9 43
       317.2639 454.98877 288.79355 339.0841
0000c0 0c 42 d6 43 d9 08 91 43 5e 1d da 43 77 b5 9f 43
       428.516 290.06912 436.22943 319.4177
0000d0 0e 8c e9 43 db e0 d5 43 c2 ea 92 43 32 fc 92 43
       467.09418 427.75668 293.83405 293.97028
0000e0 1b 0c ae 43 02 f5 de 43 82 e4 89 43 f1 ca c0 43
       348.09457 445.91412 275.78522 385.58548
0000f0 5e 17 0a 44 ed bd ee 43 12 12 a3 43 2e c2 f5 43
       552.3651 477.4838 326.14117 491.51703

weight f4 [64, 64, 5]
000000 0f 47 8b be af 7c 3b bf 79 16 a1 be 43 cd 80 be
       -0.2720265 -0.7323713 -0.31462458 -0.25156602
000010 17 c5 20 bf 65 e1 3f 3e ff 6a 83 bd 12 fd f3 3d
       -0.62800735 0.18738325 -0.06416892 0.11913504
000020 de ed ea bd 21 94 2b 3e 20 ea ea be 62 10 76 be
       -0.11471151 0.16755725 -0.45881748 -0.24029687
000030 b8 27 d9 3d ab 0d d5 3c 8f 30 3a be ff 5e ad 3e
       0.10603279 0.026007494 -0.18182586 0.3386154
000040 bd 28 f3 3e 44 b4 8d 3f 79 e8 3e 3e 0b c2 04 bf
       0.47492018 1.1070638 0.18643369 -0.51858586
000050 07 34 b5 be fb 70 e1 be 23 8e c0 be fa e6 64 be
       -0.35391256 -0.4403151 -0.37608442 -0.22353736
000060 23 ba 8b 3e 17 74 5c be 2c 00 a4 be d4 35 b5 bc
       0.2729045 -0.2152866 -0.3203138 -0.022120394
000070 d7 b9 68 3e 53 64 13 be b7 2d 26 3f 9e 60 8a 3e
       0.22727142 -0.1439374 0.64913505 0.27026838
000080 5e 2b 11 bf 89 92 44 3d ea b7 bc 3d e7 71 4e 3d
       -0.567068 0.04799131 0.09214766 0.050401594
000090 0c ce 5d bd 67 65 5a bb ac 16 62 3e c4 37 16 3c
       -0.05415158 -0.00333246 0.22078961 0.009168569
0000a0 ad 96 b3 be d6 14 6c be 2c 5c 4b bd bd 0b f5 be
       -0.35075894 -0.23054823 -0.04964845 -0.47860518
0000b0 33 0d 26 bf 05 89 b5 bd 89 e3 81 be b3 48 b6 be
       -0.6486389 -0.08864025 -0.25368908 -0.3560234
0000c0 4b 90 ac 3c 68 f7 16 3e c5 57 87 3e 81 e4 39 3f
       0.021064898 0.14742815 0.2643415 0.72614294
0000d0 a2 e6 c1 be f4 02 f9 3b dc dc 20 3f d8 f9 07 3e
       -0.3787127 0.007599229 0.62837005 0.13278902
0000e0 28 71 e7 3e af 81 6d 3e 95 04 1c 3d a0 74 33 bf
       0.4520352 0.23194002 0.038090307 -0.7009983
0000f0 65 a5 8e 3e e1 24 bf 3d 15 7a 8f be 9d 19 98 3d
       0.2786056 0.09333206 -0.2802283 0.0742676
000100 22 93 f8 3d 30 09 07 bf 1e 4d 00 bf 91 9b a6 bc
       0.12137438 -0.52748394 -0.5011767 -0.020337852
000110 7b 9f 36 bc 96 df 2b 3e cc 84 88 be 29 a4 74 be
       -0.011146422 0.1678451 -0.26663816 -0.23890747
000120 14 1e 66 bc 2c 99 fd be fc 6b 0e bf ec 10 14 3f
       -0.014045257 -0.49530923 -0.5563352 0.5783832
000130 0f 70 ac 3e 5d a1 e3 3e f8 aa bd 3e db 48 02 bd
       0.33679244 0.44459048 0.370445 -0.03180776
000140 ac a9 6b be 34 ef 74 be 09 83 ce 3c b3 d5 30 be
       -0.23013943 -0.23919374 0.025208967 -0.1726902
000150 df 91 d2 be 7d 6f 16 3f e2 55 da 3e e5 2a 90 3e
       -0.41126916 0.5876387 0.42643648 0.28157726
000160 3a a9 1a bd 57 73 52 be 3e de 93 be 6c 3e 8c 3e
       -0.037759043 -0.20551811 -0.28880495 0.27391374
000170 f9 15 7e 3e 2c 28 cf be 02 3a b5 be 31 f2 fb bc
       0.2481307 -0.40460336 -0.3539582 -0.030755134
000180 9c 35 5c 3d 53 d5 70 3c e6 92 c6 be 8a 71 30 bf
       0.053762063 0.014699298 -0.3878395 -0.68923247
000190 1f fe 83 be b5 38 e4 be 1d f9 ba be 13 88 ac be
       -0.25779817 -0.44574514 -0.36518183 -0.33697566
0001a0 f1 f5 a1 bd 12 8c 7e bc 6d 85 b8 3d fe 5a 99 be
       -0.07908238 -0.015536325 0.09009824 -0.29952234
0001b0 d9 81 b7 3e ce bd 90 3e a7 87 f2 3d 3f 9d aa 3e
       0.35841253 0.2826981 0.1184228 0.33323094
0001c0 bd 00 58 3e 54 a2 69 3e 79 89 50 be 56 af 1c 3f
       0.21094032 0.2281583 -0.20364942 0.6120504
0001d0 09 24 d6 3e 6e e6 b1 bd ac fc bf bd 26 08 3c 3f
       0.41824368 -0.08686529 -0.09374365 0.73449934
0001e0 bc 0f 4c bf 26 0d a4 be 94 8f 9f 3d e9 ee 00 3c
       -0.7971151 -0.3204128 0.07791057 0.007869461
0001f0 29 89 2b be 0f 0b 1d 3d 04 15 0e 3f 90 1a 2b 3e
       -0.16751541 0.038340624 0.5550082 0.16709352
000200 8c 07 1b be b9 b9 3f be dc 2f ab be 69 39 7b bf
       -0.15139598 -0.18723191 -0.3343495 -0.98134476
000210 98 f8 4c bf a0 37 e3 3d 25 f6 02 3f c4 fe 01 3e
       -0.80066824 0.11094594 0.51156837 0.12694842
000220 09 b8 a5 3d 6c 4d 17 be a5 5c 08 be 02 e3 d8 3d
       0.080917425 -0.14775628 -0.13316591 0.10590173
000230 d5 3a b7 3e 39 a8 3e 3e 4b ca bd 3d 76 1e b0 3d
       0.35787073 0.1861886 0.092671 0.0859956
000240 24 ec 90 3d 95 50 0e 3f d0 f5 90 3e 61 db 3c bf
       0.0707629 0.5559171 0.2831254 -0.73772246
000250 f9 87 95 3e 0e 12 8d 3f fd e4 98 3d db 3f 90 3e
       0.292053 1.1021135 0.07465551 0.28173718
000260 69 b9 13 bf 0d e5 21 3e 71 d9 8e 3e ec 61 2c 3f
       -0.5770479 0.15810032 0.2790027 0.67336917
000270 0a 98 53 3f 3a 35 4a bd d5 cd 3d 3e a2 77 52 3f
       0.8265387 -0.049367167 0.1853555 0.82213795
000280 48 fe 82 bd 6b 0d 4f 3e 42 7a 24 3f 03 37 02 3f
       -0.063961565 0.20219962 0.6424905 0.5086519
000290 00 c6 5c be 1b 62 3f 3f 34 58 89 3f 7e 4f 96 3f
       -0.21559906 0.7475907 1.0730042 1.1743009
0002a0 2a 42 08 3e a7 2c 08 3f 85 fd 90 3e 8d 1e d4 3d
       0.1330649 0.53193134 0.2831842 0.103573896
0002b0 19 a4 9f be ca 01 98 3d ff 86 d6 3e 8d 8f 04 bf
       -0.31179884 0.07422216 0.4189987 -0.5178154
0002c0 ef b4 18 bf 18 2d d4 bd c5 3e e8 3d 92 d5 32 3d
       -0.5965108 -0.103601635 0.11340097 0.043660708
0002d0 71 16 9c be 66 08 b2 bc ce 53 d5 bc 55 c5 dc be
       -0.3048587 -0.02173252 -0.026040938 -0.43119302
0002e0 83 80 0d 3e b3 f8 6a bd 4a 0d 30 3b 08 be 46 3d
       0.13818555 -0.057366084 0.002686339 0.04852107
0002f0 ae 2a 82 bf d1 cf d3 bf ed 3c 3c 3e 48 8f ff bd
       -1.0169275 -1.6547796 0.18382616 -0.124785006
000300 29 03 4c be 48 35 0b be b5 bb 82 be 3f ca f9 3c
       -0.1992308 -0.13594544 -0.25533834 0.030491946
000310 bc f7 37 3e 5e 90 9c 3e 6c 78 0d be ed 6c b9 3e
       0.17965597 0.30578893 -0.13815469 0.36215916
000320 86 98 57 3c c4 2b 30 3e 9b 1f d4 3e fc 01 c8 3e
       0.013158923 0.17204195 0.41430363 0.39064014
000330 66 e3 53 be a7 0f 06 3d e5 89 62 bc c6 09 89 bd
       -0.20692214 0.03272977 -0.013826822 -0.06691317
000340 c4 09 2c 3e fd b3 9b be 9d ea 15 3f 89 a4 8a 3f
       0.168006 -0.30410758 0.58561116 1.0831462
000350 0a 70 c1 3e 3e cc 4b 3e 28 6b 25 3f 82 42 1c 3e
       0.37780792 0.19902131 0.6461663 0.15259746
000360 8b 60 f8 3d c4 c6 69 3e d1 e1 56 bd ba 9f 6d bd
       0.12127789 0.2282973 -0.05246145 -0.058013655
000370 7e 0b 6b 3f b3 ab 0b 3f 64 f5 20 bd 90 3f 0e bd
       0.9181441 0.5455887 -0.039296523 -0.034728587
000380 42 4e 16 3e ca 3b 0b be 96 32 94 be f9 fd d9 bd
       0.1467829 -0.13597026 -0.28944844 -0.106441446
000390 b1 88 0b be f0 35 56 bf ff 87 f6 3d 49 14 1b 3e
       -0.13626362 -0.8367605 0.12037658 0.15144457
0003a0 63 24 8e 3d 33 1b 77 bd 41 7c 40 be 19 50 05 bd
       0.06940534 -0.060328674 -0.18797399 -0.03254709
0003b0 ce ed d6 bd 1a 6e 47 3d 2c 11 82 be 41 d0 22 bf
       -0.104945764 0.048688985 -0.25403726 -0.6359902
0003c0 e3 bf d0 be 73 2e 07 be 18 a6 b8 bd d6 50 74 3e
       -0.40771398 -0.13201313 -0.09016055 0.23858961
0003d0 fc 9b 31 bf 51 0f 7e 3d 9e b3 7d be 71 ef 77 3e
       -0.6937864 0.062026326 -0.2477555 0.24212433
0003e0 b0 6f e1 3e 8e c8 a5 be 6d d0 57 3f 34 d4 08 3f
       0.44030523 -0.32379574 0.8430241 0.53448796
0003f0 24 c0 4b 3e 08 ff af bb da 67 79 3e ac 1e c9 3e
       0.19897515 -0.0053709783 0.24356022 0.39281213

weight f4 [64]
000000 1a d3 7a 3f 40 17 6e 3f f2 3a 57 3f 45 d3 ef 3f
       0.97978365 0.93004227 0.8407432 1.8736349
000010 a9 13 52 3f 72 45 90 3f 5e 4a f5 3f 1d 23 81 3f
       0.8206125 1.1271193 1.916332 1.0088841
000020 57 87 ca 3e 5e 2a 14 3f 6f 86 32 3f df 22 4d 3f
       0.3955638 0.5787715 0.6973638 0.80131334
000030 59 d3 3e 3f 63 0c a8 3f 84 83 7a 3f 8b 22 77 3f
       0.7454124 1.312878 0.97856927 0.96537083
000040 57 52 3e 3f 95 c5 48 3f 53 cb 45 3f 00 60 88 3f
       0.7434439 0.78426486 0.77263373 1.0654297
000050 ea e7 61 3f 47 38 03 3f 40 df 72 3f 0e ba 46 3f
       0.882445 0.5125775 0.948719 0.77627647
000060 60 5d 35 3f 5f 36 5c 3f 19 7b 56 3f 51 26 21 3f
       0.70845604 0.86020464 0.8378158 0.6294909
000070 b7 09 80 3f 1f c3 9b 3f 71 61 73 3f 58 ed 4b 3f
       1.0002965 1.2168921 0.9507056 0.7965903
000080 3a 4c 87 3f b1 cb 9a 3e 3a 65 14 3f 9f b9 0d 3f
       1.0570138 0.3023353 0.5796696 0.5536136
000090 36 9a f5 3e ce 70 58 3f 18 2e 34 3f f8 a5 53 3f
       0.47969216 0.84547126 0.70382833 0.82675123
0000a0 09 62 91 3e 1c 12 3d 3f fc e4 59 3f 2d ce 34 3f
       0.28395107 0.7385576 0.8511503 0.706271
0000b0 29 0a 9f 3f 0b 6a 59 3f 8e 85 8f 3f 0f ba 5e 3f
       1.2424976 0.84927434 1.1212633 0.8700265
0000c0 ec 8d 22 3f 14 54 32 3f e1 c6 35 3f 53 0b a3 3f
       0.63497806 0.69659543 0.7100659 1.2737831
0000d0 14 e6 9e 3f 18 95 6b 3f 33 1d fb 3e 9a 4f 8a 3f
       1.2413964 0.92024374 0.49045715 1.0805542
0000e0 7e 74 4f 3f 3c 43 7a 3f 3c 08 54 3e bd 0a 6a 3f
       0.8103713 0.9775884 0.20706266 0.91422635
0000f0 5b 9b 74 3f 2f 91 47 3f 1a 0e 88 3f e6 7c 66 3f
       0.95549554 0.7795591 1.0629303 0.9003433

bias f4 [64]
000000 28 3f 95 bd a4 66 3a bf 9f 57 8e bf 7b 1f 66 be
       -0.07287437 -0.7281287 -1.112049 -0.22472946
000010 5b b4 2a 3e 4a b3 34 bf b9 38 b3 3e 74 e1 8c bf
       0.16670363 -0.70586073 0.35004213 -1.1006303
000020 ad e2 01 3f 8e c6 e4 bc b7 16 41 bf 8c 97 39 bf
       0.50736505 -0.02792671 -0.75425285 -0.7249687
000030 5f 9f 22 bf 57 7f 25 be 7f b8 f8 be f2 0b 43 3e
       -0.6352443 -0.16161858 -0.4857826 0.19047526
000040 9d bf 0c bf ff d0 9f 3e 79 67 0d 3f f1 70 32 bf
       -0.5497988 0.3121414 0.5523601 -0.69703585
000050 8a 41 a0 bf 9a 69 c4 be 91 0a a8 bf dc 07 4c 3e
       -1.2520001 -0.38361818 -1.3128225 0.19924873
000060 6b c0 ec be cf 08 ee bd 34 6f b5 bd 88 97 10 bf
       -0.46240553 -0.11622774 -0.08859101 -0.5648122
000070 b2 85 d4 3d d1 31 37 bf 63 81 8e bf c8 c1 86 bc
       0.10377063 -0.7156039 -1.1133236 -0.016449824
000080 dd 61 3a 3f a0 45 9b 3d 44 22 19 3d a8 54 d8 3e
       0.7280558 0.07581639 0.037386194 0.42252088
000090 fb 54 9a be 6a c9 a2 bf 3c 2b 39 bf c9 2f 89 be
       -0.3014296 -1.2717717 -0.72331595 -0.2679427
0000a0 42 46 5f bd fa d4 ab be a7 e7 93 bf df 2b 6f bf
       -0.054510362 -0.33560926 -1.155507 -0.93426317
0000b0 59 4e 60 3e 71 4b 2b bf 12 2b 6e 3d d0 b8 27 bf
       0.21904887 -0.6691199 0.058146544 -0.65516376
0000c0 ba c5 df 3e 74 a3 12 3f 03 42 47 bf be ed 3e 3f
       0.4370554 0.5728066 -0.778351 0.74581516
0000d0 0a fb bd be 08 1c 8f be 7f cc 40 be 4e f3 fe 3d
       -0.3710559 -0.27951074 -0.18828009 0.124487504
0000e0 f8 30 a1 bf 5f bf a1 3e 82 8e 2e bc 29 a5 3d 3f
       -1.2593069 0.31591317 -0.010654094 0.7408014
0000f0 81 99 fc bc 52 a2 c6 be 18 04 4b 3f 6a 21 98 3d
       -0.030834915 -0.38795716 0.7930312 0.07428248

running_mean f4 [64]
000000 8d 9e 00 c1 75 b7 5c c1 dc 9d 9f 41 5d 8f 1c c2
       -8.038709 -13.794789 19.95208 -39.140003
000010 ae 86 f5 41 1a b9 35 c1 1f 69 fa c1 24 ef 9a c1
       30.690762 -11.357691 -31.301329 -19.366768
000020 df 1d ae 41 74 6c a2 c1 80 a5 cf 41 a0 02 e5 c0
       21.764585 -20.302956 25.95581 -7.1565704
000030 b2 34 11 c1 63 c7 c3 c1 4e 74 eb c1 fc 73 e4 c1
       -9.075365 -24.472357 -29.43179 -28.556633
000040 6c c0 73 c1 f1 46 1b 42 37 30 c3 41 ec 05 21 c2
       -15.234478 38.81928 24.398542 -40.255783
000050 f3 5f a1 c1 c5 cd 4c 40 c7 b2 38 c2 ee e6 f2 c0
       -20.17185 3.2000592 -46.174587 -7.5906897
000060 fc cc d9 40 3a 3a 25 c2 6c b8 07 c2 5c b1 02 41
       6.8062725 -41.30686 -33.9301 8.168301
000070 3f 37 ec c1 bb 80 b0 c1 17 ae b2 c0 1c db 21 42
       -29.526976 -22.062857 -5.583751 40.463974
000080 21 d8 91 c0 62 85 fb c1 91 36 11 42 6c 81 1d 42
       -4.557633 -31.440128 36.303288 39.37639
000090 ed 84 8a 41 a2 61 0f c2 cb 4b 73 41 c5 5d 26 c2
       17.314905 -35.845345 15.206004 -41.59157
0000a0 7a 0f 77 c1 4a ea 19 42 10 20 67 41 a8 9b 92 c1
       -15.441278 38.478798 14.445328 -18.326004
0000b0 ce e6 15 c2 76 92 1a c1 76 73 19 42 ad 5e d0 41
       -37.475395 -9.660757 38.362755 26.046228
0000c0 d5 8b 9b 41 39 65 33 41 b2 8e 90 41 b4 53 00 c2
       19.443277 11.212213 18.069675 -32.08174
0000d0 46 da bc bf 28 53 b1 c1 fa c7 d4 41 5d cb f1 c1
       -1.4754112 -22.165604 26.597645 -30.224298
0000e0 d2 29 ac c1 36 24 e1 c1 e8 95 01 41 b8 1e 0b c2
       -21.52042 -28.142681 8.099098 -34.78
0000f0 26 b0 1f c2 13 69 d4 c1 ae 01 e7 c1 d6 3e 8a 41
       -39.92202 -26.551306 -28.87582 17.280682

running_var f4 [64]
000000 cd 5f 6d 44 38 4b ea 43 57 82 2d 44 ef d3 f2 44
       949.4969 468.58765 694.03656 1942.6229
000010 a5 9e fe 43 b6 f7 13 44 e3 fc de 44 e6 fc 6f 44
       509.2394 591.8705 1783.9027 959.95154
000020 0c 3f f1 43 f8 9d f9 43 4f 1a 27 44 2e d3 85 44
       482.49255 499.23413 668.4111 1070.5994
000030 bf 9a 2d 44 6d c3 73 44 5f df 2e 44 2c 6d 80 44
       694.4179 975.0535 699.4902 1027.4116
000040 12 0c 13 44 d5 f3 21 44 b0 f9 14 44 10 e6 9b 44
       588.1886 647.8099 595.90137 1247.1895
000050 50 23 05 44 bc 11 1a 44 0b f3 42 44 0a ec 8d 44
       532.55176 616.2771 779.79755 1135.3762
000060 f0 59 19 44 8c 35 67 44 9d db 70 44 cc be 26 44
       613.4053 924.8367 963.43146 666.9812
000070 e6 fd 5d 44 4b 12 49 44 cb a3 fe 43 b6 03 2b 44
       887.96716 804.2858 509.27963 684.058
000080 af b2 86 44 b8 08 30 44 d7 12 15 44 34 40 fd 43
       1077.5839 704.1362 596.2944 506.5016
000090 23 f2 16 44 bc a0 69 44 1c 27 e7 43 1d 0b 81 44
       603.7834 934.5115 462.30554 1032.3473
0000a0 17 fd 0f 44 71 a5 4b 44 a4 95 0c 44 54 f2 58 44
       575.9545 814.585 562.33813 867.7864
0000b0 fd cc b9 44 23 3d 69 44 d1 0d 2b 44 d2 bd 82 44
       1486.4059 932.95526 684.2159 1045.9319
0000c0 95 0b 00 44 f8 c1 f3 43 39 7c 10 44 69 6c ba 44
       512.18097 487.51538 577.941 1491.3878
0000d0 63 08 46 44 50 ed 1b 44 f8 b3 dd 43 2b 80 54 44
       792.13104 623.708 443.406 850.0026
0000e0 05 b9 21 44 23 fd 3c 44 fb 5c dd 43 3a fc 9c 44
       646.8909 755.95526 442.7264 1255.8821
0000f0 fa c8 91 44 c4 41 19 44 b2 00 7f 44 74 08 44 44
       1166.2805 613.0276 1020.01086 784.1321
