model/fbin,94.90,450,5.pt (torch, 290212 bytes, 36 tensors)

weight f4 [8, 1, 16]
00000000: b2a1 76bf 121d 0dbf 6988 9cbe d388 cebe
00000010: 72bd 51be 5cd7 d5be 04e1 57be 1eff 933e
00000020: e872 bc3e 6c93 be3e 10f2 2c3f d32c 2e3f
00000030: 06c9 c83e 10dc 053c 6a1f f13e a091 1b3f
00000040: 2748 f43e fbbc 7a3e 9ab3 98bd 326c bcbe
00000050: 098e babe 4545 26bf ef6b 85bf 5d28 95bf
00000060: 64b0 dbbf a139 a8bf 9d47 72bf 033e 06bf
00000070: 801e 12bd bdb1 05bc b945 d4bc 98ca 2f3e
00000080: 430a 89bf 0f7b f7bf 5d4a f8bf 824c fdbf
00000090: 74f4 dbbf 0f96 83bf 1aae a9be 2b20 8dbd
000000a0: d2b1 21b5 49d1 ee3d a492 7bbe 4e45 153d
000000b0: e55a 8a3e a423 063f d9b9 223f 3733 853f
000000c0: 6b7f ae3f c502 b13f 9b12 913f 9131 cb3e
000000d0: ad56 d03e 40f0 f53c ae39 a73e b2e7 903d
000000e0: 2af4 9abd e008 f933 4e5f a3be 0818 76be
000000f0: b3e9 7abf 7e6d b2bf fbe5 e3bf dfb8 f2bf
00000100: 1fe6 683f 9492 073f bddb 2bbc 49a7 d934
00000110: 7589 9dbe f1ef 733c 7003 513e 9228 1a3f
00000120: a8d6 af3f ca4e d03f 6da1 b63f e171 a43f
00000130: c1b0 503f d79a 8b3e 9640 f8bd 8496 213d
00000140: 29e2 8abf 19f8 58bf d08b 58bf 936e d6be
00000150: bdec 93be 4af6 19bf ceba c3bd 9726 8134
00000160: 5ea0 3abe bc19 8e3d fd13 8a3e 3103 683f
00000170: 17e1 553f 426b ba3f 947c dc3f 4551 1040
00000180: 58cd ef3f 60d5 dd3f 37d7 9f3f 99da ff3e
00000190: bfd9 6a35 20df 21bf f1ed 5bbf 22a6 d7bf
000001a0: dc5b ddbf a49e f5bf 9849 9bbf 7a3e 3bbf
000001b0: 523c 50bb 2715 a63f 36fe ed3f 79ee 3540
000001c0: 052d 3a3f a0a8 753c 5a6a 143b 6fcf 9c3e
000001d0: 40b5 783e c934 993d 7a89 04bf ba2f 75bf
000001e0: 2208 a0bf 05b1 02c0 daab 2ec0 15ef 3ec0
000001f0: 722f 6ec0 d05b 75c0 50a7 59c0 41da 24c0
-0.9634048 -0.5512248 -0.30572823 -0.40338764 -0.20482424 -0.4176587 -0.2108193 0.28905576
0.36806417 0.3722185 0.6755686 0.68037146 0.3921587 0.008170143 0.4709428 0.6076908
0.47711298 0.24486153 -0.07456131 -0.36801296 -0.3643649 -0.64949447 -1.0423564 -1.1652943
-1.7163205 -1.3142587 -0.94640523 -0.5243837 -0.03567362 -0.008160052 -0.025912153 0.17167127
-1.0706257 -1.933443 -1.9397694 -1.9788973 -1.7183976 -1.0280169 -0.3314064 -0.06890901
-6.0235936e-07 0.11661012 -0.24567658 0.036443047 0.27022472 0.52398133 0.6356483 1.0406255
1.3632635 1.382897 1.1333803 0.39686254 0.40691128 0.030021787 0.32661194 0.070754424
-0.07566102 1.15965804e-07 -0.3190865 -0.24032605 -0.98012847 -1.3939664 -1.780456 -1.8962668
0.90976137 0.52958035 -0.010489401 4.0541116e-07 -0.30768934 0.014888749 0.20411468 0.60218155
1.3737383 1.6274045 1.4268013 1.2847253 0.81519705 0.2726657 -0.12121694 0.039450184
-1.0850269 -0.84753567 -0.84588337 -0.41881236 -0.28891554 -0.6014143 -0.095571145 2.40562e-07
-0.18225238 0.06938502 0.26968375 0.9062987 0.83546585 1.4563982 1.7225518 2.2549603
1.8734541 1.7330742 1.2487553 0.49971464 8.7488655e-07 -0.63231087 -0.85909945 -1.6847575
-1.7293658 -1.9189038 -1.2131834 -0.73142207 -0.0031774235 1.2975205 1.8593204 2.8426802
0.72724944 0.014993817 0.0022646398 0.3062701 0.24287891 0.07480771 -0.5177227 -0.9577595
-1.2502482 -2.0420544 -2.729239 -2.9833424 -3.7216458 -3.8337288 -3.400837 -2.5758212

weight f4 [8]
00000000: 3432 f93f f7c4 633f 86a9 533f e3f5 2540
00000010: 9219 1d40 7d41 0f40 63d6 433f 23c2 df3e
1.9468446 0.8897242 0.8268055 2.5931327 2.4546857 2.238372 0.76499003 0.43702802

bias f4 [8]
00000000: 63c0 9cbf acbf 663e 3e49 b9bd 1957 50bf
00000010: af21 97bf 6531 febe 9098 81be f896 a4be
-1.2246212 0.22534055 -0.09047173 -0.813829 -1.1807154 -0.4964706 -0.25311708 -0.3214643

running_mean f4 [8]
00000000: 2baf 693d 5052 5b3f 481f e53e fd79 783d
00000010: 9be2 f5be abb3 5f3e 7d64 0c3e bb3f ee3e
0.05705182 0.85672474 0.44750428 0.060663212 -0.4802445 0.21845882 0.13710208 0.46532997

running_var f4 [8]
00000000: d30f 913e 7780 143f 1539 423e e26b b33e
00000010: 26c3 543f 1c4b 413e a01f de3d 9e9f 973e
0.28332385 0.5800852 0.18967088 0.35043246 0.8311027 0.18876308 0.10845876 0.29613966

weight f4 [12, 8, 12]
00000000: 5bb9 d63f 1b5d 1240 7842 b63f 4818 443c
00000010: ffae 8cbf f467 efbf bd8d efbf 729b 1dc0
00000020: 10b9 863f 5292 be3f 3720 bd3f 841b 6c3f
00000030: 7aad 17be 4f5b 18bf 9e1d 31bf 152e 36bf
00000040: 7011 babb b877 7a3e fb84 b63e f82f a23c
00000050: 03dd ceba c369 143d d2ca 64b6 9529 cebf
00000060: 7e9f 863e df65 85bc da1d cabe d15d 4ebf
00000070: 5fa6 33bd db9b 3d3d ed7c 9cb5 18b1 01be
00000080: e29b 163f 0fcf c13b 40c1 8cbc a0ab 35be
00000090: e425 36be e764 ae3f b757 0a40 cc6b 2840
000000a0: 52e7 1a40 b966 8b3f b605 d33e fa60 183f
000000b0: 9a9a 9ebe b436 e3bf 18e4 c7bf d782 35c0
000000c0: ed7e f93f 78cb 5c40 4957 8140 8ec6 5940
000000d0: 2e1e e73f 4de9 f7bd b2c8 1bc0 2a61 42c0
000000e0: 9d3c ecbf 5540 37bf 9aff 92be 0a9d 43bc
000000f0: 4d3d 363c 4570 e43b 9edf 873e 050d a23e
00000100: 44a2 143e b9ad 01be bbd7 80bf 4e67 c6bf
00000110: 6f0f 933e b6fc b63e 0477 363d 1cbf 243e
00000120: d616 2b3d cb72 453d 67b9 afbd b414 66bc
00000130: 6e8a 373e 25ab 62bd ba65 b83e c1fd 90bd
00000140: c3e1 413c d5e5 ee3b 7c5e 07bf d0bf e7bf
00000150: a73a cabd 245e 10be eabd 61be 8c99 7b3c
00000160: fd22 bc3e cdc4 123f aae9 833e 2ac4 6d3d
00000170: 9e06 b23b 7e5e 0abe 7553 b7bf 6d06 4fc0
00000180: eec1 21be 46e3 6dbf f608 73bf c95d d0bf
00000190: 9afa f0bf 3e5c f83b f313 9f3f bb65 c53f
000001a0: c655 a43e 27fb da3c ae33 863e d659 0db5
000001b0: 4811 d13f cde2 833f 01e1 993e a3dc 493e
000001c0: 820b 2034 f263 ca3d 579d bd3a 03a5 a53d
000001d0: ef77 f7bd 5f0f 0abf 4df4 8fbb 5c36 01bf
000001e0: f17d 993b b60f 433e f1dc 853f d1b8 343f
000001f0: 31e7 053f a4fa 8a3e 6fce b0bd bf49 31bf
00000200: 3f8a edbf 0ad4 f8bf 9cef 9bbf baeb c6bf
00000210: 4f4f 5f3f 5ea0 b7bd f944 cabe ed83 d33c
00000220: f27d 07bf 15d7 e2bf 0e58 25c0 c77d 55c0
00000230: 2501 03c0 5905 37bf 2a48 293e 0bd3 993f
00000240: b5af 82be 7b3a 98bf 0f81 7abf e335 3abd
00000250: 7304 9abd 9417 4b3e dc4b ec3d 4461 2e3c
00000260: 4caf b8ba c2b4 4f3e 80d5 e93f e860 1a40
00000270: df2b 783e 0058 2abc 79ed babd c3d2 05bf
00000280: 270d 93be c680 543f 40c4 883f c3bb be3e
00000290: 156f 04be deec 03bf 9e07 a2bf 9fc0 84bf
000002a0: 2420 133e d996 3fbc c904 973d 85ec 403c
000002b0: dfe9 2fb7 247a 91bc 55d6 89bf e0bf 16c0
000002c0: 12b4 6cc0 32da 48c0 1253 b9bf d249 ddbe
000002d0: 1c49 753e 4116 673e 4486 acbb 16c6 8d3d
000002e0: 6803 4f3c e191 a7bd 1e85 41bf ea87 adbf
000002f0: 5e15 e2bf ae23 b8bf b2e1 8cbf bd39 d1bc
00000300: b68a 633d 682f b2bf f6eb 43bf 04f3 9dbf
00000310: 1709 ed3e c4c6 073f c53c ce3e a6c8 043f
00000320: 6e9f c23f 26b9 df3f 4afc e93f 6bfb fc3f
00000330: 4eb1 86bd ed82 deba c4f9 8033 7cb4 6e3e
00000340: fbc6 ff3c 97bf e9bb e27e c53d 1f4f 133a
00000350: c68c a63c c412 2e3e c453 8dbd 09a2 b4bf
00000360: b354 c4bf 4b55 bbbf bf5b 45bf ac4a 22be
00000370: 3491 2a3f 5915 633f 4a4f 123f 8974 503d
00000380: a697 523f 9035 ff3e aba6 3e3d 1d41 9dbe
00000390: 7c6a f63f 402d 2240 499a 1240 7fd8 0240
000003a0: 9e5c 6b3f 23e2 04bf aaa4 c8be 1bfc abbf
000003b0: 2ec0 d5bf 7ddb 82bf 7795 ae3c 0d45 6a3f
000003c0: 90fc 583f e982 4e3f 8ce2 91bc d091 6ebf
000003d0: c03c dfbf e654 57bf 29c5 40bd 3714 9c3e
000003e0: a06e 803e 09db 593b 72a6 91ba 435b 673f
000003f0: c142 6dbd f2c2 34bf fddb 8fbc c607 8abe
1.6775316 2.2869327 1.4239035 0.01196868 -1.0990905 -1.8703599 -1.871513 -2.4626126
1.0525227 1.4888403 1.4775456 0.92229486 -0.1481227 -0.59514326 -0.6918582 -0.71164066
-0.0056783482 0.24459732 0.3564833 0.019798264 -0.0015782419 0.036233675 -3.4092704e-06 -1.610644
0.26293558 -0.016283927 -0.394759 -0.806119 -0.043859836 0.046291213 -1.1659264e-06 -0.12665212
0.5883161 0.005914576 -0.017181993 -0.17741251 -0.17787892 1.3624543 2.1616037 2.6315794
2.4203687 1.0890723 0.41215295 0.59522974 -0.30977327 -1.7751069 -1.5616484 -2.8361108
1.949186 3.4499187 4.041905 3.4027438 1.8056085 -0.121050455 -2.4341245 -3.0371804
-1.8455998 -0.7158254 -0.28710634 -0.0119392965 0.011123014 0.0069713914 0.26537794 0.31650558
0.14515024 -0.12663926 -1.0065836 -1.5500276 0.28722712 0.35739678 0.044547096 0.16088527
0.041769825 0.04820518 -0.085802846 -0.014043022 0.179239 -0.055338997 0.3601511 -0.0707965
0.011833611 0.0072905817 -0.52878547 -1.8105412 -0.09874468 -0.14098412 -0.22045103 0.015356433
0.36745444 0.57331544 0.2576421 0.058048405 0.0054329177 -0.13512608 -1.4322344 -3.2347672
-0.15796635 -0.92924917 -0.9493555 -1.6278621 -1.8826478 0.0075793555 1.2427963 1.5421671
0.3209669 0.026731087 0.26211303 -5.265732e-07 1.6333399 1.0303589 0.30054477 0.19713072
1.4905348e-07 0.09882344 0.0014466447 0.08088114 -0.120834224 -0.53929704 -0.0043931366 -0.5047357
0.004684203 0.19048962 1.0458051 0.7059451 0.52305895 0.2714435 -0.08633124 -0.6925315
-1.8557814 -1.9439709 -1.2182498 -1.5540688 0.8723039 -0.089661345 -0.39505747 0.025819743
-0.5292655 -1.7721888 -2.5834994 -3.3358018 -2.0469449 -0.71492535 0.16531435 1.201753
-0.2552468 -1.1892847 -0.9785318 -0.045461547 -0.0752038 0.19833213 0.115379065 0.010643307
-0.0014090328 0.20283797 1.826828 2.4121647 0.24235485 -0.010396957 -0.091273256 -0.5227472
-0.28720972 0.8300899 1.0684891 0.37252626 -0.12933 -0.51533306 -1.2658575 -1.0371283
0.1436773 -0.01169368 0.073739596 0.011775141 -1.0485265e-05 -0.017758437 -1.0768534 -2.3554611
-3.6984906 -3.1383176 -1.4478476 -0.43220383 0.2395367 0.22567083 -0.005265029 0.069225475
0.012635089 -0.08182121 -0.75593746 -1.3557103 -1.7662771 -1.4385889 -1.1006377 -0.025540227
0.055552207 -1.3920717 -0.7653192 -1.2339787 0.46295998 0.5303767 0.40280738 0.51868665
1.5204904 1.7478378 1.8280118 1.9764227 -0.06576787 -0.0016976275 6.0058966e-08 0.23311037
0.031222811 -0.007133435 0.096433416 0.0005619395 0.020330798 0.16999346 -0.06900743 -1.4111949
-1.5338348 -1.4635404 -0.7709312 -0.15848798 0.6662781 0.8870445 0.57152236 0.050892387
0.8226265 0.49845552 0.046545666 -0.3071374 1.9251246 2.5340118 2.2906668 2.0444639
0.919382 -0.5190756 -0.3918813 -1.3436311 -1.6699274 -1.0223233 0.021311505 0.91511613
0.8476038 0.80668503 -0.017808221 -0.9319124 -1.7440414 -0.8411392 -0.047063027 0.30484173
0.250844 0.0033242127 -0.0011112227 0.9037363 -0.05792499 -0.7060996 -0.017560953 -0.26959056

weight f4 [12]
00000000: 9ac7 b63f 8c5a 923f 52ca 6e3f 10b7 cc3f
00000010: a128 db3f 322e 273f 5002 8f3f 19bc b73f
00000020: 28ff d43f 5d9e d83f 586e d33f 2c1c 2b3f
1.4279664 1.1433883 0.93277466 1.5993366 1.7121774 0.65304863 1.1172581 1.4354278
1.6640368 1.6923329 1.6518049 0.6683986

bias f4 [12]
00000000: e1b2 85be dc54 20bf 4eb4 75bf c41c debd
00000010: e55a 88be 5f88 0f3e d5db 29bf dcdb 9bbf
00000020: d011 16bf c33d b3be 0dad 92bf e3a5 4cbe
-0.26113036 -0.62629485 -0.9597825 -0.1084533 -0.26631847 0.14016865 -0.6635106 -1.2176471
-0.5862093 -0.35008058 -1.1459061 -0.19985156

running_mean f4 [12]
00000000: a285 f13f cf39 a241 1923 8ec0 6b5a a741
00000010: 7181 7940 ada3 e641 73e8 db40 def6 90c0
00000020: 5a0b 0f41 20f0 0f41 0839 dbc0 c0ab af41
1.8868906 20.278227 -4.4417844 20.91915 3.8985255 28.82992 6.872125 -4.530135
8.940271 8.996124 -6.850712 21.958862

running_var f4 [12]
00000000: 2eb8 1043 4146 9542 9398 e242 e936 0743
00000010: 84ae 3a43 eb93 6942 3aa2 8f42 b903 2943
00000020: 4c1b 0c43 1575 fd42 13fc 6143 136b 5c42
144.71945 74.637215 113.298 135.2145 186.6817 58.39445 71.81685 169.01454
140.10663 126.728676 225.98466 55.104565

weight f4 [32, 12, 9]
00000000: 1cba bdbd f961 593d 8cc5 b33e 7645 fa3e
00000010: 55a3 363f 0aa3 ab3f 1ccf cabb 67c0 82bf
00000020: bbd3 47bf 9651 fa3e cc6f 3b3d e883 733f
00000030: 7822 3f3f bd45 6f3f 757d 123f d66e 19bc
00000040: 512d 84bf 7682 a5bf ddc4 10bf f16f ee3b
00000050: 018a d63e f19d a33b 791f 133f 6a3d 0a3f
00000060: 412a a83e 4bef 9ebc 3fb6 723c 90b2 ba3f
00000070: f498 e63f 51b0 9fbc 9855 dfbf 9ef1 2cbf
00000080: b6af 883d 3cb5 61be 6b2d e7be 0149 14be
00000090: 2cb4 0cbf 51fb 4f3f a026 483f f9de 7d3d
000000a0: 1000 fcbd 4905 57bf d74c c4bf e343 babf
000000b0: 75f7 cbbf 79a8 9d3e ed40 b43e 6262 dabd
000000c0: 516d 92be 1560 f63d e5b6 163e 86f1 91bd
000000d0: 36b8 1abd 0ba1 dbbe f8e7 b73c 7904 fb3e
000000e0: e642 463c 5d94 b2bc db0a 993b d5a9 8e3d
000000f0: 204a 8dbc 06af 36bd bb17 b4bf 2e6f 343c
00000100: 3d07 a5be 293c 9d3f 2dfb 2440 43a3 fc3f
00000110: 65f6 bf3d 1cd8 4e3d 9ee9 0abe 0893 a7bf
00000120: 620b ad3e 9c1c 70bd e9f3 583e d766 483f
00000130: 4edf 233f 4fac d53e 3c7e a93e 9cac 883f
00000140: 1a66 893e 76fe 4dbf 5b13 f03f acb8 ce3f
00000150: 8979 98be b844 37bf 598a d6be 2ed6 ebbe
00000160: f323 7fbf 19f9 8cbf 2fb8 aabf 0cc8 b3b9
00000170: e5cc 103b b30b 893e c07d 6e3e 1b5d 653f
00000180: eae4 33bd b85d 33bf 8aa3 84bf a467 f4bc
00000190: 932f 04be 016e bcbb e4d3 5fbf a994 82be
000001a0: b91d f83e ca5c b43c 6cbf 01bc 001c 05be
000001b0: 9f05 6bbd 3be1 8a3b 27b6 a8bd 6771 19bf
000001c0: 7526 fbbe c750 b8bb 2a35 3c3c f232 6c3f
000001d0: 8a03 a83f 53b5 57be e524 663f 2583 023f
000001e0: 4988 40bd cf1f 88bf 609f 97bf dd84 b4bf
000001f0: b949 c5be 980e f93e 9d84 f73e 308c 123f
00000200: 5a37 ffbc 9cef 7ebb 973c 94bd d076 533e
00000210: e378 c9bd 3f4e 84be a7c4 903c 810d 73bf
00000220: ab48 353c e043 4f3e 38bc 4fbc f4b7 8b3c
00000230: 35bf 0040 a3c5 e23f e850 febe 4938 2fbf
00000240: 5f1e a2be 10d8 59bf fd28 6ebf b6d6 67bf
00000250: 1859 1bbf 90fd 613f c1d3 0840 8c37 973f
00000260: 742d 613e a91f 2bbc d575 0bbf a8c2 c53d
00000270: b30a 7fbe 83c3 4f3b 371a 253f b3f0 633f
00000280: a5ce 8e3b 7beb 623b bac9 a33e b7e1 dbbc
00000290: e441 87be 7969 4c3e e785 12bc b28b 653e
000002a0: afab 11bd eac3 eebe a40a 9ebf 494a 1a3f
000002b0: 5464 01bc 5697 aebd 7511 0b3c e91e 80be
000002c0: 97f2 2f3b 9ffa 2f3f 9348 9e3f 2d51 ab3f
000002d0: 36ff 20bd 4044 143d 652f bc3c 5884 4dbd
000002e0: 49ec 91be 09a8 90bf f1fa 7ebf 206e 513f
000002f0: dc38 7b3f ac1d c6be 9719 8dbf 12bf 54be
00000300: 96c0 79bd 9bd1 5a3f ec13 0c40 f550 1a40
00000310: 73b1 f63f e800 99bf d049 7f3f c1fe d8be
00000320: 6a12 10c0 fcf3 17c0 1e0b abbf df92 16bf
00000330: aa64 f33d 1e44 523f d3ed 693f 33a4 143d
00000340: e357 31bc 1b07 333b 3702 33be 22de 34bd
00000350: 54ad 283f ff8b e53f 3439 803f 2f5a 6abe
00000360: dffa 62bf 2ca9 3d3f ff8b f63f a6cf 223f
00000370: fbd6 82bf 1d3a 81bf b535 4cbb d90c 203f
00000380: c852 263f 7328 62bb 096b 32be ce03 28bf
00000390: e0d3 2cbe cd39 5f3f 171a fe3e 0128 b73d
000003a0: a25d 22bf 904d b9be 4fe3 343f 073e 60be
000003b0: 61e9 13bd db62 203f 4667 05bd 6777 b43e
000003c0: 9f1d 69be 6a7b 2cbd 4a8c 633d a57e e53c
000003d0: 09d9 8abd 2fa0 a13c 84c4 b83c cba2 713e
000003e0: bf15 ca3c 5fbc 01bd 3d8d aebe 3b4e c1be
000003f0: 67ea 903f 2e43 e23f 127e 2c3d 9b0c 38be
-0.09264013 0.05307195 0.35111654 0.4888112 0.71342975 1.340913 -0.00618924 -1.0214967
-0.7805745 0.4889037 0.045760915 0.9512315 0.7466197 0.9346579 0.5722268 -0.009364804
-1.032633 -1.2930439 -0.5655039 0.007276528 0.41902164 0.0049931933 0.574699 0.5399996
0.32844737 -0.019401213 0.014813959 1.4585743 1.8015428 -0.019493254 -1.7447996 -0.6755618
0.06674139 -0.22041792 -0.4515184 -0.14480974 -0.5496242 0.81242853 0.7818394 0.06198022
-0.123046994 -0.8399244 -1.533595 -1.4551967 -1.5934893 0.30792597 0.35205784 -0.10663296
-0.28599027 0.12030045 0.14718206 -0.07126145 -0.037773333 -0.42896304 0.022449479 0.4902685
0.012100911 -0.02179926 0.0046704835 0.06965987 -0.01724726 -0.04460051 -1.4069742 0.011012835
-0.32232085 1.2283984 2.5778306 1.9737324 0.09373168 0.050499067 -0.1356568 -1.3091745
0.33797747 -0.058621034 0.21186794 0.7828192 0.6401261 0.41733024 0.33104122 1.0677676
0.2683571 -0.804664 1.8755907 1.6150107 -0.29780224 -0.7158923 -0.41902426 -0.46061844
-0.9966423 -1.1013519 -1.3337458 -0.00034290587 0.0022094783 0.26766738 0.23290157 0.8959519
-0.04391948 -0.7006488 -1.0362408 -0.029834576 -0.12908773 -0.005750418 -0.87432694 -0.25504044
0.48460177 0.022016902 -0.007919174 -0.12998962 -0.057378408 0.0042382753 -0.08237868 -0.59938663
-0.49052778 -0.005624864 0.011487285 0.92265236 1.312608 -0.21065263 0.89900047 0.5098136
-0.04700497 -1.0634707 -1.1845512 -1.4103047 -0.38532808 0.48643947 0.48343363 0.5724516
-0.031154323 -0.0038900143 -0.07238119 0.20650792 -0.098375104 -0.25840947 0.017671896 -0.9494248
0.011064689 0.20240736 -0.012679152 0.01705549 2.0116704 1.7716564 -0.49671102 -0.6844526
-0.31663796 -0.8509531 -0.93031293 -0.90562 -0.6068282 0.8827753 2.1379244 1.1813827
0.21989995 -0.01044456 -0.5447667 0.09656268 -0.24906425 0.0031702227 0.64493126 0.8903915
0.00435813 0.003462522 0.31989843 -0.026841028 -0.26417458 0.1996211 -0.008943058 0.22416571
-0.03556412 -0.46633846 -1.2346997 0.602696 -0.007897455 -0.08524959 0.008488049 -0.25023583
0.0026847476 0.6874179 1.2365898 1.3384148 -0.039305888 0.0361979 0.022971818 -0.05017504
-0.28500584 -1.130128 -0.99601656 0.8180866 0.98133636 -0.38694513 -1.1023434 -0.20776013
-0.06097468 0.8547608 2.188716 2.4111912 1.9272903 -1.1953402 0.99722004 -0.42381862
-2.251124 -2.3742666 -1.3362768 -0.5881786 0.118844345 0.8213519 0.91378516 0.036289405
-0.0108241765 0.0027317468 -0.17481314 -0.044157155 0.6588948 1.7933348 1.0017457 -0.22885965
-0.8866405 0.7408626 1.9261473 0.63598096 -1.0221857 -1.009586 -0.0031159942 0.62519604
0.64970064 -0.0034508973 -0.17423643 -0.65630805 -0.16877699 0.8719757 0.4962928 0.08943177
-0.6342412 -0.36191988 0.70659345 -0.21898662 -0.03611124 0.6265084 -0.032569192 0.35247347
-0.22765206 -0.042109884 0.055553712 0.02801449 -0.067796774 0.019729702 0.022554643 0.23597257
0.024668572 -0.031673785 -0.3409213 -0.37754998 1.1321534 1.7676752 0.042112418 -0.17973559

weight f4 [32]
00000000: 65d6 a43f 9de1 f13f cccd 2b3f 3155 973f
00000010: 5036 b23f 605e 7e3f f341 923f 4a2f a33f
00000020: 4ab3 e33f c818 9c3f 1a87 6b3f 37d7 cc3f
00000030: 9834 5f3f 2e9e 903f 3386 703f 487c e63f
00000040: 91fe 8a3f b3a6 593f b424 5a3f 9087 e23f
00000050: 74d4 9d3f fd01 d93f 0378 973f fed0 dd3f
00000060: 2ab6 c43f d1af 723f fd0b 823f e242 083f
00000070: cd70 f43f 995d e93f a876 5a3f 921b d83f
1.2877928 1.8896977 0.67110896 1.1822873 1.3922825 0.99362755 1.1426376 1.2748806
1.778909 1.2195063 0.92003024 1.6003178 0.87189627 1.1298273 0.9395477 1.8006678
1.0858938 0.8501999 0.85212255 1.769762 1.233046 1.6953732 1.18335 1.7329404
1.5368092 0.94799525 1.0159909 0.53227055 1.9096924 1.8231689 0.85337305 1.6883414

bias f4 [32]
00000000: f2cf a1be f023 8d3f a5b1 343d 4943 d5bf
00000010: 4b6b 06bf 63e9 5a3e f408 90be ad55 53bf
00000020: b09a c53d cd2d 82bf 70fe 2fbf 8c08 093f
00000030: 8391 20bf f6fd a0bf d04d 69be 3292 603d
00000040: dbc4 4bbf 77ca f43d 235a 52bf 2a48 133e
00000050: 5f35 a0bf 9b8d 82bc 3175 8abf 9ffb 833f
00000060: f0ce 4ebf 4de8 e5be e2e2 c1bd 8ece 44bb
00000070: 50ac 6e3f f5b4 a63e ef5c f5be d684 f2be
-0.31603962 1.1026592 0.044114728 -1.6661159 -0.52507466 0.21378092 -0.2813183 -0.82552606
0.09648645 -1.0170227 -0.68747616 0.53528666 -0.62722033 -1.2577503 -0.2278359 0.054826923
-0.7959725 0.119526796 -0.8216879 0.14382997 -1.2516288 -0.015936663 -1.0817014 1.0311164
-0.8078451 -0.44903794 -0.094671026 -0.0030030343 0.9323168 0.32559934 -0.47922465 -0.4736697

running_mean f4 [32]
00000000: 1184 3e41 efae d341 2091 2e41 0f05 c140
00000010: 8e61 8541 b17b 3c41 a4e4 b941 9c1e 8741
00000020: 51dd b141 0057 3341 80de 8a41 1207 a441
00000030: 73d6 7141 0e76 9a41 1d7a 6641 b022 9041
00000040: 788c 4841 956e 8240 107b 2241 d909 d141
00000050: 4640 3341 9b53 cd41 126e 4a41 eeb0 ab41
00000060: fb5b 5641 1ece 6c41 2271 9f41 464b 2441
00000070: 54f4 9f41 6431 a541 d6ac 0e41 1a1f 7741
11.907243 26.460417 10.910431 6.0318675 16.672634 11.780198 23.23664 16.889946
22.233065 11.20874 17.358643 20.503452 15.114856 19.307644 14.404813 18.016937
12.534294 4.075999 10.155045 26.129808 11.203192 25.665823 12.651873 21.461391
13.397456 14.800322 19.93024 10.268377 19.9943 20.649117 8.917196 15.445093

running_var f4 [32]
00000000: 97d1 3043 d338 8b43 6b59 d242 2556 1143
00000010: 32a3 d742 99ad 2043 7163 3d43 430a 1b43
00000020: b13a 2543 06ff cc42 fbc9 e342 d55f 5043
00000030: a847 fc42 02e2 bc42 19f5 fd42 b680 1743
00000040: 0700 dc42 9b36 c642 f0d7 9e42 a018 4343
00000050: 39f3 e942 9a57 2143 a796 d442 04f1 4043
00000060: fd14 e842 c8c8 ad42 2d0a a242 ab98 d442
00000070: 69ca 2543 d0e1 4c43 458b c542 9f7e 2943
176.81871 278.44394 105.174644 145.3365 107.81874 160.67812 189.38844 155.04008
165.22926 102.49809 113.89449 208.37434 126.13995 94.44142 126.97871 151.50278
110.00005 99.10665 79.42175 195.09619 116.975044 161.3422 106.29424 192.94147
116.04099 86.89215 81.019875 106.29818 165.79066 204.88208 98.77201 169.49461

weight f4 [64, 32, 7]
00000000: fb62 783f 96b9 573e 4e97 d2bd 4844 34bc
00000010: df82 443e a4d1 b63e ecef 9e3d c4d1 0d3e
00000020: 8974 0a3e cbd9 fe3e c006 083d 8299 46bf
00000030: 4f97 46bf 9522 01bf 01b3 1e3e 9f0c 2f3e
00000040: edcd 1cbe 9357 3ebd 3744 30be 5d76 c53b
00000050: b1f9 ed3c 39a1 23bf a06b 94ba 811c bf3e
00000060: 7c4a 443f cf17 363f 9bb4 d0be 7f70 82bf
00000070: a5e3 113e dd1d 663f c49f a33f 3c3d a83f
00000080: 9bed 393f 81ee 24bf 882f 53bf 03a2 d7bd
00000090: ab93 6cbe c0fe f5ba a53a cfbe 6fad 38bf
000000a0: 8643 cdbd bee6 a73e a834 273e 3ad9 44be
000000b0: 6560 56be 5f31 183e f0b1 9dbd 56f9 0ebd
000000c0: 8ce7 86be 5e00 cd3e 41d9 563d 8b33 64bd
000000d0: 85d6 2f3e 8769 653d 8d15 d1bd eb06 f0be
000000e0: 4e61 a5bd 5fa1 26be 1c90 cebb 573b 17bd
000000f0: 9366 2dbf 1a45 e1be 06f4 a1bf 4c49 563e
00000100: 4f83 c6be 6a2b 78bf 5516 8bbf 4d39 44be
00000110: 0928 023f 28ab 583f b437 bcb9 7181 99bb
00000120: e992 7d3d 4478 acbe 57b0 053e cc5a c53c
00000130: 4298 80be bb4c b63f 4aae 6a3e d700 dbbd
00000140: c7a3 27bf 12bc 19bf 93fa 03bb 2bea 843d
00000150: e56a 81bc d09a 793e 01e9 1e3e 2d1b 2abf
00000160: f8da a1be d453 f9bd fb02 11bc a08b a23d
00000170: c53e 8abe 9d2e 8ebe a7b6 8a3e d155 633e
00000180: b30b cfbe b83c 5dbf c02d c13e b22f 473d
00000190: a2a4 1dbe 3b14 143d e1ee 30be a936 153e
000001a0: 2c10 9a3e 8142 c63e 3d27 77be 18e9 6d3d
000001b0: 2540 373d 020c c6bc 7b0a 0ebe 2781 23bf
000001c0: 41d7 61bd 7934 f4bc 4c12 cd3d dafc 0a3f
000001d0: ed8a 513f 1487 de3e 769a 713d 0e7f da3c
000001e0: c5c4 64bd 1ef7 f33d f2c3 ae3e b996 08bf
000001f0: d16d 32bf fe22 f5be d915 a1bd 38fd bbbd
00000200: 6658 dabe bd58 b43e c9e0 413e c5a8 0dbe
00000210: 1031 72bf b956 5e3c e674 e8be 54cd c2be
00000220: 339f 13bf cb8c c0be 8422 27bb a46e b6bd
00000230: 067d 273f 601a 00be b187 d9be 640d 9fbe
00000240: f12c ea3e 4530 393f 7c66 263f 6e3b af3f
00000250: 9619 f53e 0a4a ea3e 4ac1 983e 4970 14be
00000260: 7179 b73d dc33 a63c 67f3 aa3e 6a00 883e
00000270: 5d6e dcbb d9ba 02be 8fae 4c3e 25da 12bd
00000280: 4d68 08bf 3f64 cabe d74b 643e 8a6b 883e
00000290: 2278 0bbe 12f6 0ebf bd7a 60bf e973 71be
000002a0: 8baa c7bf f9c9 a6bf 7e98 a7be b63a c73e
000002b0: 80eb 9b3e ca04 1f3e a353 98be 43d9 003f
000002c0: 8c87 583e d8a1 ffbe 948c 11be 599f d43e
000002d0: a86c 6a3f a554 e93d 2845 1e3d 87ea 83be
000002e0: 59b2 7fbd 8120 e73e 86d9 943e b6bd e63e
000002f0: 7831 dabb 764a 29be 50a3 78bd 86cc fb3d
00000300: b901 8b3c 1231 35be eb83 f3be 6ee4 2fbe
00000310: 996c 02bf 1aa6 95bf 7d48 0ebf 8be1 4bbf
00000320: 310b d3bf a424 fdbf cf03 b2bf 1da0 3c3f
00000330: d36f 543e 2039 acbe edc0 6fbd e333 e7bc
00000340: 9e69 9f3c 04f3 acbe 562b 823d 1395 cfbd
00000350: cb5e e2be f4d4 b7bd b367 4a3e ab52 d93e
00000360: a08e 5ebe d840 173f 61c1 e13e 0a9d 703e
00000370: b04d 89bc 4302 59bf b35b babf 99e6 d5bf
00000380: 65a7 15be 5fc3 35be bd03 53bd 4aeb abbd
00000390: 44ee d8bb 60ea 943d a605 1b3c 1fcc 4ebd
000003a0: 4ba2 193f e80e 623e 97d3 a8bf dce8 7ebf
000003b0: 3005 fbbe 465b cc3c 2fcf 82be c814 f5bd
000003c0: 84ac 823e 5af5 d23e b165 64be d9c2 74be
000003d0: 1f87 dabe 43e1 0d3c 097b 79be 2f1b 923e
000003e0: fb59 d13e d97d 9d3e 4bf9 13bf 16f0 043f
000003f0: 36fe 3ebc 9f66 803b 4a67 d9bc 00e5 b1be
0.9702603 0.21066889 -0.10282765 -0.011002608 0.19190548 0.35706818 0.07760605 0.1384955
0.13521017 0.49775538 0.033209562 -0.77577984 -0.7757463 -0.50443393 0.15497972 0.17094658
-0.1531293 -0.046470236 -0.17213522 0.006026073 0.029049726 -0.6391788 -0.0011323579 0.37326434
0.76676154 0.7113008 -0.4076279 -1.0190581 0.14246996 0.8988932 1.2783132 1.3143687
0.7262818 -0.6442643 -0.824944 -0.10528948 -0.23103206 -0.0018767938 -0.4047443 -0.7213964
-0.10022645 0.3279323 0.1632868 -0.1922349 -0.20935209 0.14862584 -0.076999545 -0.034905754
-0.2634853 0.40039343 0.052453283 -0.055713218 0.17171676 0.05600884 -0.102091886 -0.46880278
-0.080752 -0.16272496 -0.0063038003 -0.036921825 -0.6773464 -0.43998033 -1.2652595 0.20926398
-0.38772056 -0.96941245 -1.086619 -0.19162484 0.5084234 0.84636164 -0.00035899656 -0.00468462
0.061907683 -0.33685505 0.1305555 0.024091147 -0.25116163 1.4242166 0.22918049 -0.106935196
-0.6548428 -0.600526 -0.0020138368 0.064899765 -0.015798042 0.24375463 0.15518571 -0.66447717
-0.31612372 -0.12174192 -0.008850808 0.079367876 -0.27001014 -0.27769938 0.27092478 0.22200705
-0.40438613 -0.86420774 0.37730217 0.04862947 -0.15394834 0.036152106 -0.17278625 0.14571632
0.30090463 0.38722613 -0.24136062 0.058083624 0.044738907 -0.024175648 -0.13871185 -0.63868946
-0.055136923 -0.029810177 0.100132555 0.5429207 0.8185261 0.4346243 0.058985196 0.026671913
-0.055851717 0.11912368 0.3413387 -0.53354985 -0.69698817 -0.4787826 -0.07865495 -0.09179157
-0.42645568 0.35223952 0.18933405 -0.13833912 -0.94606113 0.013570481 -0.45401686 -0.38047278
-0.57664794 -0.37607417 -0.002550275 -0.08907822 0.65425146 -0.12510061 -0.42486337 -0.31064904
0.45737413 0.7233928 0.6500013 1.3690012 0.47871083 0.45759612 0.29834968 -0.14495958
0.0895871 0.0202884 0.33388826 0.26562816 -0.0067270235 -0.12766589 0.19988464 -0.03585257
-0.5328415 -0.39529607 0.22294556 0.26644546 -0.13620046 -0.55844223 -0.87687284 -0.23579372
-1.559892 -1.3030387 -0.3273353 0.3891198 0.3045311 0.1552917 -0.2975131 0.50331515
0.21145457 -0.49928164 -0.14213783 0.41527823 0.91572046 0.11393098 0.03864017 -0.25764868
-0.062425945 0.45141986 0.29072207 0.45066613 -0.006658729 -0.16532311 -0.060702622 0.12294869
0.016968595 -0.176945 -0.47561583 -0.17176983 -0.50946957 -1.1691315 -0.5557936 -0.79641026
-1.648779 -1.9776807 -1.3907412 0.73681813 0.20745783 -0.33637333 -0.058533598 -0.028222984
0.019459542 -0.33779156 0.06355922 -0.101358555 -0.44212946 -0.089761645 0.1976612 0.42445883
-0.21734095 0.5908332 0.4409285 0.23497406 -0.016760677 -0.84769076 -1.4559234 -1.6710998
-0.14614637 -0.1775031 -0.051517237 -0.08394487 -0.0066202004 0.07271266 0.009461796 -0.050487634
0.60013264 0.22075999 -1.3189572 -0.99574065 -0.49027395 0.024945866 -0.25548694 -0.11966854
0.25522244 0.41202813 -0.22304417 -0.23902453 -0.42681214 0.008659664 -0.2436334 0.28536364
0.40888962 0.30760077 -0.57802266 0.5192884 -0.011657288 0.0039184834 -0.02653851 -0.34745026

weight f4 [64]
00000000: eb5d 913f 7ab2 c33f 3e89 d03f c2e6 f73f
00000010: 1182 913f a699 ae3f 3157 cc3f 17b5 c33f
00000020: de20 a33f ff6a 9f3f b0f4 a13f e0ac 973f
00000030: 0e41 b43f e4bf 823f e949 763f ed31 b13f
00000040: a384 b73f 3799 7c3f f274 ce3f 2552 b93f
00000050: 90ab b53f 4661 953f e873 973f a6b1 ac3f
00000060: ab60 983f 5cfe 3d3f 97a6 b03f abf5 c13f
00000070: aa5e c03f dcec 893f 4b4a 8c3f 31ae ab3f
00000080: ca00 a43f 0cb4 ac3f 396b a63f 8ded 683f
00000090: a917 9f3f a4d6 983f 2d3d ba3f 2c23 563f
000000a0: 3f27 983f 2813 b63f 42d8 903f 72f7 a13f
000000b0: 9104 843f 4746 d73e 7eca a03f 465b 9f3f
000000c0: f89a a93f 2e1d 743f fa22 863f 1948 b93f
000000d0: 89c5 813f e910 a73f 7e60 633f 6a83 aa3f
000000e0: 0a8e a13f 9661 a93f 79ed 843f ad25 9e3f
000000f0: 6087 8c3f 5979 e23f 0324 853f 8f60 8c3f
1.1356786 1.5288842 1.6291883 1.9367297 1.1367818 1.364064 1.5964109 1.5289639
1.2744405 1.2454528 1.2652798 1.1849632 1.4082353 1.021481 0.9620653 1.3843361
1.4337353 0.9867129 1.6129439 1.4478194 1.4192982 1.167031 1.1832247 1.3491714
1.1904501 0.74216247 1.3800839 1.5153097 1.5028889 1.0775409 1.0960172 1.3412534
1.2812741 1.3492446 1.3001472 0.90987474 1.2429096 1.1940503 1.4549919 0.8364742
1.1886977 1.4224596 1.1315997 1.2653639 1.0313894 0.42045805 1.2561796 1.244973
1.3250418 0.95357025 1.0479424 1.4475127 1.0138408 1.3052036 0.8881911 1.3321354
1.2621472 1.3232906 1.0384971 1.2355248 1.0978813 1.7693282 1.0401615 1.0966967

bias f4 [64]
00000000: 10e2 84bf f15e 53bf 1de9 a7be 73ba 24be
00000010: 7942 893f 27b3 bbbf d1ee c8bd 01c3 40bf
00000020: e1af a0bf d831 41bf a673 6fbd 08c4 90bf
00000030: 1544 b3bf 467e 33bf dc82 a0bf 34b2 95bf
00000040: 2345 6ebf adc6 78be 5f1c 06bd 4626 56bf
00000050: 1378 c3be 3d5b 88bf 2b40 263f fcdf 96bf
00000060: 73f6 b5be 863c 863d 9e4a e93d b647 16bf
00000070: a57a a83e 9fc7 8abf af67 b5bf f994 77bf
00000080: 554f a0bf eb91 58bf be18 893f 9e1a 36bf
00000090: e7c2 68bf 227f 99bf a936 7cbf e17a a33e
000000a0: 648f 8abf b302 9dbf cbd7 6f3e dc4b 49bf
000000b0: e802 de3d 00ba 03be 4a90 a6bf 0177 d0be
000000c0: 38a8 93bf 2f27 353e a418 aabf b718 8bbf
000000d0: 2af0 153f 8276 4cbf 55f8 bbbf 5478 9bbe
000000e0: a5d4 a6bf 25c2 98be 68a2 103f 679d 6e3f
000000f0: bb64 c2bf 04fe eebd 69bc e5bf 77f2 4bbe
-1.0381489 -0.82566744 -0.3279504 -0.1608675 1.0723411 -1.4664048 -0.098111756 -0.7529755
-1.2553674 -0.7546668 -0.0584599 -1.1309824 -1.4005152 -0.7011455 -1.2539935 -1.1695008
-0.93074244 -0.24294539 -0.0327419 -0.8365215 -0.38177547 -1.0652844 0.6494166 -1.1787105
-0.35539588 0.06554513 0.11391185 -0.5870317 0.3290607 -1.084217 -1.4172267 -0.9671169
-1.252421 -0.84597653 1.0710676 -0.71134365 -0.909224 -1.1991923 -0.98520905 0.31929687
-1.0825009 -1.2266449 0.23422162 -0.7863138 0.10840398 -0.12863922 -1.3012784 -0.40715793
-1.1535711 0.17690729 -1.328877 -1.0866917 0.58569586 -0.7986833 -1.468516 -0.3036524
-1.3033644 -0.2983562 0.5649781 0.93208927 -1.518699 -0.116695434 -1.7948123 -0.19916712

running_mean f4 [64]
00000000: 9341 3a41 ce31 8641 1cb1 ce41 2293 eb41
00000010: 3b77 2042 659c d73e 9c6e 86c0 c543 b641
00000020: 3047 9541 98a3 2341 19be e341 94c9 d841
00000030: c865 88c1 d131 c041 d11f a141 f025 1042
00000040: 74ed a341 c9d0 c841 68ca 6d41 0afc ba41
00000050: 65ff 0042 16b4 c741 5770 2b42 ac45 3dc1
00000060: 98ce 4f41 e843 e441 dba1 5fbf 0925 1641
00000070: 4311 1342 683d 9941 c657 8541 9d9f bfbf
00000080: 329d 9341 cf11 0342 b179 2142 3aec 69c0
00000090: 9a36 b33f 2d90 0641 4c39 f7c0 78c2 8f41
000000a0: 1426 4d40 a4e8 9e40 cf49 d241 9871 c8be
000000b0: 52e0 c641 a0af db41 c734 1542 854e fb41
000000c0: d50e bd41 7562 1f42 6253 d040 b63d 3942
000000d0: 967e cb41 7e07 cc41 0b48 9741 3e0b dd41
000000e0: 5fe0 7a41 4654 7941 47ad d341 f7cd 0c42
000000f0: 0736 a340 db6f 0442 cf09 a440 03b5 a641
11.641009 16.774319 25.83648 29.446842 40.116436 0.42111507 -4.201002 22.78309
18.65976 10.22744 28.467821 27.098427 -17.049698 24.024324 20.140535 36.03705
20.490944 25.101946 14.861916 23.373066 32.24941 24.962933 42.859707 -11.82951
12.987938 28.533157 -0.87356347 9.384042 36.766857 19.154984 16.667858 -1.4970585
18.451756 32.76739 40.36884 -3.6550431 1.4001038 8.410199 -7.7257442 17.969955
3.205449 4.9658985 26.28604 -0.39149165 24.859531 27.460754 37.30154 31.41334
23.632242 39.84615 6.5101786 46.310265 25.43681 25.503658 18.910177 27.63049
15.679778 15.583075 26.459608 35.201138 5.100345 33.109234 5.1261973 20.838385

running_var f4 [64]
00000000: 2fcd 4443 bcbc 1644 68b1 9c43 4f1c 0844
00000010: 7e46 b243 d3d6 b943 c827 cd43 9d5f a343
00000020: c48f ea43 d524 e443 e0c8 9143 2b3e 7343
00000030: a069 e843 cd9e 7043 1810 9f43 a74e 9343
00000040: ccbc b943 1a79 a043 5b44 b143 f170 c543
00000050: 29c8 e343 f652 4e43 bcca 8b43 ff9d d243
00000060: ddc0 9d43 5b9b 8143 cc4a e643 9938 0444
00000070: 5032 e643 4bf9 9043 3e0e 5a43 ba18 da43
00000080: de3a 6043 c846 a543 64d1 a143 ed38 7043
00000090: e03e 8943 8361 7f43 221d a743 cd86 b443
000000a0: 5c67 8c43 88f5 8943 c158 a643 609e ab43
000000b0: fa45 c643 dc14 5243 c141 9243 ad82 8f43
000000c0: 4cc0 b043 fad6 c843 6019 8b43 94d6 c043
000000d0: b041 4343 17b1 9843 11fc ab43 f9b1 cc43
000000e0: b264 9f43 5621 d543 37fd f143 65a3 bd43
000000f0: d27b 4443 d51d bb43 211b 9743 7edc b043
196.8015 602.949 313.386 544.4423 356.55072 371.6783 410.3108 326.74698
469.12317 456.28775 291.56934 243.24284 464.8252 240.62032 318.12573 294.61447
371.47498 320.9461 354.53403 394.88235 455.56375 206.32407 279.58386 421.23434
315.50674 259.2137 460.58435 528.88434 460.39307 289.9476 218.05563 436.19318
224.22995 330.55298 323.63586 240.22237 274.4912 255.3809 334.2276 361.05313
280.8075 275.9182 332.6934 343.2373 396.5467 210.08148 292.5137 287.0209
353.50232 401.6795 278.19824 385.6764 195.25659 305.3835 343.96927 409.3904
318.78668 426.26044 483.97824 379.27652 196.48367 374.23306 302.21194 353.7226

weight f4 [64, 64, 5]
00000000: 50bf d13d 4230 7f3e e255 8fbe 6f3e 323e
00000010: e9d2 b03e 06a0 b3bd 8186 12bf 8ecb 323e
00000020: 31c8 7e3e 26ef 9a3e 20cc b6bd d116 f5be
00000030: cd56 d93b 5c39 393e c182 0e3f 9313 983d
00000040: 26fb 213f f62c 2abc fe63 06bf cd52 a5be
00000050: 6fa6 a9bf 8ce5 50bf b0ab ee3e e71f 683f
00000060: b40d f33e 56ed 993f fe6f 263f 3bc8 64bf
00000070: f342 b3bd f801 843f afb2 a4bc 1d11 50bd
00000080: b931 643d 2e98 db3c 0d68 803c 543d ca3c
00000090: 45fb f4be 433d 84be d67d 42be 7b8a 263f
000000a0: 5655 813f 80f1 be3e 8639 a73c 6720 a8be
000000b0: da44 813e 6ae8 9c3c e1e4 6b3e e6c0 5fbd
000000c0: 5428 10be 6499 8d3d e1a3 7d3d 8d52 163f
000000d0: 8371 f7be 3705 4dbf 7c29 adbe 3638 dd3e
000000e0: ac35 d1bd bfb7 16bf 76ca cebe c4e0 b5be
000000f0: fcc4 963f f726 8a3e d62a c0be 798d 313f
00000100: cefb 873f e54e d0be 3be6 313d 0e14 f63c
00000110: 0b50 4a3e 16f5 bc3e 6674 ab3e d7fd 7b3d
00000120: 3257 4cbe d228 643e a8bc 363f 6f4a b1be
00000130: 1400 42be 9b96 b33c 5c56 8c3e 7f23 343f
00000140: bed0 8c3e f19b 563f 66c5 a13d 86e4 fcbe
00000150: cf5f 8abf 1ed8 cf3e 5e9b 7c3e 8254 3c3d
00000160: c529 75be f581 543d 2b16 013e bc93 40be
00000170: 3913 4ebf 379e debb b33e 383f 6e3f 85bb
00000180: 7ca2 05bc 5eca 9f3d b125 a53e 505a 473f
00000190: 53f2 9a3e 55d9 773e a990 95bc 739d d73d
000001a0: 7b35 6f3e 6142 7cbc f997 253f 87d6 3c3f
000001b0: eda9 cb3d ddf5 08bc d633 08bf 59ef 26be
000001c0: f672 e0bd 66c3 4dbe 817b d9be 2d79 a03f
000001d0: 7e61 3b3f abda 8ebe ddbe c63e 7c9e 873e
000001e0: 44d0 22be aeec b7bf 4b19 9cbe e18d 0f3f
000001f0: 8eae 1f3f a20c fb3d 99f8 643f a9d8 0c3f
00000200: 2800 59bc 9545 f0be 34cc 16bd 595b 5e3d
00000210: 4e42 8e3e d5b6 2dbe ef66 d1be 9fee 483f
00000220: a228 7cbc f084 39bf 44a3 d9be 31a9 b63d
00000230: 56ed 2fbf f2e3 633c d04c e43c 60d8 7cbd
00000240: 64b8 e1bd fc14 cd3d 50e8 753e 3fc8 7dbe
00000250: 1834 a83e 3c4c 483f 9f7a 563f 0d05 9e3e
00000260: 6411 19bf 4ba5 c93e d76c 123f 10eb 8e3e
00000270: 1fab 47be f350 ecbd 9509 903e 580b 1f3f
00000280: fc19 0d3f b106 25bd 0bb3 22bf 311c 1c3e
00000290: f457 233f 2187 97be ba95 023e c2e1 2cbe
000002a0: d740 ea3c 746f 21be eff7 82bf 9858 27bf
000002b0: b833 bd3d 7593 c63e c067 6bbe 3e6a f4b9
000002c0: b130 3dbc 2115 123d 5b24 b13e 9e28 523f
000002d0: f583 7c3f 0024 be3e 5d6d a33e 3d8a 12bf
000002e0: 942b 4f3d b176 493f 04e7 993e 7f26 9e3d
000002f0: 3bf8 0abc 8dbb 3c3f 2da8 ab3f 826e 343f
00000300: 3e42 77bd fe2e d5bb 62c4 753e 8a84 42bf
00000310: f474 01bf 84f8 21bd 4c01 20bd 6b93 523e
00000320: 32b5 053f 7848 63be d163 6abf a6c4 31bd
00000330: 1604 6e3f f1b9 b73f 6fdd 3a3f 67b9 c3be
00000340: c8b7 f63c 9fc9 593f bbed 4dbd b09d 693e
00000350: 29f4 8ebc f87c 0a3e 1cee 423d 5b77 7d3f
00000360: 9625 f53e 9ef8 c7bc 81bf 15bf 9575 f4bd
00000370: b2d4 0b3e 2812 f63e 119e a93d 6e0b 973b
00000380: 0057 4bbe 17fd 62bd 543e 02be d62b 553e
00000390: 17d4 283d bfcf f4bc 03f0 1abf d165 45bd
000003a0: 6ab9 2c3d 83ea 223f 4e84 893f f7f2 9a3d
000003b0: eb49 e6bc d40a d53e c21f 9cbe 5b54 833e
000003c0: f3d7 42be 17d6 f9be a851 f6be 4261 bfbd
000003d0: 4b5f 143f 50a5 b4bb 4064 a5bd 24ed 153d
000003e0: 5724 173b d47a c7bd 9d93 3a3e 13d0 bebe
000003f0: 2442 21be 29f0 06be 9a39 7a3e 08fc be3d
0.10241568 0.24920753 -0.2799521 0.17406629 0.34535912 -0.087707564 -0.57236487 0.17460462
0.24881054 0.3026058 -0.089256525 -0.4786897 0.006632662 0.18088287 0.55668265 0.074256085
0.6327385 -0.010386696 -0.52496326 -0.32289734 -1.3253917 -0.8160026 0.46615362 0.9067368
0.47471392 1.2025554 0.65014637 -0.8936803 -0.08753004 1.0313101 -0.020104734 -0.05079757
0.05571148 0.026805963 0.015674615 0.024687447 -0.47847953 -0.2582799 -0.18993315 0.65055054
1.0104167 0.37293625 0.020413171 -0.3283722 0.25247842 0.019153792 0.23036529 -0.05462732
-0.14077884 0.069140226 0.061923865 0.5871971 -0.4832879 -0.8008608 -0.33820713 0.43206948
-0.10215315 -0.58874124 -0.4038884 -0.35523045 1.1778865 0.26982853 -0.3753268 0.69356495
1.062372 -0.40685192 0.043432456 0.03003886 0.19757096 0.36905736 0.33487242 0.061521377
-0.19955137 0.22281197 0.71381617 -0.346271 -0.18945342 0.0219224 0.27409637 0.7036666
0.27503008 0.838317 0.07898979 -0.493931 -1.0810488 0.40594572 0.24668643 0.04597903
-0.23941715 0.05188175 0.12606113 -0.18806356 -0.8049808 -0.006793763 0.7197067 -0.0040663993
-0.008156415 0.0780227 0.3225532 0.7787218 0.30263004 0.24204 -0.018257456 0.10528078
0.23360245 -0.015396685 0.64685017 0.7376484 0.0994452 -0.0083594 -0.53204095 -0.16302241
-0.10959427 -0.2009407 -0.42477039 1.253698 0.73195636 -0.27901205 0.38817492 0.264881
-0.1589976 -1.4369104 -0.30488047 0.56075865 0.62375724 0.12258269 0.8944183 0.550181
-0.013244666 -0.46928087 -0.036815837 0.054286335 0.2778496 -0.16964276 -0.40898845 0.78489107
-0.015390547 -0.7246847 -0.42507374 0.089189894 -0.6872152 0.013909327 0.027868658 -0.06172979
-0.11021498 0.10013768 0.24014401 -0.24783419 0.32852244 0.78241324 0.83780855 0.30863228
-0.5979216 0.3938392 0.57197326 0.27913713 -0.19498871 -0.11538877 0.2813231 0.62126684
0.55117774 -0.040289585 -0.6355445 0.15245129 0.6380608 -0.29595283 0.12752429 -0.16882995
0.028595371 -0.15765172 -1.0231913 -0.6536956 0.0923838 0.38784376 -0.22988796 -0.00046618463
-0.0115472535 0.03566468 0.3459805 0.82093227 0.9863885 0.3713684 0.31919375 -0.57242185
0.05057867 0.78696734 0.30059063 0.07722186 -0.008482034 0.7372368 1.3410698 0.7048112
-0.060365908 -0.006505846 0.24000695 -0.7598349 -0.5056908 -0.039543644 -0.039063737 0.20564048
0.5222961 -0.22195613 -0.9155856 -0.04340043 0.92974985 1.435362 0.7299413 -0.38227388
0.03011693 0.85073274 -0.050275546 0.2281406 -0.017450409 0.13524234 0.04759036 0.99010247
0.47880238 -0.024410542 -0.58495337 -0.119364895 0.13655356 0.48060727 0.08282102 0.004609517
-0.19857407 -0.055417147 -0.12719089 0.20817503 0.04121789 -0.029884217 -0.6052248 -0.048192803
0.042169012 0.63639086 1.0743501 0.07565873 -0.028111419 0.41609824 -0.3049298 0.25650296
-0.1902769 -0.4879615 -0.48109174 -0.09344722 0.57957906 -0.005512871 -0.08075762 0.036603108
0.0023062432 -0.097402245 0.18220372 -0.37268123 -0.15747887 -0.13177551 0.24436036 0.09325415

weight f4 [64]
00000000: dd52 fa3f c30e 0240 0aeb 823f 25ea 463f
00000010: 3af5 a03f 384d fa3e 6766 c73f 17ce c23f
00000020: 4192 903f 168c a83f f7f5 f23e 7ea6 b63f
00000030: 301d 8e3e e7b6 c63f 1f0d 893f a619 4f3f
00000040: d3b1 be3f cb58 943f 1a5a 793f d474 9f3f
00000050: 31e2 823f 60d6 cb3f dd60 6a3f 1697 8f3f
00000060: 6451 e33f 9578 a53f d415 f03e 14b9 c43f
00000070: 5585 9a3f 5e0f 7f3f 1af3 983f ce82 8f3f
00000080: adf9 b93f 4a94 ad3f 7ba0 783f 5ba0 d53f
00000090: 61ab a23f 237b 8e3f 5b06 8b3f e36c 973f
000000a0: 0df4 ae3f ac62 0a40 d320 a93f b09b ae3e
000000b0: ab91 753f 7939 7e3f 7619 313f 37ee 9b3f
000000c0: fd55 c53f 23a8 d93f cff3 8c3f 23e1 933f
000000d0: f795 983f d428 843f ce7e a03f 3b47 6e3f
000000e0: e6e8 723f af8a a53f 3849 9e3f 769f 0640
000000f0: 782a f23f 4789 d43f 5772 8f3f c018 dd3f
1.9556538 2.032151 1.0227978 0.77701026 1.2574837 0.48887038 1.5578126 1.5219144
1.1294633 1.3167751 0.4745328 1.4269559 0.27756643 1.5524567 1.0707129 0.8089851
1.4898018 1.1589597 0.9740311 1.2457528 1.0225278 1.5924797 0.9155405 1.1217983
1.7759213 1.2927424 0.46891654 1.5368981 1.207194 0.99632823 1.1949189 1.1211793
1.452932 1.3560879 0.97119874 1.6689562 1.2708551 1.1131328 1.0861315 1.1830105
1.3668228 2.1622725 1.3213142 0.34103155 0.95925397 0.99306446 0.69179475 1.2182072
1.5416867 1.7004436 1.1011904 1.1553081 1.1920766 1.032496 1.2538698 0.9307744
0.94886625 1.2932948 1.2366095 2.1034827 1.891921 1.6604394 1.1206769 1.7273178

bias f4 [64]
00000000: f72e 83bf 60c9 0c3f ac5a 27bf 85c4 6e3e
00000010: 67ab f5bf f792 bf3d c283 933f 46f9 e1bf
00000020: fc33 a3bf 0634 e0bf 55e7 a23e ecd0 7ebf
00000030: 2c35 3abd 40ad 92bf 6bac 92bf 6f1e 5c3e
00000040: 343f 64bf d985 3bbe bbdf 62bf 8a06 fdbf
00000050: adea 96bf 494c 8c3f d611 61bf 824b 72bf
00000060: 5432 a83e 902a 03c0 060b be3e 9baf 2bbf
00000070: 088b 783f 3668 49bf cf79 ad3e dcd0 36bf
00000080: ba9a e43e 94d2 8fbf 03ba 7cbf feb9 7abf
00000090: eb2c 533f b4c0 c6bf 850c 34bf 6b76 853e
000000a0: 1158 83bf 794e e03d 9915 b73f 2d5b 19bc
000000b0: 9df2 b93e 04d8 733f 1cdd 893e 45a3 d3bf
000000c0: 8efe b2bf 828d aabe 2775 55bf ffd3 58bf
000000d0: 99b2 b9bf 193f 9cbf 8074 fabe df9d a43c
000000e0: 21f3 0cbf 366a a63f 7528 9abf 48a4 8fbd
000000f0: 4b0f 26be 5a5e 95bf 8626 a8bf 7bda 09bf
-1.0248708 0.54994774 -0.6537273 0.23317154 -1.9192933 0.09354203 1.1524584 -1.7654197
-1.2750239 -1.7515876 0.31817117 -0.9953754 -0.045460865 -1.1459122 -1.1458868 0.21495984
-0.8915894 -0.18312778 -0.88622636 -1.976762 -1.1790367 1.096078 -0.8791784 -0.94646466
0.32850897 -2.0494728 0.37117785 -0.6706483 0.97087145 -0.7867464 0.33881995 -0.71412444
0.44649297 -1.1236138 -0.9872133 -0.9794005 0.82490414 -1.5527558 -0.70331603 0.26066908
-1.0261251 0.109524675 1.4303466 -0.009360117 0.36317912 0.9525149 0.26926506 -1.6534201
-1.3983934 -0.33311087 -0.83381885 -0.8469848 -1.4507629 -1.2206756 -0.48917007 0.02009481
-0.55058485 1.3001163 -1.2043597 -0.07013756 -0.16216771 -1.1669419 -1.3136756 -0.53849

running_mean f4 [64]
00000000: f7f3 c9c1 3d70 28c2 b65d 9041 3bb8 82c1
00000010: a1cb 03c2 11a6 9ec1 e19f eec1 ecae 4641
00000020: 3003 d9c1 1a61 f5c1 3a5b 7a41 16de a3c0
00000030: fee8 f241 5a48 70c2 3add 8f41 be45 6242
00000040: be33 a4c1 d08b ac40 6673 ae3f a53c 98bd
00000050: a7b2 14c1 40a7 aac1 a7c3 1442 7d5b 8841
00000060: aa82 7ac2 0e6d 41c2 5ea7 5341 64e9 303f
00000070: 016e 9941 efbb 0a42 0188 b1c1 beca 7841
00000080: d51c 31c0 86d4 4341 dc34 1ac2 3dbb 24c2
00000090: 087f 64c1 05a2 ed3e 9841 81c0 7afc 25c2
000000a0: 6d60 5dc1 0b5c 30c2 9293 c240 0a3d 3840
000000b0: 4262 1c42 b257 64c2 a2e0 81be da51 a4c1
000000c0: efcb f5c1 ab4a c7c1 c2e9 de41 d7c0 c341
000000d0: fec7 5d40 15b2 61bf ac59 c6c1 a161 0041
000000e0: 7515 cc40 eb44 9640 1cea ee41 9e70 12c2
000000f0: bed2 1fc2 09c9 b941 b29e d641 60d0 1ec2
-25.244123 -42.109608 18.045757 -16.339956 -32.948856 -19.831087 -29.828066 12.417706
-27.126556 -30.672413 15.647272 -5.12086 30.363766 -60.070656 17.98302 56.568108
-20.525265 5.392067 1.3628967 -0.07433442 -9.293616 -21.331665 37.191067 17.044672
-62.6276 -48.3565 13.228361 0.69106126 19.178713 34.68353 -22.191408 15.549498
-2.7673848 12.239386 -38.55162 -41.18285 -14.2810135 0.46412674 -4.039257 -41.49656
-13.836041 -44.089886 6.080514 2.8787255 39.095955 -57.08564 -0.25366694 -20.539967
-30.724577 -24.911459 27.86414 24.46916 3.4653316 -0.88162357 -24.793785 8.023835
6.3776193 4.695913 29.864311 -36.609978 -39.955803 23.223162 26.827488 -39.70349

running_var f4 [64]
00000000: eb30 3344 4166 9444 2583 1e44 6ad2 0b44
00000010: ab2c 0044 cf09 2944 447a 9744 1d72 0644
00000020: b2bd 0a44 cf34 e143 9a78 d643 a808 4d44
00000030: f5ce dd43 3ac4 9944 3c56 2644 a515 2e44
00000040: d69a 1a44 bba0 2d44 5286 3144 dd74 f743
00000050: e8ee ed43 0842 9744 83ea 3344 3676 da43
00000060: db27 b244 1cc3 3b44 7f3c f943 aefd f943
00000070: a52d 0f44 72a5 a444 4738 7f44 9cf4 2b44
00000080: c56f 5444 943a fc43 32a7 2244 78db 3244
00000090: 70b0 3f44 5840 ff43 c05b 0644 e378 5e44
000000a0: bb3c 1244 7865 8a44 bb97 1344 3047 0a44
000000b0: a242 ca43 b996 be44 c403 0b44 0c9d 1644
000000c0: 94e3 2844 da72 8044 2404 1144 96a6 1a44
000000d0: de45 de43 7de8 0b44 9385 6d44 ffff 0844
000000e0: 67a0 2644 b97c 1c44 fc20 2c44 a842 c644
000000f0: 1dd1 9d44 b9e5 2444 9a0c 3844 9e03 6f44
716.76434 1187.1954 634.04913 559.2877 512.69794 676.15326 1211.8208 537.783
554.964 450.41257 428.9422 820.13525 443.61685 1230.1321 665.3474 696.3382
618.4193 694.5114 710.09875 494.913 475.86646 1210.0635 719.66425 436.92352
1425.2455 751.0486 498.47263 499.98187 572.7132 1317.1702 1020.87933 687.822
849.7464 504.45764 650.6124 715.4292 766.75684 510.5027 537.4336 889.88885
584.9489 1107.1709 590.3708 553.1123 404.52057 1524.7101 556.05884 602.45386
675.5559 1027.5891 580.0647 618.6029 444.54584 559.6326 950.0871 547.99994
666.5063 625.9488 688.5154 1586.083 1262.5348 659.5894 736.1969 956.0565

weight f4 [64, 64, 3]
00000000: 1eb4 893e 6f39 54be b64b 14bf 544d 6c3f
00000010: 94cb 003d 338a 3dbf 4218 6cbc 5625 d1bc
00000020: 7253 00bd 66d3 633d 9961 32bd 137f 06be
00000030: 92d8 383e 974e a73e 0dcc 0d3f 82d2 dc3e
00000040: 287f 013e c272 a4be a38f 993f e383 dc3d
00000050: d285 2dbe 51a4 34bf 9fd6 4dbe cabd 73bf
00000060: 267c 4a3d a891 1bbe 1e35 0dbf f849 823f
00000070: 417d 69bd 6197 f4be 5a14 e8be 85d7 11be
00000080: 554a 0c3c fbcb c63d 24a5 28bd a0f4 82be
00000090: b9e8 693c 77d1 c6bd 7653 093e 8a05 b33f
000000a0: 8fdd 01bf c90d 2abf ef92 b8bf ce4a 61be
000000b0: f08e 18be 1d16 cabe 5e51 b7bb 92a2 dc3e
000000c0: 7b66 8e3f 5188 dbbe 00f4 b5be 7232 cb3e
000000d0: c190 0a3f f3af 853d bb09 f6bd cc2d 1e3d
000000e0: 9071 853d 7aa1 cf3f ee4e 05ba 80f9 9a3d
000000f0: e7e0 433d 5f9a c03e 73c7 593e 604a 8c3f
00000100: be38 c3bd 8a70 40bf ee99 77bf e0f6 47bd
00000110: 758f 213e 4351 ccbe 065d dabd 176d a2be
00000120: 2081 363f 26fd 9b3d e2a5 30be d6df c13f
00000130: 53b5 993e a30a a23e 9a0c 9e3c 8cc6 aa3e
00000140: 64bc eb3d 01a2 773f eee8 033e b562 5c3e
00000150: d24b 82be b01b 493d ab75 62be fa97 33be
00000160: 95fa d13e acbc 823f e5fa 213f 21ef 1abd
00000170: b464 3bbf 44fe dcbd 6afc f53d d269 2f3e
00000180: 6ee6 ed3e c08d 38be 1ba0 39bd 2de7 1dbf
00000190: a523 48bf f7d3 a6bf 1876 e33e b220 95bc
000001a0: 82d9 c93d f6f8 313f fcce 723e c0db f8bd
000001b0: 9a73 d03e 7fcf 84bd 4052 513c 5533 963e
000001c0: d860 1d3f b862 09be 3fed a53f a4cf 41bc
000001d0: 93c8 2ebe c452 a83f ecda 12bc c355 a5be
000001e0: 4f84 723f d9f9 1d3f 22b0 aebc 5ec2 2f3f
000001f0: 090c 783e 6736 54bc 71f0 cfbe d6f2 ab3e
00000200: b910 883e 4b52 2d3e bbeb d03b 9016 083e
00000210: dc37 19bf a724 c13c 611d 08bd e2c3 143f
00000220: 40a4 f5bd 6354 27bd 757e 713e f0b7 65bd
00000230: c7a4 643e a7db ac3f 6849 c53c 21fe 8ebe
00000240: 43fd be3f 5cf6 ffbe 2710 48bf 1bc3 243f
00000250: 54b5 103e 9e31 153e c8ce aebe 37a6 71be
00000260: de73 babd 624b 7b3c 16dd c63e 5b85 1f3f
00000270: a0cd 013f 7cd5 b4bb 48a4 8bbe 45cd 3c3f
00000280: e3ac 103f bee7 89bd 7b23 523e 6d1d 693a
00000290: 04e0 983c 2335 8ebe 9ad1 6bbe 78cc d6be
000002a0: 011b fc3d ffeb e0bc 8262 993d d68e eebe
000002b0: a511 513d 23ff 673a 87fc 56bf 9279 023c
000002c0: 4c54 bbbe c25a 133f 0da1 ee3e ed46 133d
000002d0: 2231 383f bfac aabc 22cd a6be 9950 d43e
000002e0: 95fd 0bbf a899 edbe c679 f239 abf3 67be
000002f0: 859c 5ebd 2579 223f e73b 8ebb 27eb 05bf
00000300: ff76 07bf 2b19 c53e bddf 08be 9aad c7be
00000310: 6b3a 053f 4d60 613e a7a2 c73e aaa7 c8be
00000320: 4605 b6bd ad56 013e dcde df3d 8d2f 9cbe
00000330: 3903 9c3f 6ed8 0abc 9d75 ca3e 45a8 1bbd
00000340: d3d5 02bc 3850 17bf f6d7 63bf 4b7e 4e3e
00000350: 37e9 e53c a012 18be bfb7 9a3d af7c 253e
00000360: 0c2c 67be 7796 c1be 28d0 33bd ce28 bd3e
00000370: 09a0 c63e ce5a d43f 7eef 9fbc 8765 913e
00000380: d2a3 d53a 214c 3b3e e9d8 af3e 94e4 0a3f
00000390: 4f0d 47ba 4f26 0e3d 60eb 6a3e 964c 9fbe
000003a0: 9b58 9f3e 1a38 82bc c1f2 8a3f 0806 3f3f
000003b0: 829a 7f3e d09b a73e f91d 133c 30e9 37bd
000003c0: 8c7e 57bd 0e20 c13e 7331 0c3f d1f8 ec3a
000003d0: 77ee 20be 7276 e0bb a40c 363f 4bc1 ee3d
000003e0: a626 88bd 5748 733f 39d4 b93f 6b15 c63e
000003f0: f710 713e 6ec6 06bf 3d93 3abf 9ecc 11bf
0.2689523 -0.20725034 -0.57928026 0.92305493 0.031444147 -0.74039 -0.01441008 -0.025530498
-0.03132958 0.055621527 -0.043550108 -0.13134412 0.18051365 0.32677147 0.5538948 0.43129355
0.12646163 -0.32118803 1.199696 0.10767343 -0.1694558 -0.70563227 -0.20101403 -0.9521147
0.049434803 -0.15192282 -0.55159175 1.0178823 -0.057004217 -0.47771743 -0.45328027 -0.1424237
0.008562644 0.09706875 -0.041173115 -0.2557726 0.014276677 -0.09707921 0.13410744 1.3986065
-0.50728697 -0.66427284 -1.441984 -0.22001192 -0.14898276 -0.39469996 -0.0055944165 0.4309278
1.1125025 -0.4287744 -0.3553772 0.39686924 0.54127127 0.065277 -0.12013575 0.038617894
0.06515801 1.6221154 -0.0005085309 0.075671196 0.047821905 0.37617776 0.2126749 1.0960197
-0.09532307 -0.7517172 -0.96719253 -0.048819423 0.15777381 -0.39905748 -0.10662274 -0.31723854
0.7129078 0.076166436 -0.1725078 1.5146434 0.30021152 0.3164874 0.019293118 0.33354604
0.11510542 0.96731573 0.12881824 0.21522029 -0.2544847 0.04909867 -0.221152 -0.17538443
0.4101149 1.0213828 0.6327346 -0.037825707 -0.73200536 -0.10790685 0.12011035 0.17130211
0.46464866 -0.18022823 -0.045318704 -0.6168087 -0.7817939 -1.3033437 0.44426036 -0.018204067
0.098559394 0.6952051 0.23711771 -0.12151289 0.40713197 -0.06484889 0.012775958 0.29336038
0.61475897 -0.13416564 1.2963027 -0.011829291 -0.170687 1.3150258 -0.008963328 -0.32291993
0.94733137 0.6170936 -0.021324221 0.68655956 0.24223341 -0.012952424 -0.4061313 0.33583707
0.26575258 0.16925924 0.0063757575 0.13289857 -0.5985086 0.023577048 -0.033231143 0.58111393
-0.11994219 -0.04085196 0.23583396 -0.05608362 0.22328483 1.3504533 0.024082854 -0.2792826
1.4921039 -0.49992645 -0.78149647 0.6436021 0.14131671 0.14569709 -0.34142137 -0.23598562
-0.09104131 0.015337797 0.3884055 0.6231286 0.50704384 -0.0055186134 -0.27273774 0.73750716
0.56513804 -0.067336544 0.20521347 0.00088926294 0.018661506 -0.27774915 -0.23029175 -0.41952872
0.12309838 -0.027456282 0.07489492 -0.4659335 0.051042218 0.0008849969 -0.83979076 0.007963555
-0.3658775 0.5756036 0.46607247 0.035956312 0.7194997 -0.020834325 -0.3257838 0.4146774
-0.5468381 -0.46406293 0.00046248565 -0.22651546 -0.054348487 0.634661 -0.004340637 -0.5231194
-0.5291595 0.38495764 -0.133666 -0.38999635 0.52042264 0.22009392 0.3899128 -0.39190418
-0.088877246 0.1263072 0.10931179 -0.30505028 1.2188483 -0.008474452 0.39542857 -0.03800227
-0.00798555 -0.5910678 -0.89001405 0.20165364 0.028065307 -0.14850855 0.07554578 0.16160844
-0.22575396 -0.37810108 -0.043899685 0.36945194 0.38793972 1.6590211 -0.019523378 0.28397772
0.0016299433 0.1829076 0.34345177 0.5425503 -0.00075932307 0.034704503 0.22941351 -0.31113118
0.31122288 -0.015895892 1.0855333 0.7461858 0.24961284 0.32736063 0.008979314 -0.04490012
-0.05261092 0.37719768 0.54762954 0.0018079524 -0.15715967 -0.0068500573 0.7111304 0.116579615
-0.066479966 0.95032257 1.451789 0.38688216 0.23541628 -0.5264653 -0.7288092 -0.56952846
