model/full,96.45,100,5.pt (torch, 281431 bytes, 24 tensors)

weight f4 [8, 1, 16]
0	0xbd618bf0	-0.055065095
1	0xbdd914d4	-0.10599676
2	0x3e410a2d	0.18851538
3	0xbe539e55	-0.20665868
4	0xbe8ed781	-0.2789879
5	0xbd749957	-0.05971655
6	0x3e3eeadb	0.18644278
7	0x3d913cf1	0.07091702
8	0x3df90b73	0.12160387
9	0xbe4fc699	-0.20290603
10	0x3dc3a720	0.09553361
11	0x3cf68289	0.03009154
12	0xbdd6d407	-0.1048966
13	0xbd7e094a	-0.062020577
14	0x3e671371	0.2256601
15	0x3e71e61f	0.2362294
16	0xbe173cb6	-0.14769253
17	0x3bf6466f	0.0075157206
18	0xbe01b3c3	-0.1266623
19	0x3c45ec31	0.012080238
20	0xbe38e747	-0.18056975
21	0xbcf30d3c	-0.029669397
22	0xbe7e1dab	-0.24816005
23	0x399ef413	0.00030317958
24	0x3df5fb36	0.12010805
25	0xbdb5158f	-0.088420026
26	0x3ddd6969	0.10811121
27	0x3e4378c8	0.19089043
28	0x3e514e24	0.20439965
29	0x3decb041	0.11557055
30	0xbe581125	-0.2110029
31	0x3d1f65fb	0.038915616
32	0x3d1e4b36	0.038645945
33	0x3d73a1f2	0.059480615
34	0xbd455275	-0.04817434
35	0x3dac285d	0.08406136
36	0x3e3a7e68	0.18212283
37	0xbd2bba30	-0.04192561
38	0xbe2bc2e5	-0.16773565
39	0xbdae9ac6	-0.085256144
40	0x3e8fe1bb	0.28101906
41	0xbe1e49c0	-0.15457821
42	0x3e8bde25	0.2731792
43	0xbd384825	-0.044990677
44	0xbd92a2dd	-0.0715997
45	0xbdc650ae	-0.09683357
46	0xbe68b22f	-0.22724222
47	0xbed2b6d6	-0.41155118
48	0x3e99a1e1	0.30006316
49	0xbe132b0a	-0.14371887
50	0xbc2fc9ee	-0.010729296
51	0xbe170205	-0.14746864
52	0x3e225250	0.15851712
53	0xbd3c0f62	-0.045913108
54	0x3e063cf8	0.13109195
55	0xbd0c9730	-0.03432387
56	0xbdfc3f56	-0.12316768
57	0xbd15b8ef	-0.03655332
58	0x3e0689aa	0.13138452
59	0xbe7a2473	-0.24427967
60	0xbdb89d40	-0.09014368
61	0xbe31723b	-0.17328732
62	0xbe9a1b3f	-0.30098912
63	0xbe1428a3	-0.14468627
64	0x3dfeba3f	0.124378674
65	0x3e3f0d72	0.18657473
66	0x3e7d75ee	0.24752018
67	0x3de495cf	0.11161386
68	0xbe8f7696	-0.2802016
69	0xbe8bdf8f	-0.27319
70	0x3e11e287	0.1424657
71	0x3e13aedd	0.14422174
72	0xbe15f040	-0.1464243
73	0x3e1b8707	0.15188228
74	0xbdcff033	-0.10153236
75	0x3e8690f4	0.26282465
76	0x3e80d4fc	0.25162494
77	0xbd86cc5c	-0.06581947
78	0xbd42cec6	-0.047560476
79	0x3e37322a	0.1789023
80	0x3da51a1e	0.08061622
81	0x3e1022a0	0.14075708
82	0x3de63254	0.11240068
83	0x3e5db84a	0.21652332
84	0xbd1b856a	-0.03796903
85	0xbe8e23b5	-0.27761617
86	0x3cc35ae8	0.023847058
87	0x3e114c24	0.14189202
88	0x3b3cf1ad	0.0028830573
89	0x3de502b6	0.11182158
90	0x3cbbd437	0.02292834
91	0x3e2ce1ac	0.16882962
92	0xbe096501	-0.13417436
93	0xbe18ee3e	-0.14934632
94	0x3c388c4c	0.011263918
95	0xbea3f2b4	-0.32021105
96	0xbd337e05	-0.043821353
97	0xbe851d41	-0.2599888
98	0x3ca08396	0.019593995
99	0xbb20da0c	-0.0024544029
100	0x3e1504f7	0.14552675
101	0xbe8621ef	-0.26197764
102	0x3d9e344e	0.0772482
103	0x3e64a8ce	0.22330019
104	0x3e27b5c3	0.1637793
105	0xbd559c7d	-0.052151192
106	0x3e596905	0.21231468
107	0xbe4e9f2f	-0.20177911
108	0xbe187be4	-0.1489101
109	0xbdc752ae	-0.09732567
110	0xbdc1ef1f	-0.09469437
111	0xbe8b68f0	-0.27228498
112	0x3e55b07f	0.20868109
113	0xbe2ed8f5	-0.1707495
114	0x3e008642	0.12551215
115	0x3e4fa86c	0.20279092
116	0x3e7b3ef8	0.2453574
117	0x3e780cdb	0.24223654
118	0x3d85f9bd	0.065417744
119	0x3cc224c8	0.02369918
120	0xbd94d2ed	-0.072667934
121	0x3c2132bc	0.009838756
122	0xbc3dcbec	-0.011584263
123	0x3e299751	0.16561629
124	0xbc6fa8db	-0.014627661
125	0xbd292e12	-0.0413037
126	0x3e746666	0.23867187
127	0xbd113e28	-0.035459667

bias f4 [8]
0	0x3cc74f21	0.024329724
1	0x3c990505	0.018679151
2	0xbdc136a2	-0.094342485
3	0x3e42685b	0.18985121
4	0x3e6f4cdc	0.23369163
5	0x3e6fb4fc	0.23408884
6	0xbd75d765	-0.06001987
7	0x3e4ba9ea	0.19889036

weight f4 [8]
0	0x3f83e41b	1.0303987
1	0x3f8ce9cd	1.100885
2	0x3f7b0d07	0.98066753
3	0x3f6a8242	0.9160501
4	0x3f72397b	0.9461896
5	0x3f8484e3	1.0353054
6	0x3f57537f	0.8411178
7	0x3f711ffd	0.94189435

bias f4 [8]
0	0x3e218aff	0.15775679
1	0x3e3dafa0	0.18524027
2	0x3e3a6a6a	0.18204656
3	0xbdbd00b8	-0.09228653
4	0x3e39f7d7	0.1816095
5	0x3e89f545	0.26944938
6	0xbd5ca448	-0.05386761
7	0x3c1d47b0	0.009599611

running_mean f4 [8]
0	0x3c996e1d	0.018729264
1	0x3d142ae9	0.036173735
2	0xbd7f3d15	-0.06231411
3	0x3e7d5b15	0.24741776
4	0x3e2c8067	0.16845857
5	0x3e673232	0.22577742
6	0xbc838660	-0.016055286
7	0x3de3f970	0.11131561

running_var f4 [8]
0	0x3a425672	0.0007413394
1	0x3ab83fb2	0.0014057069
2	0x3b244d19	0.0025070368
3	0x3bb69e7b	0.0055730916
4	0x3baa9b86	0.005206528
5	0x3a9440ae	0.001131078
6	0x3b326a3d	0.0027223967
7	0x3c211748	0.009832211

weight f4 [12, 8, 12]
0	0xbc176625	-0.009240662
1	0xbd3205e6	-0.043462656
2	0x3db52273	0.08844461
3	0xbd3766ff	-0.04477596
4	0xbddd6150	-0.108095765
5	0x3b41c73d	0.0029568218
6	0xbd830d68	-0.063990414
7	0xbcaa0d8d	-0.020758415
8	0xbd50ac58	-0.05094561
9	0x3de1930d	0.11014376
10	0x3d025c70	0.031826437
11	0xbcc913c6	-0.024545562
12	0xbe1341c0	-0.1438055
13	0xbd8333e8	-0.06406385
14	0x3b0469dc	0.0020204699
15	0x3ca5c52c	0.02023562
16	0x3b9dc127	0.0048142853
17	0x3d9e2df8	0.077236116
18	0x3d728a6e	0.059214048
19	0x3c968d0c	0.018377803
20	0xbd1e26c8	-0.038611203
21	0x3c963910	0.018337756
22	0xbcbb3561	-0.022852601
23	0xbe119edf	-0.14220761
24	0xbd30d7ef	-0.04317468
25	0x3d849595	0.06473843
26	0xbd8227bb	-0.06355234
27	0xbcda57de	-0.026653226
28	0xbe0a3b2a	-0.13499132
29	0x3d3ecea5	0.04658379
30	0x3d94890c	0.07252702
31	0x3d991c64	0.07476118
32	0x3e308f66	0.17242202
33	0x3c4e57cb	0.012594174
34	0xbda0f776	-0.078596994
35	0xbe2db420	-0.16963243
36	0xbe092571	-0.13393189
37	0x3d9b04f2	0.075693026
38	0x3d8cf798	0.06883162
39	0x3d58228a	0.052767314
40	0xbdf807ba	-0.12110849
41	0xbcd57c79	-0.02606033
42	0x3de8ea38	0.11372799
43	0x3e12784a	0.14303699
44	0x3e219b80	0.15781975
45	0x3d4017cb	0.04689769
46	0xbe1727e3	-0.1476131
47	0xbe44f263	-0.19233088
48	0xbe4cf0d0	-0.20013738
49	0xbc3a4f4d	-0.011371446
50	0xbdec07bc	-0.11524913
51	0xbd5881f7	-0.05285832
52	0xbd05578d	-0.032554198
53	0xbe04b5a0	-0.1295991
54	0x3ce80b5f	0.028325735
55	0xbd413e49	-0.04717854
56	0xbd47ba1b	-0.04876147
57	0xbcd7573b	-0.026286712
58	0x3dd795d8	0.10526627
59	0x3e24d70b	0.16097657
60	0xbe62eb0a	-0.22159973
61	0x3de8f968	0.113756955
62	0xbccc86bc	-0.02496659
63	0x3cc2dd9a	0.023787308
64	0xbdc6ba07	-0.09703451
65	0xba667b66	-0.00087921915
66	0xbd5c7519	-0.05382261
67	0x3c9968c7	0.01872672
68	0xbd24d1e1	-0.04023922
69	0xbe592b5d	-0.21207948
70	0xbddd2c13	-0.10799422
71	0x3d4e8bdc	0.05042635
72	0x3ca2fab7	0.01989494
73	0x3cd52cf3	0.02602241
74	0xbdefdf84	-0.11712554
75	0xbc600aff	-0.013674497
76	0xbd3f5806	-0.046714805
77	0xbc2c794b	-0.010526965
78	0x3d0ecae6	0.034861468
79	0xbd9f6d92	-0.07784571
80	0x3d2b86b4	0.04187651
81	0xbd91f59f	-0.07126927
82	0x39907708	0.00027554506
83	0xbde509eb	-0.11183532
84	0xbe460c52	-0.19340637
85	0xbe2071dd	-0.15668435
86	0x3da28b24	0.07936695
87	0xbde4c7b5	-0.111709036
88	0xbdc293e1	-0.09500862
89	0xbcbf2e81	-0.023337604
90	0xbdf7b1e4	-0.12094477
91	0xbdce218b	-0.100649916
92	0x3dfc9264	0.12332609
93	0x3e1cf30d	0.15327092
94	0x3dba3e4c	0.090939134
95	0x3dc24678	0.09486097
96	0x3daefe61	0.08544613
97	0x3d938cab	0.07204565
98	0x3c186613	0.00930168
99	0x3ced9db3	0.02900586
100	0xbd8e96b1	-0.06962336
101	0xbd897a03	-0.06712725
102	0x3d65aa86	0.056070827
103	0x3dcb39cf	0.099231355
104	0x3d2199ad	0.039453197
105	0x3dc466f4	0.09589949
106	0x3da09e79	0.07842726
107	0x3ca79cc2	0.02046049
108	0xbd8d4bf1	-0.0689925
109	0x3d7a9ad6	0.06118282
110	0x3dc234cb	0.09482726
111	0x3ddd877d	0.10816858
112	0x3db2ae2d	0.08724628
113	0xbc98f767	-0.018672658
114	0xbcdc1bee	-0.026868787
115	0x3cf398e4	0.02973599
116	0x3c0d5d58	0.008628212
117	0xbd693846	-0.056938432
118	0xbd8f4e22	-0.069973245
119	0xbdc6dda4	-0.09710243
120	0x3e0b68d8	0.13614213
121	0x3e592287	0.21204577
122	0x3df51913	0.11967673
123	0x3d159a9e	0.036524408
124	0xbd95594a	-0.07292421
125	0xbd27db68	-0.040980726
126	0x3c6eeaa7	0.014582313
127	0x3bfbc264	0.0076830853
128	0xbddfbab9	-0.109242864
129	0xbdb7601a	-0.08953877
130	0xbe1611da	-0.14655247
131	0xbe34db53	-0.1766179
132	0x3ce9f29f	0.028558074
133	0x3dac2b03	0.08406641
134	0x3da35756	0.079756424
135	0xbd70224c	-0.058626458
136	0x3d1687bd	0.036750544
137	0x3b4e9177	0.003151981
138	0xbd7795fc	-0.06044577
139	0x3cbad87a	0.022808302
140	0x3d12f9c6	0.035882734
141	0xbc7f8aa5	-0.01559702
142	0xbd209be5	-0.039211173
143	0xbdbf684e	-0.093460664
144	0xbd089d6d	-0.033353258
145	0xbd959bdc	-0.073051184
146	0xbdf7c293	-0.12097659
147	0xbdd65fb1	-0.104674704
148	0xbe2585d2	-0.1616433
149	0x3d82a12d	0.06378398
150	0xbdb0c71b	-0.08631726
151	0xbda4a166	-0.08038597
152	0x3e2292e9	0.15876354
153	0x3b9882a6	0.0046542464
154	0x3e062452	0.13099793
155	0x3e3a56a9	0.1819712
156	0x3e43223f	0.19056033
157	0x3e334889	0.17508139
158	0x3d60515d	0.054765094
159	0x3d5d3acc	0.05401115
160	0xbdd3f816	-0.10350053
161	0xbdb61770	-0.08891189
162	0xbdaef612	-0.08543028
163	0xbe1ab330	-0.15107417
164	0xbddfdc68	-0.10930711
165	0xbdad456d	-0.084605075
166	0xbe04191b	-0.12900202
167	0xbabc1e2a	-0.0014352251
168	0x3da8ebeb	0.08248123
169	0x3dd1e750	0.102491975
170	0x3d55af74	0.05216928
171	0xbd35db37	-0.044398513
172	0x3ca90abd	0.020635003
173	0xbd3f52f4	-0.04670997
174	0xb9551ddb	-0.00020324385
175	0x3e0a0063	0.1347671
176	0xbdc16fc7	-0.09445148
177	0xbd97f8f9	-0.07420535
178	0xbd0724a6	-0.032993935
179	0xbd97f9c5	-0.07420687
180	0x3de57cbd	0.112054326
181	0x3da43601	0.08018113
182	0xbde1d348	-0.11026627
183	0xbd9593ac	-0.07303557
184	0xbca1d593	-0.01975516
185	0x3cb1fee3	0.021727985
186	0xbda1181e	-0.07865928
187	0xbd8968be	-0.06709431
188	0x3dd5972b	0.104292236
189	0xbb8ca296	-0.0042918427
190	0x3df3ea27	0.119098954
191	0x393842d1	0.00017572498
192	0xbdc2cd35	-0.095117964
193	0xbd39e218	-0.045381635
194	0x3e1b6bcd	0.15177841
195	0x3dd1c923	0.10243442
196	0x3d5fc2d7	0.054629173
197	0x3db9a365	0.09064368
198	0x3ccff22e	0.025384035
199	0xbc32df9d	-0.010917571
200	0x3c8992e5	0.016793678
201	0xbe1aa43f	-0.15101717
202	0xbd3ac30d	-0.04559617
203	0xbd6f713e	-0.058457606
204	0xb9c94c13	-0.00038394387
205	0x3e15a823	0.1461492
206	0x3c37ac98	0.011210583
207	0x3daf5bf2	0.08562459
208	0x3d8ac846	0.067764804
209	0xbdd43caa	-0.10363133
210	0xbd718a8c	-0.05897002
211	0x3d371d21	0.044705514
212	0xbd49c620	-0.049261212
213	0xbe38a81d	-0.1803288
214	0xbd9738c9	-0.07383878
215	0x3db07c56	0.08617465
216	0x3d3e66a1	0.046484593
217	0xbd1c09b5	-0.038095195
218	0xbc065b5f	-0.0082004955
219	0x3c96182e	0.018322077
220	0x3d59c110	0.053162634
221	0xbdd24498	-0.102669895
222	0xbd58756d	-0.05284636
223	0xbd7505f9	-0.05982015
224	0x3ccc31be	0.024926063
225	0x3de398ec	0.11113152
226	0x3e0133f7	0.1261748
227	0x3e54e066	0.20788726
228	0x3e39904b	0.1812145
229	0x3d78c6f5	0.060736615
230	0xbcc608fb	-0.024174204
231	0x3d8f9d4e	0.07012425
232	0x3bfe53ec	0.007761469
233	0x3d69b392	0.057056017
234	0xbd0e99a3	-0.03481449
235	0xbdd6bf33	-0.10485687
236	0x3ded7460	0.115944624
237	0x3d9fd96d	0.078051426
238	0x3d59638e	0.05307346
239	0x3cf09e85	0.029372463
240	0xbe270efc	-0.1631431
241	0xbdeedc27	-0.116630845
242	0xbdf8b1d4	-0.12143293
243	0xbd5ff5c5	-0.054677743
244	0x3d8cc600	0.06873703
245	0x3db7e6da	0.08979578
246	0x3d491ab7	0.049097743
247	0x3d21714b	0.039414685
248	0x3d129079	0.03578231
249	0xbcd6af6a	-0.02620669
250	0xbc544872	-0.012956725
251	0xbbbf0066	-0.005828905
252	0x3e052bd7	0.13005005
253	0xbe01ea82	-0.12687114
254	0xbe44d21f	-0.1922078
255	0xbe15b313	-0.14619093

bias f4 [12]
0	0x3dc8e461	0.09809185
1	0xbd37976c	-0.04482214
2	0x3d95de05	0.073177375
3	0xbd0321fa	-0.032014824
4	0xbd0541f2	-0.032533593
5	0x3d042485	0.03226139
6	0xbd47ca2f	-0.0487768
7	0x3b20c73c	0.0024532815
8	0x3d340000	0.043945312
9	0x3c1892db	0.009312357
10	0x3dd546da	0.104139045
11	0x3d99fef3	0.07519331

weight f4 [12]
0	0x3f928480	1.1446686
1	0x3f900122	1.1250346
2	0x3f84ebce	1.0384462
3	0x3f803b31	1.0018064
4	0x3f7824e0	0.96931267
5	0x3f8d770b	1.1051954
6	0x3f7e8228	0.9941735
7	0x3f6c072e	0.92198455
8	0x3f89fab3	1.0779632
9	0x3f87ad67	1.0599793
10	0x3f803d79	1.001876
11	0x3f86b6c9	1.0524532

bias f4 [12]
0	0xbd9c9656	-0.07645862
1	0xbd6a381f	-0.057182427
2	0xbe00c25a	-0.12574139
3	0xbdba5b6a	-0.09099467
4	0xbe3e616b	-0.1859185
5	0xbdf5639f	-0.11981892
6	0xbe0ae282	-0.13562968
7	0xbdb24057	-0.08703678
8	0xbdd5c620	-0.1043818
9	0xbe1307cd	-0.14358445
10	0xbdaca5ae	-0.084300384
11	0xbd2ad5a5	-0.041707654

running_mean f4 [12]
0	0xbf85e80b	-1.0461439
1	0xbc2a20a2	-0.010383757
2	0x3f04fbd1	0.5194674
3	0x3e9fe45a	0.31228906
4	0xbf044a44	-0.5167582
5	0x3f8b9860	1.0905876
6	0xbf4dee8d	-0.80442125
7	0xbe279cdc	-0.16368431
8	0xbf241036	-0.64087236
9	0x3e0ec8b4	0.1394375
10	0x3f105b00	0.56388855
11	0xbf7225ef	-0.9458913

running_var f4 [12]
0	0x3f6bc51f	0.9209766
1	0x3ffbdb40	1.9676285
2	0x3fd4f8f8	1.6638479
3	0x3f5b0644	0.85556436
4	0x3fc3e5f3	1.530455
5	0x40267f66	2.6015258
6	0x401fb623	2.4954917
7	0x3fb4bd1c	1.4120212
8	0x3f0cf3a8	0.5505929
9	0x3fbd6628	1.4796801
10	0x3f7b673f	0.98204416
11	0x4005684b	2.0844905

weight f4 [32, 12, 9]
0	0xbd67c8a6	-0.056587838
1	0xbe7fd1aa	-0.24982324
2	0xbe0fcd2e	-0.14043114
3	0xbd29b53e	-0.04143261
4	0xbd7d427c	-0.061830983
5	0xbe27cfc2	-0.16387847
6	0xbe2b2df5	-0.1671675
7	0x3ce1d094	0.027565278
8	0xbcbe00e6	-0.023193788
9	0x3d8c5d86	0.06853776
10	0xbd9d8fe8	-0.076934636
11	0xbd7ec4b6	-0.062199317
12	0xbe1b384e	-0.15158197
13	0x3d30e81c	0.043190107
14	0xbe011797	-0.12606655
15	0xbe2060c8	-0.15661919
16	0xbdc1d5f0	-0.094646335
17	0x3c23977f	0.00998485
18	0x3d8ee0c0	0.069764614
19	0x3e0d7375	0.13813575
20	0x3e036560	0.1283164
21	0xbe08910a	-0.13336578
22	0xbd33e982	-0.043923862
23	0x3dc65934	0.09684983
24	0xbe36835e	-0.1782355
25	0x3c359ce0	0.011084765
26	0x3d44010e	0.04785257
27	0x3e00ce8e	0.12578794
28	0x3dfb9ecb	0.12286147
29	0xbdfe99f2	-0.124317065
30	0xbd53681f	-0.05161297
31	0x3dc2368a	0.09483059
32	0xbd4e2fed	-0.050338674
33	0xbc378b74	-0.011202682
34	0x3bee3ded	0.0072705657
35	0x3de8c874	0.113663584
36	0x3e224c18	0.1584934
37	0x3e050032	0.12988356
38	0xbd16cabd	-0.03681444
39	0x3dbef253	0.093235634
40	0xbd446b6f	-0.04795402
41	0xbd2d4c9f	-0.0423094
42	0xbdafaaf7	-0.08577531
43	0x3a69a42a	0.0008912707
44	0xbcc46b4d	-0.023976946
45	0x3e061786	0.13094911
46	0xbd8845df	-0.06653952
47	0xbe35625b	-0.17713301
48	0xbd708add	-0.05872618
49	0xbd58727b	-0.052843552
50	0x3c834394	0.016023435
51	0x3d72aa21	0.05924428
52	0x3e0a6f0f	0.13518928
53	0xbdb96c5e	-0.090538725
54	0x3d4f339d	0.05058633
55	0xbd168760	-0.036750197
56	0xbd2f2722	-0.04276193
57	0x3b7ec7f4	0.0038876506
58	0xbcb91665	-0.022593686
59	0xbd141e56	-0.036161743
60	0xbe169d64	-0.14708477
61	0xbd8a89e3	-0.06764581
62	0x3caf2578	0.021380171
63	0xbd0cf433	-0.034412574
64	0x3cfb13f8	0.03064917
65	0xbc09426a	-0.008377651
66	0x3c8598a2	0.016308133
67	0x3dd7831c	0.10523054
68	0xbbd1319e	-0.0063840887
69	0x3caf5d31	0.021406742
70	0xbd571fde	-0.052520625
71	0x3daf1f5b	0.085509025
72	0xbd76371a	-0.060111143
73	0x3d916b33	0.07100525
74	0x3d2124f2	0.039341874
75	0x3d80c202	0.06287004
76	0x3c2ad5b3	0.010426926
77	0x3c730926	0.014833724
78	0xbcb7d51c	-0.022440486
79	0xbdb384cb	-0.087655626
80	0x3ce2ffbe	0.027709838
81	0xbd9a506d	-0.07534871
82	0xbc8770b4	-0.016533233
83	0xbdf791d4	-0.120883614
84	0xbe309905	-0.17245872
85	0xbd94094e	-0.07228337
86	0x3ce6c4da	0.028170038
87	0xbda328c7	-0.07966762
88	0xbd344047	-0.044006612
89	0x3e134a63	0.14383845
90	0x3b247b45	0.0025097888
91	0x3dce4e3b	0.10073515
92	0x3cf01dcb	0.029311081
93	0xbd0f3d84	-0.034970775
94	0xbd31c4f6	-0.043400727
95	0x3d1b378d	0.037894774
96	0x3e06e4fa	0.13173285
97	0xbd3c0953	-0.04590733
98	0x3d854d29	0.06508858
99	0xbcb2a6a5	-0.021807978
100	0xbd5728f7	-0.0525293
101	0x3c477886	0.012174731
102	0xbe40fd82	-0.18846706
103	0xbe1961a1	-0.14978649
104	0x3c384e64	0.0112491585
105	0x3d09bb19	0.033625696
106	0xbac20c59	-0.0014804705
107	0x3db21b47	0.08696609
108	0x3b93454a	0.004494344
109	0x3d92084b	0.07130488
110	0x3dd6821f	0.104740374
111	0x39cbdfc8	0.00038885907
112	0xbda7225d	-0.08160851
113	0xbd5a7019	-0.05332956
114	0x3dc4e027	0.09613066
115	0x3ddc1566	0.10746269
116	0x3cf3e158	0.029770538
117	0xbcdeb035	-0.027183631
118	0xbe29a55b	-0.16566984
119	0xbd30c3b7	-0.0431554
120	0xbce19c5b	-0.027540376
121	0xbe9e9e7d	-0.30980292
122	0x3b553af2	0.0032536355
123	0x3d42bfae	0.04754608
124	0x3d6b4591	0.05743939
125	0xbc2b951f	-0.010472565
126	0xbea96f66	-0.33092803
127	0xbe8ac94f	-0.2710671
128	0xbdba1354	-0.09085718
129	0x3dee9fde	0.11651586
130	0x3d0270d0	0.031845868
131	0x3ca942d5	0.02066175
132	0xbe434fd9	-0.19073428
133	0xbd4ad6f4	-0.0495214
134	0x3dc2f74b	0.09519824
135	0x3bc8e375	0.0061306306
136	0xbece1fa7	-0.40258524
137	0xbdbe2a40	-0.09285402
138	0x3c4462b6	0.011986425
139	0x3dd86c9a	0.10567589
140	0xbd904c08	-0.07045752
141	0xbe8d6309	-0.2761462
142	0xbda01519	-0.07816524
143	0x3dcbb3dd	0.099464156
144	0xbe40938c	-0.18806285
145	0xbcdff5ca	-0.027338881
146	0xbe17b106	-0.14813623
147	0x3c8786a5	0.016543696
148	0xbdbe08d0	-0.092790246
149	0x3dbaa4e0	0.09113479
150	0xbc0b57a3	-0.008504781
151	0x3d74f0ba	0.059799887
152	0x3dba1982	0.090868965
153	0xbebbf5c3	-0.3671094
154	0xbe0b7deb	-0.13622253
155	0xbdfa7fd5	-0.12231413
156	0xbd147088	-0.03624013
157	0x3cf8e24f	0.03038135
158	0xbc8ffa6d	-0.017575467
159	0xbe3dc577	-0.18532358
160	0x3e161edf	0.14660214
161	0x3e48453c	0.19557661
162	0x3d9a816c	0.075442165
163	0xbe0b7278	-0.13617885
164	0xbcfc34b6	-0.030786853
165	0xbcc21a99	-0.023694323
166	0xbe029767	-0.12753068
167	0x3dcc789c	0.09983942
168	0x3da13b73	0.07872667
169	0x3dee1c5f	0.11626505
170	0x3dfb2c7e	0.122643456
171	0xbe47297e	-0.19449422
172	0xbe53594b	-0.20639531
173	0xbe0294a5	-0.12752016
174	0x3d4d7048	0.050155908
175	0xbe2266ea	-0.15859571
176	0xbdad6f45	-0.084684886
177	0x3dbba3cd	0.09162102
178	0x3ca70f45	0.020393023
179	0xbd2bdacd	-0.04195671
180	0xbd92f0d9	-0.07174844
181	0xbe1345d2	-0.14382103
182	0xbdad7c30	-0.084709525
183	0x3c45b899	0.012067937
184	0x3e1e139b	0.15437166
185	0x3dff877a	0.12477012
186	0x3db8846b	0.09009632
187	0x3e03d43b	0.12873928
188	0xbd62264e	-0.05521231
189	0xbdb743c6	-0.08948474
190	0xbe8e526d	-0.2779726
191	0xbd439612	-0.04775054
192	0x3d5d8c7e	0.054089062
193	0x3cf50d23	0.02991349
194	0xbdc2bf08	-0.095090926
195	0x3d78c908	0.060738593
196	0x3d21fcea	0.03954784
197	0x3dd1cfe4	0.1024473
198	0xbc6d22d1	-0.014473633
199	0xbe878731	-0.2647033
200	0xbe27b429	-0.1637732
201	0x3ad34b8a	0.0016120535
202	0xbe315ed1	-0.17321326
203	0xbd905096	-0.070466205
204	0x3db5aa99	0.088704295
205	0x3e5dbeae	0.2165477
206	0x3deb1a3a	0.11479612
207	0xbd63e699	-0.055639837
208	0xbcb795cd	-0.022410298
209	0xbd0bbc89	-0.034115348
210	0xbd93e786	-0.07221894
211	0xbd4b5464	-0.049641028
212	0x3da23643	0.07920506
213	0xbd30d4cd	-0.043171693
214	0xbdf3b12a	-0.11899026
215	0x3dbc540b	0.091957174
216	0xbe29e402	-0.16590884
217	0xbddda2d2	-0.10822071
218	0xbdb052db	-0.086095534
219	0x3dd744cb	0.10511168
220	0x3c8c32c6	0.017114054
221	0xbcd03137	-0.025414092
222	0x3db7b4a1	0.08969999
223	0x3e49c327	0.19703351
224	0xbdd123af	-0.10211884
225	0xbe6fa19d	-0.23401494
226	0xbeccbab5	-0.39986196
227	0xbe0bbc3f	-0.13646029
228	0x3d8e2a4e	0.06941663
229	0x3dae951f	0.08524536
230	0x3d9dc486	0.077034995
231	0x3df746d8	0.12074059
232	0x3e1f02a6	0.15528354
233	0xbcc67ffe	-0.024230953
234	0xbd13b9b4	-0.036065772
235	0xbe5fe875	-0.21866019
236	0xbdbce214	-0.092228085
237	0xbe0306cb	-0.1279556
238	0x3e48c3d6	0.19605955
239	0xbae15aac	-0.001719316
240	0xbb53efbd	-0.003233894
241	0x3e329b42	0.17442039
242	0x3dbc2bed	0.09188066
243	0xbe09cc0d	-0.13456745
244	0xbe02531d	-0.12727018
245	0xbd3fe69e	-0.046850793
246	0xbd5ccaf4	-0.05390449
247	0xbda1b2b4	-0.07895413
248	0xbd9e2da9	-0.07723553
249	0x3db89cb8	0.09014267
250	0x3d8acd8c	0.06777486
251	0xbd25afed	-0.04045098
252	0x3c21d5df	0.009877651
253	0xbd5fffad	-0.05468719
254	0xbd8c3da5	-0.06847695
255	0xbd1874ee	-0.037220888

bias f4 [32]
0	0xbe28c2f4	-0.16480619
1	0x3cb0061a	0.021487284
2	0x3c0d16dd	0.008611408
3	0x3e132f7c	0.14373583
4	0xbd43ef9d	-0.047835935
5	0x3dcffc1d	0.10155509
6	0x3de93c45	0.113884486
7	0x3d4ea0a6	0.050446175
8	0xbdcafaf8	-0.0991115
9	0x3e1c40bf	0.15259074
10	0x3de9faa9	0.11424763
11	0x3daa1e2d	0.08306537
12	0xbc515262	-0.012775989
13	0xbe05966d	-0.13045664
14	0x3e2b1e72	0.16710833
15	0xbdf50272	-0.11963357
16	0xbcd8cb70	-0.026464194
17	0x3e0313fa	0.12800589
18	0x3de5d1e1	0.11221672
19	0xbd67bb16	-0.056574903
20	0x3d510bf4	0.05103679
21	0xbd8780fe	-0.066164
22	0xbda17d4e	-0.07885228
23	0xbd97b5c4	-0.07407716
24	0x3ba1e7ed	0.004940978
25	0xbdcd8cb7	-0.10036605
26	0xbe0b4675	-0.13601096
27	0x3ddaebdc	0.10689518
28	0x3dd27b7a	0.102774575
29	0x3d546f8d	0.051864196
30	0x3dbbd230	0.091709495
31	0xbc09bc9d	-0.008406785

weight f4 [64, 32, 7]
0	0xbda1fdc6	-0.079097316
1	0xbd6ece16	-0.058302008
2	0x3ce195a8	0.027537182
3	0x3dae7f2d	0.085203506
4	0xbd03fceb	-0.032223623
5	0xbe1b34a4	-0.151568
6	0xbcc7e20c	-0.02439978
7	0x3d1204d3	0.035649132
8	0x3dae9e1d	0.085262515
9	0x3d38421e	0.04498493
10	0x3d23dffd	0.040008534
11	0xbd454730	-0.048163593
12	0xbd5dfe1e	-0.054197423
13	0x3dd78032	0.10522498
14	0xbdb80aaf	-0.08986413
15	0x3cb810a0	0.022468865
16	0x3d0e7371	0.034778062
17	0x3dbb3f9d	0.09142993
18	0xbe248405	-0.16065986
19	0xbe733f67	-0.23754655
20	0xbdd8bb6e	-0.105826244
21	0x3e601fe2	0.21887162
22	0x3e0f214f	0.1397755
23	0x3d817887	0.06321817
24	0x3df65a4d	0.12028942
25	0xbda26ffd	-0.07931516
26	0x3bd862fc	0.0066035967
27	0x3cd2eb1e	0.025746878
28	0xbc0dee7c	-0.008662816
29	0x3dd3d892	0.10344042
30	0x3dd379f6	0.103259966
31	0x3dc45574	0.095866114
32	0xbea18ca3	-0.3155261
33	0xbeeb2f8a	-0.45934707
34	0xbeae06a6	-0.33989447
35	0x3ce40d2d	0.027838314
36	0x3cebc81f	0.028781949
37	0xbe03cf59	-0.12872066
38	0xbd117eb0	-0.03552121
39	0xbdb83d87	-0.089961104
40	0x3c05bc17	0.00816252
41	0x3d82f1aa	0.0639375
42	0x3cc8f7e7	0.024532272
43	0xbdc39b92	-0.09551157
44	0x3d5ca37e	0.053866856
45	0x3ddc049f	0.10743069
46	0xbda3a2e1	-0.07990051
47	0xbd686e39	-0.05674574
48	0xbe4f4a36	-0.20243153
49	0x3ca36667	0.01994629
50	0x3d59ee74	0.053205922
51	0xb851ce0b	-5.0021376e-05
52	0xbde9e5b2	-0.11420764
53	0xbe3b65d9	-0.1830057
54	0xbd8246da	-0.0636117
55	0xbc12d8f4	-0.0089628585
56	0x3d99e6b9	0.0751471
57	0x3d8681e2	0.06567742
58	0xbdb4919d	-0.08816836
59	0x3de4f5e7	0.11179715
60	0x3ca126fc	0.01967191
61	0x3c636632	0.013879346
62	0x3dd829d6	0.105548546
63	0x3d208931	0.039193336
64	0x3d84f2a1	0.0649159
65	0x3d752d24	0.059857503
66	0x3ca3ef1a	0.020011473
67	0xbe1d9fa3	-0.15392928
68	0xbdc9674b	-0.09834155
69	0xbdf88b2b	-0.12135919
70	0x3dfde307	0.12396818
71	0x3dee156e	0.11625181
72	0x3cd2a311	0.025712522
73	0x3da9fd0a	0.083002165
74	0xbd7c053c	-0.06152843
75	0xbd238737	-0.039923873
76	0xbdac0b25	-0.08400563
77	0x3e05d08a	0.13067833
78	0x3d3a3516	0.045460783
79	0x3df05990	0.11735833
80	0x3d9ebdfe	0.07751082
81	0xbe501bf2	-0.2032316
82	0xbe832858	-0.25616717
83	0xbe2f5d1f	-0.17125367
84	0xbc2189d8	-0.009859525
85	0x3d5f1c43	0.05447031
86	0x3d1b9514	0.03798397
87	0xbcb754e5	-0.022379348
88	0xbd6584f5	-0.056035
89	0xbdc377ab	-0.09544309
90	0xbe1fd48a	-0.15608421
91	0xbcba67a4	-0.022754498
92	0x3b60becc	0.0034293411
93	0x3c050a97	0.008120201
94	0xbc037a8b	-0.008024822
95	0x3cbb8765	0.02289171
96	0xbd459ca7	-0.0482451
97	0xbe0089f4	-0.12552625
98	0x3c61d381	0.013783337
99	0xbd1bd203	-0.03804208
100	0x3dbe318d	0.09286795
101	0x3cdd1b85	0.026990661
102	0xbe068ca4	-0.13139588
103	0x39c1b256	0.000369447
104	0xbc99005b	-0.018676927
105	0x3e195542	0.1497393
106	0x3d816333	0.06317749
107	0x3d9cdf65	0.076597966
108	0x3cd98b87	0.02655579
109	0xbdd41ef1	-0.10357464
110	0xbdaf2947	-0.08552795
111	0x3c5bf8a6	0.013425982
112	0x3ddbcacf	0.10732042
113	0x3d368224	0.044557706
114	0xbc9d744c	-0.019220494
115	0x3dbdd90f	0.09269916
116	0xbe90f9c3	-0.28315553
117	0xbe8a3bf1	-0.26998857
118	0xbe90f1a5	-0.2830936
119	0x3dc5bbf3	0.09654989
120	0x3dd49c00	0.10381317
121	0x3da68108	0.081300795
122	0x3def8223	0.116947435
123	0xbe3a8949	-0.18216433
124	0xbe068e57	-0.13140236
125	0xbd4a6122	-0.04940904
126	0x3d5d5250	0.054033577
127	0x3d468132	0.048463054
128	0xbc55fae2	-0.013060303
129	0x3d543f2a	0.05181805
130	0xbe0aeac2	-0.13566115
131	0x3ce53dc5	0.027983556
132	0xbd6cc409	-0.05780414
133	0xbd053feb	-0.03253166
134	0xbe55854a	-0.20851627
135	0xbd566e8b	-0.052351516
136	0x3db4243b	0.08795973
137	0xbded2913	-0.115801
138	0xbdfa735f	-0.122290365
139	0xbe0a8429	-0.13526978
140	0x3dd720c2	0.10504295
141	0x3de24c57	0.11049717
142	0x3e543fc3	0.20727448
143	0x3e07ae14	0.1325
144	0xbd34f812	-0.04418189
145	0xbdcf3262	-0.10117032
146	0xbbb6b2e2	-0.0055755237
147	0xbb0f1d8a	-0.0021837675
148	0x3d8b74f0	0.068094134
149	0x3dba3446	0.090920016
150	0x3d58347c	0.052784428
151	0xbc7051a1	-0.014667899
152	0xbd953aa0	-0.072865725
153	0xbdccfa73	-0.10008707
154	0xbc90d51f	-0.017679749
155	0x3d94b113	0.07260337
156	0x3de0a016	0.10968034
157	0x3b8b5c8c	0.004252976
158	0xbd14ad39	-0.03629801
159	0xbe1c17fe	-0.15243527
160	0xbdb8709d	-0.09005854
161	0xbd3ab714	-0.045584753
162	0x3d76c9f0	0.060251176
163	0x3ded1393	0.11575999
164	0x3d3955c3	0.045247804
165	0xbdea6520	-0.11445069
166	0xbe3f25d2	-0.18666771
167	0xbe2fe108	-0.17175686
168	0xbd567b06	-0.052363418
169	0x3c1fd5b1	0.009755538
170	0x3d078213	0.033083033
171	0x39723e9b	0.00023102241
172	0xbd418aaf	-0.0472514
173	0xbab65e7d	-0.0013913658
174	0xbe4bff6b	-0.19921653
175	0xbc2dc744	-0.010606591
176	0xbd2179d4	-0.039422825
177	0x3cda41ae	0.026642647
178	0xbc86e32c	-0.016465746
179	0xbd9210ea	-0.07132132
180	0xbe6084c1	-0.21925642
181	0xbea7f712	-0.32805687
182	0x3dc2ab5b	0.0950534
183	0xbd0987ab	-0.03357665
184	0xbdc16d86	-0.09444718
185	0x3d2bafc4	0.04191567
186	0xbd2bb677	-0.04192206
187	0x3c6ce3b6	0.014458587
188	0xbb55dee6	-0.0032634079
189	0xbe49b50d	-0.19697972
190	0xbdd8e15b	-0.10589858
191	0xbc84068f	-0.016116409
192	0x3d89f68f	0.067364804
193	0x3d62d18d	0.055375624
194	0xbce0bcd9	-0.0274338
195	0xbd878b0c	-0.06618318
196	0x3d8598f6	0.065233156
197	0xbe0228bb	-0.1271085
198	0xbe04bc7f	-0.1296253
199	0x3ce4cacc	0.027928732
200	0xbe4d4e96	-0.2004951
201	0xba62175a	-0.00086246955
202	0x3ca2ff6a	0.019897182
203	0x3db423c5	0.08795885
204	0x3e0a4937	0.13504492
205	0x3dfdf01f	0.12399315
206	0x3d762c63	0.060100924
207	0xbd5c2ca5	-0.053753514
208	0xbde214b5	-0.11039106
209	0xbd978685	-0.073987044
210	0x3c803e47	0.015654696
211	0xba887912	-0.0010412058
212	0x3aedebb5	0.0018151911
213	0x3d3a2d0b	0.045453113
214	0xbd44cd1a	-0.048047163
215	0xbdce7fdf	-0.10082983
216	0xbdc52b64	-0.09627417
217	0xbdb53821	-0.08848596
218	0x3d826794	0.06367412
219	0x3ba2fafa	0.0049737664
220	0x3e0b71a9	0.13617577
221	0xbe605986	-0.2190915
222	0xbe2a5b9a	-0.16636506
223	0xbd8edb12	-0.06975378
224	0xbd1af457	-0.037830677
225	0xbdbb0c82	-0.09133245
226	0xbe07d548	-0.13264954
227	0xbd8524bf	-0.065011494
228	0xbda135f1	-0.07871617
229	0x3c17d8c4	0.00926799
230	0xbd03361e	-0.032034032
231	0x3d6a6b06	0.05723097
232	0xbd51675a	-0.051123954
233	0xbc216f4e	-0.009853197
234	0xbc5b3ec2	-0.013381662
235	0xbd8e6413	-0.069526814
236	0xbe043eb8	-0.1291455
237	0xbdc95250	-0.09830153
238	0x3d0a1e44	0.03372027
239	0x3cdf0b3a	0.027227033
240	0xbd0796ad	-0.03310268
241	0xbc0efae0	-0.008726805
242	0x3aeacebe	0.0017914397
243	0xbd9d28d9	-0.07673807
244	0xbe81b299	-0.25331572
245	0x3d446e85	0.047956962
246	0x3d898053	0.06713929
247	0xbb92813e	-0.0044709733
248	0x3d5e0d18	0.054211706
249	0x3c8386a1	0.016055407
250	0x3df37cd3	0.11889043
251	0xbb45abee	-0.0030162293
252	0xbd250913	-0.040291857
253	0xbdda2c18	-0.106529415
254	0x3e1c2779	0.15249433
255	0x3dbe9804	0.093063384

bias f4 [64]
0	0x3e1a8b21	0.15092136
1	0x3c1e2cf4	0.009654272
2	0x3cd08e45	0.025458464
3	0x3d59c003	0.053161632
4	0xbd685a78	-0.056726903
5	0xbdd1e54c	-0.10248813
6	0xbd198001	-0.03747559
7	0x3c1f5d8b	0.009726892
8	0x3ca40d28	0.020025805
9	0x3cc21d9c	0.02369576
10	0x3bd5c7ae	0.006524048
11	0xbd8c8a1e	-0.06862281
12	0xbd93b343	-0.07211926
13	0x3aae846c	0.0013314611
14	0x3da5e47a	0.08100219
15	0xbd35be48	-0.04437092
16	0x3d7c0373	0.061526727
17	0x3d245713	0.040122103
18	0x3d387233	0.045030784
19	0x3cd37749	0.025813716
20	0xbb3fb007	-0.0029249208
21	0xbddf1550	-0.10892737
22	0xbdd0d7be	-0.101973996
23	0x3d35cff3	0.04438777
24	0xbdbf3ccc	-0.09337768
25	0xbd863f56	-0.06555049
26	0xbd0750b8	-0.033035964
27	0xbd9d1c8f	-0.07671463
28	0xbce97f96	-0.02850322
29	0x3d469155	0.048478443
30	0xbdb39e79	-0.08770461
31	0x3df87669	0.1213196
32	0x3d90b947	0.07066589
33	0xbd871dc0	-0.06597471
34	0xbcc1609b	-0.023605635
35	0xbc4d7c7e	-0.012541888
36	0x3dbba908	0.091630995
37	0xbd9de1da	-0.077090934
38	0x3b621b41	0.0034501108
39	0x3bf359a2	0.0074264565
40	0xbdc748a2	-0.097306505
41	0xbc3570a0	-0.011074215
42	0x3cbb489b	0.02286177
43	0x3d1e4a5b	0.03864513
44	0x3e74d41b	0.23909037
45	0xbe2b2e8b	-0.16716973
46	0xbace16d9	-0.0015723362
47	0x3dc55467	0.09635239
48	0x3d89e0e9	0.06732351
49	0x3a5b01de	0.0008354465
50	0x3d8ae300	0.06781578
51	0xbda96f2d	-0.08273158
52	0xbda21637	-0.079143934
53	0xbe0b35f7	-0.13594805
54	0xbd89510c	-0.067049116
55	0x3d842477	0.064522676
56	0x3d9be565	0.07612113
57	0x3dc4560f	0.09586727
58	0xbe36622e	-0.1781089
59	0x3d6eed19	0.058331583
60	0x3c8af150	0.01696077
61	0xbd827c08	-0.06371313
62	0xbd96b9e7	-0.07359677
63	0xbd50be5a	-0.050962783

weight f4 [64, 64, 5]
0	0xbe0d261a	-0.13784066
1	0xbdc83a0f	-0.09776699
2	0xbd584408	-0.052799255
3	0xbcc12595	-0.02357749
4	0x3e36e6bc	0.17861456
5	0x3d0c69c2	0.034280546
6	0xbdd86007	-0.10565191
7	0xbe4e439d	-0.2014298
8	0xbdea3d1c	-0.11437437
9	0xbde4dc93	-0.11174884
10	0xbd147e6e	-0.036253385
11	0xbddeacd4	-0.10872808
12	0xbe0b22fe	-0.13587567
13	0xbcb9ad38	-0.022665605
14	0xbdcc7dca	-0.0998493
15	0xbe5d164a	-0.21590534
16	0x3d448986	0.047982715
17	0x3d29543d	0.0413401
18	0xbd47520d	-0.048662234
19	0x3e1cd7e6	0.15316734
20	0x3dbf2953	0.09334054
21	0x3d8db75b	0.06919738
22	0x3cc10ff2	0.023567174
23	0xbd53bc41	-0.051693205
24	0xbcb97dcf	-0.022642998
25	0x3dc620fb	0.09674259
26	0x3d31bc85	0.043392677
27	0x3de1bbef	0.110221736
28	0x3d0df3d0	0.034656346
29	0x3d51add4	0.051191166
30	0x3d93fb5f	0.072256796
31	0xbc420acb	-0.011843394
32	0xbc416f11	-0.011806265
33	0x3d5e6bf1	0.05430216
34	0x3ce437ec	0.027858697
35	0x3cee7cad	0.029112184
36	0xbe1ac3c4	-0.15113741
37	0xbd812f0d	-0.06307802
38	0xbd08c18e	-0.033387713
39	0x3d24eb82	0.04026366
40	0xbc8b4a07	-0.017003072
41	0xbc793f3a	-0.015212828
42	0xbd0c2d88	-0.03422311
43	0x3d531d7d	0.051541794
44	0xbc63b763	-0.013898703
45	0x3e5b1e79	0.21398343
46	0x3e177421	0.14790393
47	0x3d88d086	0.06680398
48	0xbdd57848	-0.104233325
49	0xbdf10b41	-0.11769725
50	0x3d363edd	0.044493545
51	0xbd921c90	-0.07134354
52	0xbcf1b304	-0.029504307
53	0xbd48c8b3	-0.049019527
54	0x3e376efc	0.17913431
55	0x3ce250d7	0.027626438
56	0x3c8db9db	0.017300537
57	0x3cf8b892	0.030361447
58	0xbca51356	-0.020150822
59	0xbc3df750	-0.011594608
60	0x3ce9a903	0.028522974
61	0x3dc901b5	0.09814779
62	0x3d787162	0.060655005
63	0x3d8b2ea2	0.06796004
64	0x3e030743	0.12795739
65	0x3d906be7	0.07051831
66	0xbd1f9c5e	-0.038967483
67	0xbbf3c5c6	-0.007439348
68	0x3dd15c31	0.10222662
69	0x3d953803	0.07286074
70	0x3c5757d1	0.013143496
71	0x3dae6925	0.085161485
72	0x3d187fc8	0.037231237
73	0x3d50ebd3	0.05100615
74	0xbc3e6a00	-0.011621952
75	0xbd2629aa	-0.040567078
76	0x3df395ad	0.11893783
77	0x3df4f124	0.119600564
78	0x3d2389f7	0.039926495
79	0x3de24eac	0.11050162
80	0x3b32f118	0.0027304348
81	0xbceda51f	-0.0290094
82	0x3d86130f	0.06546604
83	0x3d156587	0.036473777
84	0xbc0a86a1	-0.00845495
85	0x3dd3d052	0.10342468
86	0xbd3565f7	-0.044286694
87	0x3ca198b3	0.019726133
88	0xbaef929d	-0.0018277947
89	0x3b30e8c7	0.0026994215
90	0xbdfbde21	-0.12298227
91	0xbd890fc9	-0.06692464
92	0x3b418238	0.002952708
93	0xbc6ced70	-0.014460906
94	0x3dbe4882	0.092911735
95	0x3dfc5771	0.123213656
96	0x3e97b678	0.296314
97	0x3e082d87	0.13298617
98	0x3b6c9321	0.0036098438
99	0x3dc0de64	0.09417418
100	0xbc989bfa	-0.018629063
101	0xbd99dd83	-0.07512953
102	0x3e24d03f	0.16095065
103	0x3dcfd374	0.10147753
104	0x3cdf5941	0.02726424
105	0xbbce4b40	-0.0062955916
106	0xbdcff1cd	-0.10153542
107	0xbd91126d	-0.070835926
108	0xbdeca195	-0.11554257
109	0xbd2b82da	-0.041872837
110	0x3d8266e1	0.06367279
111	0x3dc2c321	0.09509874
112	0x3dabd9ba	0.083911374
113	0x3d3e7a8a	0.04650358
114	0xbc42a0c6	-0.011879152
115	0x3c90c40f	0.017671613
116	0xbdc7f074	-0.0976266
117	0x3dde5d5f	0.10857653
118	0x3c2f6910	0.010706201
119	0xbc0a86ef	-0.008455022
120	0xbcc59343	-0.024118071
121	0x3cf68f43	0.03009761
122	0x3b4ff0bb	0.003172918
123	0xbc8e0e7f	-0.017340897
124	0xbcd684f2	-0.02618644
125	0x3da0b723	0.078474306
126	0xbb0e1bdb	-0.0021684084
127	0xbc783be7	-0.015151001
128	0x3dd9f39d	0.10642169
129	0x3db4e389	0.088324614
130	0x3c13665c	0.008996572
131	0xbcaf61a8	-0.02140887
132	0x3d36e94b	0.04465608
133	0x3dd4d27f	0.103917114
134	0xbca5305a	-0.020164657
135	0xbd227ae0	-0.039667964
136	0xbc516614	-0.012780685
137	0xbdbb3752	-0.09141411
138	0x3cb6d207	0.022316946
139	0xbca39585	-0.019968757
140	0x3d6e87ae	0.058234863
141	0x3e02300e	0.12713644
142	0x3d21a7a6	0.039466523
143	0xbdff342b	-0.12461122
144	0xbd8acce1	-0.06777359
145	0x3d3a0766	0.045417212
146	0x3de9883b	0.11402937
147	0xbd2e5af5	-0.042567212
148	0xbdc1325c	-0.094334334
149	0x3d6472ac	0.055773422
150	0xbdfa57c5	-0.12223772
151	0x3c739e17	0.0148692345
152	0xbd8239f3	-0.06358709
153	0x3b3153dd	0.0027058043
154	0xbdc32734	-0.09528962
155	0xbd46e9ba	-0.048562743
156	0xbb311c6a	-0.0027024993
157	0x3d4d3022	0.05009473
158	0x3dc15a0d	0.09441004
159	0xbd38fd7f	-0.045163628
160	0x3caf3926	0.021389555
161	0x3dc6f2c3	0.09714272
162	0xbdb37975	-0.087634005
163	0xbd109616	-0.035299383
164	0xbc0b53b0	-0.008503839
165	0xbd08d5ef	-0.033407148
166	0xbcb70cdd	-0.022345
167	0x3cc94d61	0.02457303
168	0x3d33057f	0.043706413
169	0xbda06802	-0.07832338
170	0x3e22651f	0.15858887
171	0x3e160e52	0.146539
172	0xbc5d8fbc	-0.0135230385
173	0xbe41c7e3	-0.18923907
174	0xbdbb5910	-0.09147847
175	0x3d638769	0.05554906
176	0xbd5c3b60	-0.053767562
177	0xbd9f1310	-0.07767308
178	0xbd829613	-0.06376281
179	0xbc8e1889	-0.017345684
180	0xbe68816b	-0.22705619
181	0xbb27239e	-0.0025503407
182	0x3d7a36d6	0.061087452
183	0x3d54a5e2	0.05191601
184	0x3dec5186	0.11538987
185	0x3cb3bb66	0.021939944
186	0x3db88b65	0.090109624
187	0x3ded5bdb	0.11589786
188	0xbcc078a4	-0.023495026
189	0x3cb6cac9	0.022313492
190	0x3daef78a	0.08543308
191	0xbd8f4eb8	-0.06997436
192	0x3b1fbce3	0.002437406
193	0xbdf6c1e4	-0.120487005
194	0xbd8e40b2	-0.069459334
195	0x3e0e1ded	0.13878603
196	0xbc4633f7	-0.01209735
197	0x3ded7179	0.11593909
198	0x3ac88d30	0.0015300866
199	0x3c265013	0.010150927
200	0x3b98889a	0.004654956
201	0x3d8c5e24	0.068538934
202	0x3d852975	0.06502048
203	0x3d941274	0.07230082
204	0xbbcb1dbf	-0.0061986144
205	0x3aeae5d6	0.001792128
206	0xbc200aa9	-0.009768167
207	0xbda3c0b0	-0.079957366
208	0xbdcfe446	-0.101509616
209	0x3d44a7a4	0.048011437
210	0x3d38beb5	0.045103747
211	0xba07ebd7	-0.0005184984
212	0x3d2f6dd9	0.04282937
213	0xbde01436	-0.10941355
214	0xbd1ca932	-0.038247295
215	0xbd3d0444	-0.046146646
216	0xbe1de5ae	-0.15419647
217	0xbdf97973	-0.12181368
218	0x3db710d4	0.089387566
219	0x3cd088d5	0.025455872
220	0x3bbd4ab2	0.0057767266
221	0xbe7249f6	-0.23661026
222	0xbea5fd7b	-0.32419953
223	0xbe29f591	-0.16597582
224	0xbdf484b9	-0.11939377
225	0xbd172dfb	-0.036909085
226	0xbc4228a0	-0.011850506
227	0x3d909084	0.07058814
228	0xbc304f59	-0.010761105
229	0x3cb47d34	0.022032358
230	0xbc940cc8	-0.0180725
231	0x3bed7e16	0.0072476966
232	0x3a264c59	0.0006343774
233	0x3e076986	0.13223848
234	0x3e0cfea4	0.13769013
235	0xbdcc9f9b	-0.0999138
236	0xbe18696d	-0.14883967
237	0xba406cd9	-0.00073404383
238	0x3d853c39	0.06505627
239	0xbd718d8e	-0.058972888
240	0xbdce3df2	-0.10070409
241	0x3d91f799	0.07127304
242	0x3d63f975	0.055657823
243	0xbd6ba770	-0.057532728
244	0x3de3be7a	0.11120315
245	0x3d01038a	0.031497516
246	0x3cf54afc	0.029942982
247	0x3df377f8	0.118881166
248	0x3e084f73	0.13311557
249	0x3e255b21	0.16148044
250	0x3c6dd16a	0.01451526
251	0xbd516dc0	-0.051130056
252	0xbe129ac5	-0.14316852
253	0xbe1457de	-0.14486644
254	0xbd5cc04c	-0.053894326
255	0xbdb3f690	-0.087872624

bias f4 [64]
0	0xbd698c09	-0.057018314
1	0x3ca7770c	0.020442508
2	0xbdf58180	-0.11987591
3	0x3e8827d1	0.26592878
4	0xbdf29c6a	-0.1184624
5	0xbe18374e	-0.14864847
6	0xbd3588f6	-0.04432007
7	0x3d2a3c61	0.041561488
8	0x3e58bb80	0.21165276
9	0xbdea5463	-0.11441877
10	0xbdc0833a	-0.094000295
11	0xbd7c779c	-0.061637506
12	0x3e0113cd	0.1260521
13	0x3d96620a	0.07342918
14	0x3db90704	0.09034541
15	0x3d78a3e0	0.06070316
16	0xbd098ecd	-0.03358345
17	0xbdc0e503	-0.094186805
18	0xbd1ce6f0	-0.038306177
19	0x3da71bf2	0.08159627
20	0x3cd5b9e9	0.026089625
21	0x3c2446df	0.010026663
22	0xbdfb05d7	-0.12256973
23	0xbc0215bb	-0.007939751
24	0x3cf76723	0.030200547
25	0xbe028276	-0.1274508
26	0xbde66a81	-0.11250783
27	0xbd3d2be5	-0.04618444
28	0xbe0a1c24	-0.13487297
29	0xbd8a88a8	-0.06764346
30	0xbc9fcc4a	-0.019506592
31	0x3e83ab53	0.25716648
32	0x3e83ba95	0.25728288
33	0x3b0678fb	0.0020518887
34	0xbde59f81	-0.112120636
35	0x3dc69239	0.096958585
36	0x3ca4fc3f	0.020139812
37	0x3e4a6c32	0.19767836
38	0xbdfb3e9a	-0.122678
39	0x3dee1660	0.116253614
40	0xbd618a42	-0.055063494
41	0x3e0ee836	0.13955769
42	0xbcd5f55e	-0.026117977
43	0x3e4bdd72	0.19908693
44	0x3db16604	0.08662036
45	0xbd8c4757	-0.068495445
46	0xbd9570c0	-0.07296896
47	0xbcbfe374	-0.023423888
48	0x3dd7af23	0.105314516
49	0x3d3ec9fe	0.046579354
50	0x3d3ccaa9	0.04609171
51	0xbdbdefdf	-0.092742674
52	0xbe16cc3d	-0.14726348
53	0xbe356746	-0.17715177
54	0xbd1368ec	-0.035988733
55	0xbd5d0d0a	-0.053967513
56	0xbe0c3983	-0.13693814
57	0xbcf4d663	-0.029887384
58	0xbc5d8deb	-0.013522605
59	0x3e84f0a3	0.2596484
60	0x3dfbe720	0.12299943
61	0xbc945314	-0.018106021
62	0x3e63e742	0.22256187
63	0xbdb6aa8d	-0.08919249

weight f4 [64, 64, 3]
0	0x3ccb9aab	0.024854025
1	0x3e0e2038	0.13879478
2	0xbd32f90e	-0.04369455
3	0x3d3579a3	0.044305455
4	0xbd65138e	-0.055926852
5	0xbcf5b2b2	-0.029992435
6	0x3c095718	0.008382581
7	0x3e2093d0	0.15681386
8	0x3e33a942	0.17545035
9	0xbd9b8777	-0.07594197
10	0x3db9ac2f	0.090660445
11	0x3b34f230	0.0027610175
12	0xbe34853a	-0.17628947
13	0xbe0a0d57	-0.13481651
14	0xbdf98573	-0.121836565
15	0xbd903628	-0.070415795
16	0xbdc316de	-0.09525846
17	0x3d827926	0.063707635
18	0x3d3af2e8	0.04564181
19	0xbc025b38	-0.007956319
20	0x3d3adbf2	0.045619912
21	0x3e06d1f6	0.13166031
22	0x3d32a9f3	0.043619107
23	0xbdf4878c	-0.11939916
24	0x3ce76da9	0.028250532
25	0xbcb8b03d	-0.022544974
26	0xbd210c75	-0.03931852
27	0xbe0da19a	-0.13831177
28	0xbe09d0a1	-0.13458492
29	0xbdaa93d7	-0.083289795
30	0xbdc464fe	-0.09589575
31	0xbe2a9464	-0.16658169
32	0xbdefa0c4	-0.117005855
33	0xbcfda879	-0.030964123
34	0xbd7af20e	-0.061265998
35	0x3e30fe6e	0.17284557
36	0xbd6595d5	-0.056051094
37	0x3d9f4563	0.07776906
38	0xbdd8974d	-0.10575733
39	0xbd317290	-0.043322146
40	0x3da2e6af	0.07954156
41	0xbd8d218a	-0.06891163
42	0xbd23b206	-0.0399647
43	0x3d1ec03e	0.038757555
44	0xbcb14846	-0.021640908
45	0x3d176ae0	0.03696716
46	0xbd6d4fe0	-0.057937503
47	0x3cdd60f2	0.027023766
48	0xbd234d7c	-0.039868817
49	0xbe6ae63f	-0.22939394
50	0xbdb6ac6b	-0.08919605
51	0xbdc84fcd	-0.09780846
52	0xbd4d2945	-0.050088186
53	0xbd16db14	-0.036830023
54	0xbd45c14e	-0.048280053
55	0x3d8b4e71	0.06802071
56	0xbbe3a412	-0.006947049
57	0xbdae1953	-0.08500924
58	0xbcfbf5c7	-0.030756844
59	0xbde31f32	-0.110899344
60	0x3d5bb26d	0.053636957
61	0xbcca933a	-0.024728406
62	0x3e003f35	0.12524112
63	0xbcfa7c03	-0.030576712
64	0x3d73763d	0.059438933
65	0xbe38ac8a	-0.18034568
66	0xbe99c145	-0.30030265
67	0xbe1158ea	-0.14194074
68	0xbd6e682c	-0.058204815
69	0x3de59352	0.1120974
70	0x3e08a749	0.13345064
71	0xbc8a76b9	-0.016902314
72	0xbd3bb0dd	-0.045822967
73	0x3d78e3d1	0.060764138
74	0x3d7b3eb2	0.061339088
75	0x3d8108e8	0.06300527
76	0xbdcdd14c	-0.10049686
77	0xbe6c6a99	-0.23087539
78	0x3da4a4c8	0.08039242
79	0x3ccd05fb	0.025027266
80	0x3db93678	0.09043592
81	0x3d44c367	0.048037913
82	0x3da362a9	0.07977802
83	0x3e288b8a	0.1645948
84	0x3d084ee0	0.033278346
85	0xbd1b0762	-0.037848838
86	0x3e22e547	0.15907775
87	0x3d452f2b	0.048140686
88	0xbd24fc26	-0.04027953
89	0x3d87b2aa	0.06625874
90	0x3d1b03a4	0.03784527
91	0xbd42e477	-0.047581162
92	0x3dc80928	0.097673714
93	0x3d18cdaf	0.03730553
94	0x3bc171d4	0.005903462
95	0xbda2b35a	-0.07944365
96	0xbcb3bda2	-0.02194101
97	0x3e153599	0.14571227
98	0x3d238ea1	0.039930943
99	0x3daa3ead	0.08312736
100	0x3e159e79	0.14611234
101	0xbdfa6735	-0.122267164
102	0xbd90a992	-0.07063593
103	0x3bde04bf	0.006775468
104	0xbd742a46	-0.059610628
105	0x3b9282a3	0.0044711395
106	0xba83665f	-0.0010025016
107	0x3d05705b	0.032577854
108	0x3e49217f	0.19641684
109	0xbdf8b22e	-0.1214336
110	0x3d8cace4	0.06868914
111	0xbc644adb	-0.013933863
112	0xbd96f938	-0.073717535
113	0xbd0bd49c	-0.034138307
114	0xbe07e599	-0.13271178
115	0xbd96cf90	-0.07363808
116	0xbde0b590	-0.1097213
117	0x3d1c9b90	0.038234293
118	0xbda46303	-0.080266975
119	0xbdb8bc68	-0.09020311
120	0xbd7b4e3a	-0.0613539
121	0xbd8a9492	-0.06766619
122	0x3e24b1fd	0.16083522
123	0xbc97dae6	-0.018536996
124	0xbc79f408	-0.0152559355
125	0x3d06ccae	0.03291004
126	0xbc854f89	-0.016273277
127	0x3c0b87c2	0.008516254
128	0x3e43315f	0.19061802
129	0xbdbcef48	-0.09225327
130	0x3df2cbac	0.118552536
131	0x3e0f5728	0.13998091
132	0x3d16eb72	0.036845632
133	0x3c81f424	0.015863486
134	0x3db98e64	0.09060362
135	0xbe0a1db4	-0.13487893
136	0xbd81879d	-0.06324694
137	0x3b0c6830	0.0021424405
138	0x3d04da6f	0.032434877
139	0xbd2536f7	-0.04033562
140	0x3df82816	0.12117021
141	0xbe118402	-0.14210513
142	0x3c759d10	0.01499106
143	0xbd118826	-0.035530232
144	0xbcd21b26	-0.025647711
145	0x3d2a45b1	0.04157037
146	0x3d1b2fb6	0.037887298
147	0xbe141108	-0.14459622
148	0x3a1d403a	0.0005998645
149	0xbd26ae7c	-0.040693745
150	0xbe854dd8	-0.26035953
151	0xbcc43c64	-0.023954578
152	0xbdc3937f	-0.09549617
153	0xbc872321	-0.016496243
154	0xbdae4135	-0.08508531
155	0xbdf13b7d	-0.117789246
156	0xbd61fd2a	-0.055173077
157	0xbc416afe	-0.011805294
158	0x3d35e503	0.044407856
159	0xbda1435b	-0.07874175
160	0xbdbbd475	-0.09171382
161	0xbd1f85e3	-0.038946044
162	0x3d0f0674	0.034918264
163	0x3d40e0a0	0.04708922
164	0xbd6587f8	-0.056037873
165	0x3d1f7b31	0.038935844
166	0x3ba07e50	0.00489787
167	0x3d5f5948	0.054528505
168	0xbe03e69b	-0.12880938
169	0x3bead413	0.0071663945
170	0x3c6a90ec	0.014316779
171	0xbba960a8	-0.005168993
172	0x3e0a3a84	0.13498884
173	0xbd790b2c	-0.06080167
174	0x3d1d5a16	0.03841599
175	0xbc54a463	-0.012978646
176	0xbe51a626	-0.20473537
177	0x3d8b4ea8	0.06802112
178	0xbd9ae738	-0.07563633
179	0xbb63747d	-0.0034706884
180	0xbcad7848	-0.021175519
181	0x3dc432d1	0.09580005
182	0x3daa0b64	0.08302954
183	0xbe5beefd	-0.21477886
184	0xbdcf9eae	-0.101376876
185	0xbe06d111	-0.1316569
186	0xbe118a41	-0.14212896
187	0xbe28612b	-0.16443317
188	0xbe46e949	-0.19424929
189	0x3d8a76d1	0.06760944
190	0x3cf56dfa	0.029959667
191	0x3dfd9992	0.12382807
192	0xbdb0108b	-0.08596905
193	0xbdcab7d0	-0.09898341
194	0xbd2d0029	-0.04223648
195	0xbe8dfe41	-0.27733043
196	0xbdbeaec9	-0.093106814
197	0xbd9d1b3f	-0.076712124
198	0xbe422f66	-0.18963394
199	0xbd0dac4a	-0.034588136
200	0xbe78f39a	-0.24311677
201	0x3c631596	0.013860127
202	0x3d7afcad	0.061276127
203	0x3d1c30aa	0.038132347
204	0xbd6488be	-0.05579447
205	0x3db47378	0.088110864
206	0xbda6911d	-0.08133147
207	0xbd567edc	-0.052367076
208	0x3d0fdf6c	0.03512518
209	0xbe053467	-0.13008271
210	0xbbdd3a91	-0.0067513664
211	0xbc87873b	-0.016543975
212	0x3dbfa116	0.093568966
213	0x3e20e64d	0.15712853
214	0xbddfd217	-0.10928743
215	0xbc16f699	-0.009214067
216	0x3ca0090e	0.019535568
217	0xbcf0869f	-0.029361067
218	0xbddc2ab4	-0.107503325
219	0x3d13f18c	0.03611903
220	0xbd9701ce	-0.07373391
221	0xbdb7198d	-0.0894042
222	0xbdebdbf1	-0.1151656
223	0xbda14951	-0.07875312
224	0xbdd02f6b	-0.10165294
225	0x3c9327c6	0.017963301
226	0xbd6bd701	-0.05757809
227	0xbe311578	-0.17293346
228	0x3d8f7360	0.07004428
229	0xbca263a0	-0.019822896
230	0x3dc12384	0.09430602
231	0xbeb99bf2	-0.3625179
232	0xbe16251b	-0.14662592
233	0xbe8211e4	-0.25404274
234	0xbe84be0f	-0.25926253
235	0xbe6ccfd0	-0.23126149
236	0xbdb10029	-0.08642609
237	0xbdad51a7	-0.084628396
238	0xbe31476f	-0.17312406
239	0x3db0ef6a	0.086394146
240	0x3d92fb1b	0.07176801
241	0xbb1a5931	-0.0023551697
242	0x3dd8d7f1	0.105880626
243	0xbd826b70	-0.06368148
244	0xbccd0eb8	-0.025031433
245	0x3e4d378f	0.20040725
246	0x3c709ebb	0.014686282
247	0xbd271261	-0.040789012
248	0xbda9165d	-0.082562186
249	0xbc6f7326	-0.014614856
250	0xbe91b7b8	-0.2846048
251	0xbe396063	-0.18103175
252	0xbe40f460	-0.18843222
253	0xbe0018de	-0.12509486
254	0xbd68b76f	-0.05681556
255	0x3dd0319d	0.10165713

bias f4 [64]
0	0x3d55b746	0.052176736
1	0x3dc1d9c2	0.09465362
2	0x3e40054b	0.18752019
3	0x3dd53ba3	0.104117654
4	0x3e0e3f22	0.13891271
5	0x3cefa9be	0.029255744
6	0xbbb984ff	-0.0056616063
7	0x3db87d9e	0.090083346
8	0x3e2dbf49	0.16967501
9	0x3c4f7c13	0.012663859
10	0xbd3fe927	-0.04685321
11	0x3d1132ad	0.03544872
12	0xbe4c027a	-0.1992282
13	0xbdae8f46	-0.08523421
14	0xbd2d0282	-0.04223872
15	0x3df47864	0.11937025
16	0x3e322afd	0.17399211
17	0x3dbe0bd1	0.092795976
18	0x3c482ee3	0.01221821
19	0xbe233f46	-0.15942106
20	0xbe06143d	-0.13093658
21	0xbd0f0cce	-0.03492432
22	0xbd9b0900	-0.07570076
23	0xbdbccbb6	-0.09218542
24	0xbdd99871	-0.10624779
25	0x3d40203b	0.046905737
26	0x39ed5574	0.0004526783
27	0x3e84cba7	0.25936624
28	0x3de78c7f	0.113060944
29	0xbd9ce1ec	-0.07660279
30	0x3dc13e50	0.09435713
31	0xbc9db15a	-0.019249607
32	0x3e76479a	0.24050751
33	0x3e142d63	0.14470439
34	0x3dfdba91	0.123891
35	0xbd9ba230	-0.07599294
36	0x3da00d42	0.07815029
37	0x3d0a6c1a	0.0337945
38	0x3d952091	0.07281602
39	0x3e1dd695	0.15413888
40	0xbdaffb77	-0.08592885
41	0x3e0c2664	0.1368652
42	0xbd3148c5	-0.04328229
43	0x3dd3c38c	0.10340032
44	0xbdf99250	-0.1218611
45	0x3d8dfc5e	0.06932901
46	0xbdb4bbb1	-0.08824862
47	0xbd3e72e9	-0.046496306
48	0xbcf11219	-0.029427575
49	0x3e06dd4a	0.13170353
50	0xbdf40d81	-0.11916638
51	0x3e198f6e	0.1499612
52	0x3d96875b	0.07350036
53	0xbcad21fe	-0.021134373
54	0xbdd04323	-0.10169055
55	0xbdaa7b9b	-0.08324357
56	0x3d26d8ed	0.04073422
57	0xbd4ac18f	-0.049500998
58	0xbd18ca17	-0.037302103
59	0xbde93b65	-0.11388282
60	0x3e99cbb9	0.3003824
61	0xbd738ada	-0.05945859
62	0x3daaa3d1	0.08332027
63	0xbcbb797e	-0.02288508
