model/sbin,93.54,400,5.pt (torch, 289636 bytes, 36 tensors)

weights f4 [128, 1]
1.0019411 1.0023612 1.0026288 1.0008584 -0.07616644 -0.29388705 -0.4544345 -0.2018391
0.10939043 0.16729933 0.4777303 0.65611094 0.76194525 0.7732729 1.0012649 1.0025922
1.0033903 1.0066427 1.0005127 1.0052329 0.443934 0.15859929 -0.11430809 0.00030146167
0.19776736 -0.0012060896 0.04894443 -0.09134761 0.43910354 1.006046 1.0041952 1.003703
0.2855833 0.35977527 0.00017180826 0.3048403 0.4403955 0.36747277 0.22212523 0.4677872
0.053838793 -0.020186994 -0.3393194 -0.5051643 -0.96845084 -1.0039865 -1.0034553 -1.0043218
-1.0021489 -1.0010538 -1.0019414 -1.0006852 -1.0020641 -0.8588358 -0.59760624 -0.36432412
-5.0628505e-06 0.21965878 0.71205825 1.005499 1.0021628 1.0017966 1.0009234 1.0026538
0.5753365 0.1933411 -0.007387853 -0.5117879 -1.0042598 -1.0091684 -1.0044817 -1.003913
-1.0021496 -1.0041634 -1.0007995 -0.4743385 -0.28513688 0.34394234 0.4889181 0.7128034
1.0035615 1.0060472 1.0020186 1.0013949 1.001554 0.68478525 6.0227776e-05 -0.007245534
-0.021324003 0.2599825 5.213725e-05 0.022401342 0.43060654 1.0016444 1.0033168 1.002882
-0.8612071 -0.44717306 -0.3855675 0.0068023913 0.2096509 0.751534 1.0070537 1.000845
1.0024855 1.0017083 1.0022796 0.53499806 -0.08308763 -0.7220313 -1.0058012 -1.0034744
1.0018853 1.0022861 0.95574343 0.55780846 -0.25900108 -1.0037692 -1.0020396 -1.001636
-1.0030719 -0.6291919 -0.47957593 2.6412525e-05 0.79393405 1.0022277 1.0015363 1.0027969
00000000: 9b3f 803f 5f4d 803f 2456 803f 211c 803f
00000010: 27fd 9bbd 5d78 96be a4ab e8be e9ae 4ebe
00000020: 1708 e03d 8450 2b3e 1199 f43e e3f6 273f
00000030: d80e 433f 36f5 453f 7329 803f f154 803f
00000040: 186f 803f abd9 803f cd10 803f 79ab 803f
00000050: 514b e33e da67 223e 5c1a eabd 800d 9e39
00000060: 8783 4a3e a715 9eba f479 483d 7514 bbbd
00000070: 2ed2 e03e 1ec6 803f 7889 803f 5779 803f
00000080: f937 923e 7734 b83e 6e27 3439 0714 9c3e
00000090: 857b e13e 6425 bc3e cc74 633e ce81 ef3e
000000a0: 1186 5c3d 325f a5bc 46bb adbe 7352 01bf
000000b0: 65ec 77bf a182 80bf 3971 80bf 9e8d 80bf
000000c0: 6a46 80bf 8822 80bf 9e3f 80bf 7416 80bf
000000d0: a343 80bf aadc 5bbf b9fc 18bf b188 babe
000000e0: 8ee1 a9b6 3bee 603e 7349 363f 31b4 803f
000000f0: df46 803f df3a 803f 421e 803f f656 803f
00000100: 4149 133f 36fb 453e ce15 f2bb 8804 03bf
00000110: 968b 80bf 6e2c 81bf db92 80bf 3980 80bf
00000120: 7046 80bf 6d88 80bf 331a 80bf 7fdc f2be
00000130: 76fd 91be 3619 b03e 7953 fa3e 497a 363f
00000140: b474 803f 28c6 803f 2542 803f b52d 803f
00000150: ec32 803f 164e 2f3f 159d 7c38 f26b edbb
00000160: adaf aebc 6d1c 853e f2ad 5a38 0583 b73c
00000170: 7678 dc3e e235 803f af6c 803f 705e 803f
00000180: 1278 5cbf def3 e4be 1a69 c5be 98e6 de3b
00000190: baae 563e 8864 403f 23e7 803f b01b 803f
000001a0: 7251 803f fa37 803f b34a 803f a2f5 083f
000001b0: d929 aabd 0bd7 38bf 18be 80bf d971 80bf
000001c0: c73d 803f e94a 803f 9aab 743f 89cc 0e3f
000001d0: ca9b 84be 827b 80bf d542 80bf 9c35 80bf
000001e0: a964 80bf b812 21bf fa8a f5be 7790 dd37
000001f0: 433f 4b3f ff48 803f 5732 803f a65b 803f

weight f4 [8]
1.1191225 0.9702313 3.6388233 2.5703533 1.0623229 0.9995465 1.6174808 0.93426013
00000000: 683f 8f3f 1461 783f 7be2 6840 ab80 2440
00000010: 32fa 873f 48e2 7f3f 9c09 cf3f ac2b 6f3f

bias f4 [8]
-0.42825443 -1.4500749 0.12806438 -0.5391006 -0.36051753 -2.6199672 -0.39812368 -1.5357786
00000000: 2a44 dbbe 0e9c b9bf 4f23 033e 7f02 0abf
00000010: c195 b8be 8bad 27c0 ded6 cbbe 6594 c4bf

running_mean f4 [8]
-0.22834493 -0.27025685 0.03640701 0.23459823 0.37520564 -0.35814103 0.016518358 0.0016657483
00000000: 41d3 69be 1b5f 8abe 841f 153d 853a 703e
00000010: f41a c03e 435e b7be 8251 873c 3d55 da3a

running_var f4 [8]
0.21337384 0.20595147 0.09075769 0.13013014 0.09789051 0.36492527 0.11544176 0.0709314
00000000: ac7e 5a3e f1e4 523e 2bdf b93d d640 053e
00000010: d27a c83d 7cd7 ba3e bb6c ec3d 7b44 913d

weights f4 [1152, 1]
0.0003341385 -0.43784267 -0.00050205877 0.020161308 0.46712542 1.0019337 1.006621 0.81826633
0.30904496 0.45667458 0.37163702 -0.027873147 -1.0034596 -1.0062858 -1.0008236 -0.7449549
-0.011220733 0.95697236 0.37879574 -0.027865889 0.006596695 -0.0030074301 0.36037546 0.6344866
-0.051648617 -0.25509292 -0.2965134 -0.41515863 -1.0018448 -1.0030723 -1.0030414 0.059164677
0.012833224 1.0043517 1.002719 1.0028921 1.0071844 1.003484 1.0079601 1.0010477
1.004176 1.0028512 -0.051272854 -0.6862293 -1.0045478 -1.0013087 -1.0006405 -1.002985
1.0057061 0.23199083 0.007921025 -0.17968224 -0.96780294 -1.0012838 -1.0049106 -1.0030539
-1.0015615 -1.0047544 0.009243603 0.884963 -1.0064197 -1.0000986 -0.72387534 -0.004956323
0.2346062 1.0046881 1.0032257 1.0043137 1.0049716 1.0016322 0.8443971 0.67909765
-0.026350599 -0.017602392 -0.20037794 -0.03572664 -0.09770814 -0.087823704 0.9300178 -0.0008844051
0.14686942 1.0052385 0.34285715 0.0064382814 -0.16681926 -1.0005813 -0.22451496 -1.0055059
0.016911034 -0.08217501 0.07561082 -0.111128494 0.24397565 0.00010404031 -0.3668707 -1.0018196
-0.5740285 -0.04572018 0.23305345 -0.00017152824 0.16138014 0.013845739 0.019670917 0.50274605
1.0010111 0.24215282 -0.41702592 -1.001211 -0.6245168 -1.0026224 -1.0030804 -0.007905043
0.060439967 0.2553397 0.2409551 1.0121258 0.7888259 0.61506367 -0.112511925 -1.0018189
-1.0029362 -0.40263057 -0.04609895 0.004156764 0.07412926 -0.0131720435 1.00236 1.0041782
1.0037928 1.0018024 0.062027056 -0.81976223 -1.0066746 -1.0016165 -0.86360484 -0.69557685
-0.21398568 -0.07208448 1.0026581 1.001534 0.1683765 -1.0002077 -1.0027697 -0.8787114
-1.0016049 -0.4062801 0.0515975 0.11032524 0.33737314 1.0049137 0.28258833 0.076924555
-1.0054927 -1.0034631 -0.14781164 0.000140472 -0.001058877 -0.65426636 -1.0034711 -1.0027108
-0.5375941 -0.68666154 -0.068037875 0.8617437 0.66938543 0.7161774 0.22949629 0.0625816
0.14684498 -0.10884393 -0.14578585 -0.00024823114 -0.0022650154 0.47567055 1.0011309 1.0042646
1.0013065 0.0012646869 -1.0017898 -1.0043343 -1.0084409 -1.0030696 0.3495065 0.31726858
0.35609838 0.37488005 -0.15538083 0.88567525 0.8571063 0.28461927 0.090741314 -0.80976874
-0.60671836 -0.5575474 -1.0082768 -0.019422274 0.007779622 -0.27478895 -0.03276808 2.2598793e-05
0.08860366 0.059076034 0.66507024 0.50762916 -0.8175814 0.0281431 -1.0027901 -0.7813696
-0.41248038 0.00013103304 0.03389895 -0.02338513 -0.032785024 0.07777354 0.1680964 1.0028379
-0.71569055 0.00969268 -0.53551966 -0.018572012 0.6648013 1.0072585 1.0019487 0.36651215
-0.6189086 -0.6356225 -0.16925319 -0.023728143 -1.0034177 -1.0064807 -1.002784 -0.14876238
0.7088213 1.0012898 1.0028759 1.0018406 1.0034477 1.0031216 0.56356823 -1.0018669
-1.0002332 -0.9108846 -0.2615007 -3.882009e-06 -0.14529927 0.08002326 0.9415834 1.0032475
1.0031071 0.40192807 -0.39140785 -0.86022407 -0.92705643 -0.13008754 -0.012366194 -0.44492477
00000000: 4f2f af39 ea2c e0be 989c 03ba 5429 a53c
00000010: 102b ef3e 5d3f 803f f5d8 803f e779 513f
00000020: 243b 9e3e 40d1 e93e 3547 be3e 3a56 e4bc
00000030: 5d71 80bf f9cd 80bf fd1a 80bf 5db5 3ebf
00000040: 2ad7 37bc 24fc 743f 84f1 c13e 0147 e4bc
00000050: 1729 d83b 4e18 45bb 2283 b83e b76d 223f
00000060: 808d 53bd 8a9b 82be 9bd0 97be ac8f d4be
00000070: 733c 80bf ac64 80bf a963 80bf a956 723d
00000080: 7142 523c 998e 803f 1959 803f c55e 803f
00000090: 6beb 803f 2a72 803f d604 813f 5522 803f
000000a0: d788 803f 6e5d 803f 7c03 52bd b9ac 2fbf
000000b0: 0695 80bf e22a 80bf fd14 80bf d061 80bf
000000c0: faba 803f 018f 6d3e 30c7 013c 9ffe 37be
000000d0: efc1 77bf 112a 80bf e9a0 80bf 1264 80bf
000000e0: 2b33 80bf cb9b 80bf 7b72 173c ef8c 623f
000000f0: 5cd2 80bf 3b03 80bf e54f 39bf a768 a2bb
00000100: 9c3c 703e 9f99 803f b369 803f 5a8d 803f
00000110: e9a2 803f 7c35 803f 692a 583f 58d9 2d3f
00000120: 36dd d7bc e432 90bc e02f 4dbe 1956 12bd
00000130: 351b c8bd eadc b3bd a615 6e3f 6cd7 67ba
00000140: f064 163e a8ab 803f f98a af3e 38f8 d23b
00000150: abd2 2abe 0c13 80bf 40e7 65be 6bb4 80bf
00000160: 0289 8a3c 5f4b a8bd d8d9 9a3d 5697 e3bd
00000170: c1d4 793e 3730 da38 7ad6 bbbe a03b 80bf
00000180: 88f3 12bf 1545 3bbd 90a5 6e3e 43dc 33b9
00000190: d640 253e 3dd9 623c e724 a13c f7b3 003f
000001a0: 2221 803f e9f6 773e 6c84 d5be af27 80bf
000001b0: 55e0 1fbf ee55 80bf f064 80bf 2784 01bc
000001c0: e68f 773d e3bb 823e efbc 763e 578d 813f
000001d0: 7ff0 493f d074 1d3f a76c e6bd 9a3b 80bf
000001e0: 3760 80bf 9825 cebe 41d2 3cbd 7735 883b
000001f0: 15d1 973d 8ecf 57bc 554d 803f e988 803f
00000200: 487c 803f 103b 803f 1510 7e3d f0db 51bf
00000210: b7da 80bf f834 80bf 3515 5dbf 5311 32bf
00000220: 101f 5bbe 07a1 93bd 1a57 803f 4432 803f
00000230: e46a 2c3e ce06 80bf c25a 80bf 3bf3 60bf
00000240: 9734 80bf f203 d0be e657 533d 33f2 e13d
00000250: 2cbc ac3e 03a1 803f 6baf 903e 9f8a 9d3d
00000260: fcb3 80bf 7b71 80bf ef5b 17be aa4b 1339
00000270: 04ca 8aba 007e 27bf be71 80bf d458 80bf
00000280: c49f 09bf 0dc9 2fbf 7157 8bbd 3c9b 5c3f
00000290: d85c 2b3f 6757 373f 1301 6b3e c82a 803d
000002a0: 885e 163e 91e9 debd e348 15be 0525 82b9
000002b0: a770 14bb 178b f33e 0f25 803f be8b 803f
000002c0: d02a 803f dac3 a53a a63a 80bf 078e 80bf
000002d0: 9714 81bf 9664 80bf 84f2 b23e 0771 a23e
000002e0: 8752 b63e 47f0 bf3e 271c 1fbe 9dbb 623f
000002f0: 526b 5b3f 9eb9 913e 95d6 b93d 014d 4fbf
00000300: e551 1bbf 6dbb 0ebf 370f 81bf 761b 9fbc
00000310: 33ec fe3b 23b1 8cbe d237 06bd 8a92 bd37
00000320: d675 b53d b6f9 713d 0b42 2a3f fcf3 013f
00000330: 044d 51bf 5c8c e63c 6d5b 80bf d707 48bf
00000340: a130 d3be ea65 0939 a0d9 0a3d 2c92 bfbc
00000350: 9749 06bd bc47 9f3d 7621 2c3e fe5c 803f
00000360: 7f37 37bf 0cce 1e3c d117 09bf 5524 98bc
00000370: 6b30 2a3f d9ed 803f db3f 803f 7ba7 bb3e
00000380: cb70 1ebf 28b8 22bf b550 2dbe 8661 c2bc
00000390: fe6f 80bf 5cd4 80bf 3a5b 80bf 2a55 18be
000003a0: 5075 353f 442a 803f 3d5e 803f 503c 803f
000003b0: f970 803f 4a66 803f 0246 103f 2d3d 80bf
000003c0: a407 80bf bc2f 69bf 6be3 85be 3442 82b6
000003d0: 55c9 14be 3ce3 a33d 9c0b 713f 6a6a 803f
000003e0: d065 803f 84c9 cd3e 9c66 c8be a537 5cbf
000003f0: 9253 6dbf ab35 05be 949b 4abc 2ecd e3be

weight f4 [12]
1.3327377 1.7244762 0.990802 1.2075688 0.9907757 1.9403749 0.9542718 1.7845947
1.0836046 0.9257037 0.60245 1.5723591
00000000: 2697 aa3f a3bb dc3f 33a5 7d3f 9d91 9a3f
00000010: 7aa3 7d3f 345e f83f 284b 743f 996d e43f
00000020: 8eb3 8a3f ebfa 6c3f 2a3a 1a3f 1043 c93f

bias f4 [12]
-1.742726 -0.03448179 -0.64165115 -1.5569006 -0.6475011 -1.3072186 -1.1129837 0.1876191
-0.056999832 -1.1767304 -0.41777825 -1.0573944
00000000: a511 dfbf c73c 0dbd 4043 24bf 8548 c7bf
00000010: a2c2 25bf f052 a7bf 4076 8ebf 391f 403e
00000020: a878 69bd 1a9f 96bf 08e7 d5be b358 87bf

running_mean f4 [12]
5.3538094 5.112072 1.6695949 -6.828659 -1.4984467 5.8352327 -1.2278265 8.199817
-7.0249157 1.976108 0.5877544 0.43340206
00000000: 6852 ab40 1896 a340 49b5 d53f 6084 dac0
00000010: 1acd bfbf 3aba ba40 6b29 9dbf 7332 0341
00000020: 1ccc e0c0 1bf1 fc3f 1377 163f e0e6 dd3e

running_var f4 [12]
32.445065 38.95794 21.64669 43.53146 19.917324 42.709602 33.35704 34.918465
39.219044 17.223238 10.852493 33.90896
00000000: bfc7 0142 eed4 1b42 6c2c ad41 3720 2e42
00000010: ae56 9f41 a2d6 2a42 9c6d 0542 82ac 0b42
00000020: 4de0 1c42 31c9 8941 d0a3 2d41 c6a2 0742

weights f4 [3456, 1]
-1.0059351 -0.1565464 0.4972262 0.23994584 -0.6810244 1.0030395 1.0010626 1.0028361
-1.002506 -0.003539237 0.035126343 0.008518874 -0.65287703 0.010830357 -0.054239575 -0.06553243
0.01975312 -0.35097855 0.073395036 0.05210709 -0.059694003 -0.32550514 1.0025101 1.0029502
1.0032992 -0.035784375 -1.0024178 -1.003859 -0.06712331 0.39836884 -0.021036273 0.013927724
1.0040224 1.0060873 -0.34244063 -1.0016806 -0.537073 -0.7588127 -0.7647859 -3.4185305e-05
0.43918163 0.5492875 1.0031534 0.40899396 -1.0093313 1.0013778 1.00567 0.85122955
-1.0008427 -1.0025424 -0.0053970697 0.39465758 0.08450998 -1.0019277 -0.27029556 0.40096664
-0.28749913 -0.77491415 0.12002074 1.0061873 1.0015392 -0.0057622986 -1.0037521 -0.46276945
0.04731947 -0.64254534 -0.14241149 -0.0010267684 0.5434948 -0.012406396 -0.35044163 -0.43188155
0.83265597 0.5587632 -0.016900226 -0.44112638 0.13819936 0.23940632 0.80407774 0.2646545
-0.06646963 -0.0362101 -0.3926781 0.011002496 -0.53423625 -0.283123 0.6541898 1.0006506
0.4752756 0.9086387 -0.76854134 0.034404222 -0.037567377 -0.0012635298 -0.69317305 -0.014815411
0.8004135 1.002435 -0.00863916 0.033545647 0.6391561 0.26039094 -0.35975972 0.08609038
1.0033756 0.888074 -8.0905105e-05 -1.0023857 -1.0023503 0.00053740654 0.43195254 0.01433616
-0.10014055 -1.0051855 -0.8340913 -1.0011902 0.003645677 0.15870976 1.0038106 -0.02127643
0.4734393 0.25003025 -0.76384026 -0.96841484 -0.6382816 -1.0021287 0.032785457 0.49954098
0.5223663 -0.00017457813 -0.17028338 -0.33966208 -0.09496916 0.03643654 -0.0002533425 -0.4388543
0.008695697 0.2522825 0.63259554 0.48166886 -0.58553225 -1.0045861 -1.0052317 1.0084169
-0.6143547 -1.0016485 -0.39405075 0.002737865 0.21705717 -0.23936366 -0.4869041 -0.8214872
0.49453825 0.7751397 1.0021918 0.26220533 -0.25055593 0.68343997 -0.044258032 -0.9350009
-0.50099164 -1.001871 -1.0030783 0.5600943 0.9264165 0.55097497 -0.2508858 -1.0064692
-1.0022181 -1.0076345 -1.0052748 -0.13815327 0.07719445 0.2549016 0.0024165844 0.036186885
-0.40442947 -1.0049387 -1.0049559 -1.0024384 -0.13108724 -8.148721e-05 -0.0142345 4.6018213e-06
-0.2460578 0.23481376 1.0021038 1.0041777 0.62008905 -0.77799976 -0.64054555 -0.04228544
-0.20140257 -0.07010244 0.4075075 1.0027168 1.001921 0.7656138 -0.009195557 1.0021116
1.0037163 0.00011170267 -1.0015445 -0.61540383 -0.114291415 0.11106026 0.009064058 -0.16157258
0.7632084 0.8661593 0.25973785 -0.046268508 0.622331 -0.47942415 -0.5039109 -0.06437043
0.3860112 -0.5845035 -1.0039456 -0.41161034 0.2795774 0.033187862 1.0007693 1.0082836
1.0021149 -0.22147541 0.6852926 0.61200905 -0.10082652 -0.005121498 -0.12868732 0.043716382
1.0043465 0.4310727 -1.0012144 0.04628286 -0.06989603 -0.123447485 -0.30036756 0.78471565
1.0049614 1.0070322 -0.46558264 -0.38235906 -1.0041058 0.111262195 0.7765427 0.1494228
0.112824194 1.0016048 1.0034536 0.50650215 -0.38719055 0.36131734 -0.05959301 -0.8261127
00000000: 7bc2 80bf b34d 20be 6f94 fe3e 5db4 753e
00000010: 9d57 2ebf 9963 803f d222 803f ef5c 803f
00000020: 1e52 80bf 8bf2 67bb a4e0 0f3d bf92 0b3c
00000030: f322 27bf cf71 313c 512a 5ebd de35 86bd
00000040: 4cd1 a13c 76b3 b3be 2350 963d 3e6e 553d
00000050: b381 74bd 9ca8 a6be 4052 803f ac60 803f
00000060: 1c6c 803f a392 12bd 3a4f 80bf 747e 80bf
00000070: f277 89bd 00f7 cb3e 4354 acbc 1c31 643c
00000080: ce83 803f 78c7 803f 6154 afbe 1237 80bf
00000090: 9e7d 09bf 8d41 42bf 02c9 43bf 3162 0fb8
000000a0: 6adc e03e 1b9e 0c3f 5567 803f a867 d13e
000000b0: c531 81bf 262d 803f cbb9 803f 2eea 593f
000000c0: 9d1b 80bf 4f53 80bf e7d9 b0bb 8f10 ca3e
000000d0: 9213 ad3d 2b3f 80bf 2e64 8abe 804b cd3e
000000e0: 1633 93be c660 46bf 6fcd f53d bfca 803f
000000f0: 7032 803f aad1 bcbb f37a 80bf 1ef0 ecbe
00000100: 10d2 413d da7d 24bf 51d4 11be a194 86ba
00000110: 7a22 0b3f 3244 4bbc 166d b3be 941f ddbe
00000120: f128 553f 1b0b 0f3f 5872 8abc 51db e1be
00000130: 2284 0d3e ee26 753e 0ad8 4d3f cb80 873e
00000140: 3b21 88bd 0b51 14bd 1b0d c9be d043 343c
00000150: b5c3 08bf 7ff5 90be fc78 273f 5215 803f
00000160: 5357 f33e 8c9c 683f 20bf 44bf 71eb 0c3d
00000170: 40e0 19bd 069d a5ba ca73 31bf 56bc 72bc
00000180: e6e7 4c3f ca4f 803f 438b 0dbc 2967 093d
00000190: bc9f 233f f651 853e 6d32 b8be 2750 b03d
000001a0: 9d6e 803f d158 633f 99ab a9b8 2d4e 80bf
000001b0: 044d 80bf bee0 0c3a e228 dd3e 37e2 6a3c
000001c0: 7d16 cdbd eba9 80bf 0287 55bf 0027 80bf
000001d0: 4fec 6e3b d084 223e de7c 803f e84b aebc
000001e0: a366 f23e f703 803e 098b 43bf 09ea 77bf
000001f0: 6c66 23bf c145 80bf 0b4a 063d d6c3 ff3e
00000200: ccb9 053f f60e 37b9 c45e 2ebe 30e8 adbe
00000210: 317f c2bd 7b3e 153d 0ed3 84b9 83b1 e0be
00000220: 6678 0e3c 2c2b 813e c8f1 213f 4d9d f63e
00000230: 71e5 15bf 4796 80bf 6fab 80bf ce13 813f
00000240: 5a46 1dbf 0536 80bf 05c1 c9be c16d 333b
00000250: 3c44 5e3e bf1b 75be 7f4b f9be fc4c 52bf
00000260: 1e34 fd3e 8e6f 463f d247 803f c73f 863e
00000270: de48 80be ecf5 2e3f e947 35bd 385c 6fbf
00000280: fd40 00bf 4f3d 80bf df64 80bf 5762 0f3f
00000290: a229 6d3f b20c 0d3f 1b74 80be fcd3 80bf
000002a0: af48 80bf 2bfa 80bf d8ac 80bf 0d78 0dbe
000002b0: 2018 9e3d 7682 823e 8f5f 1e3b b338 143d
000002c0: 6111 cfbe d5a1 80bf 65a2 80bf e74f 80bf
000002d0: bc3b 06be 1de4 aab8 d237 69bc 5869 9a36
000002e0: 93f6 7bbe 0573 703e f044 803f e588 803f
000002f0: 28be 1e3f fe2a 47bf cbfa 23bf 7f33 2dbd
00000300: 7a3c 4ebe de91 8fbd d3a4 d03e 0659 803f
00000310: f33e 803f 44ff 433f f6a8 16bc 3145 803f
00000320: c779 803f ea41 ea38 9c32 80bf 1b8b 1dbf
00000330: 9e11 eabd 9073 e33d 6a81 143c 4873 25be
00000340: a061 433f 9ebc 5d3f 5cfc 843e 0c84 3dbd
00000350: 1651 1f3f 1577 f5be 4e00 01bf a5d4 83bd
00000360: 43a3 c53e 05a2 15bf 4a81 80bf 97be d2be
00000370: c524 8f3e ffef 073d 3519 803f 700f 813f
00000380: 4d45 803f 73ca 62be 566f 2f3f a0ac 1c3f
00000390: 227e cebd 3dd2 a7bb 9cc6 03be f30f 333d
000003a0: 6d8e 803f 90b5 dc3e cb27 80bf 1993 3d3d
000003b0: a625 8fbd 09d2 fcbd c7c9 99be 20e3 483f
000003c0: 93a2 803f 6ee6 803f d960 eebe 91c4 c3be
000003d0: 8a86 80bf 6fdd e33d 81cb 463f 4a02 193e
000003e0: 5f10 e73d 9634 803f 2b71 803f 20aa 013f
000003f0: d73d c6be 96fe b83e cd17 74bd 1f7c 53bf

weight f4 [32]
0.974625 1.3104905 1.0527353 0.897336 1.0557872 2.0512192 1.3125106 1.3823664
1.1305197 1.2076907 1.1760837 1.1374377 1.6770865 1.5607046 0.76555765 1.1016594
1.1986612 1.0659578 1.0168993 1.301656 1.0478891 1.9542763 1.24827 0.98316085
1.1576141 0.8897842 1.1685758 1.0301303 1.1984162 0.9558079 1.0235268 1.4111117
00000000: 0681 793f 27be a73f 08c0 863f d0b7 653f
00000010: 0924 873f 2d47 0340 5900 a83f 62f1 b03f
00000020: dfb4 903f 9c95 9a3f e989 963f 8f97 913f
00000030: c5aa d63f 2bc5 c73f 96fb 433f 2d03 8d3f
00000040: bb6d 993f 4e71 883f c229 823f aa9c a63f
00000050: 3b21 863f ba25 fa3f 50c7 9f3f 6eb0 7b3f
00000060: b32c 943f e6c8 633f e493 953f 4fdb 833f
00000070: b465 993f d4af 743f ed02 833f 4f9f b43f

bias f4 [32]
-1.1290897 0.55178183 -1.6165135 -1.3672223 0.80233145 1.2239317 -0.51766855 0.46704823
-1.377045 -0.56102955 -0.4727679 -0.7477216 -0.5840919 0.52300197 -0.38659832 -1.4414346
0.5023141 -1.2377502 -1.7011203 -0.100074336 -1.0673916 0.26216972 -1.0714316 -0.99752706
-1.4324721 -0.22347496 -0.58284265 -1.4273496 -0.93219084 -0.48282403 -0.92235005 -0.0025117449
00000000: 0386 90bf 9341 0d3f eae9 cebf 2401 afbf
00000010: 9865 4d3f cba9 9c3f ed85 04bf f220 ef3e
00000020: 0343 b0bf a29f 0fbf a20e f2be af6a 3fbf
00000030: 0c87 15bf 75e3 053f 37f0 c5be ee80 b8bf
00000040: a897 003f 996e 9ebf 4fbe d9bf c6f3 ccbd
00000050: 4aa0 88bf 1c3b 863e ac24 89bf ef5d 7fbf
00000060: 3f5b b7bf 9fd6 64be 2d35 15bf 64b3 b6bf
00000070: 0fa4 6ebf b634 f7be 221f 6cbf 169c 24bb

running_mean f4 [32]
5.343101 9.967712 1.7557656 3.7152271 9.059154 11.734212 5.3952317 4.338038
9.018669 4.010822 10.364362 9.205458 6.8602123 -3.6792135 7.932323 3.5462596
-0.695196 0.42974588 3.3108432 5.5837727 3.4066777 8.893528 5.8681107 -2.016442
5.306488 8.235884 9.044548 1.2514004 7.1640525 4.3995585 5.3948727 10.889479
00000000: affa aa40 c07b 1f41 edbc e03f 48c6 6d40
00000010: 4bf2 1041 55bf 3b41 bda5 ac40 35d1 8a40
00000020: 784c 1041 a758 8040 6dd4 2541 8e49 1341
00000030: dc86 db40 3c78 6bc0 97d5 fd40 ebf5 6240
00000040: 5df8 31bf a707 dc3e dbe4 5340 44ae b240
00000050: 0207 5a40 e44b 0e41 90c7 bb40 630d 01c0
00000060: c0ce a940 2ec6 0341 78b6 1041 e32d a03f
00000070: eb3f e540 2fc9 8c40 cca2 ac40 4e3b 2e41

running_var f4 [32]
14.688923 20.28157 27.374744 22.841158 19.344393 43.68613 28.848396 17.120754
21.699837 28.262123 23.197184 20.45821 33.716305 44.87683 23.431522 22.219225
34.015102 21.26937 26.789639 23.591536 17.184052 40.706444 33.817974 20.296278
16.547968 16.365776 17.0218 27.2027 22.187185 20.087425 17.083008 36.518482
00000000: d405 6b41 a840 a241 7aff da41 b1ba b641
00000010: 51c1 9a41 99be 2e42 84c9 e641 4ef7 8841
00000020: 4499 ad41 d418 e241 d593 b941 6aaa a341
00000030: 7fdd 0642 e081 3342 c273 bb41 f9c0 b141
00000040: 770f 0842 ab27 aa41 2e51 d641 77bb bc41
00000050: f078 8941 66d3 2242 9b45 0742 c75e a241
00000060: 3d62 8441 1ced 8241 a52c 8841 219f d941
00000070: 5b7f b141 0cb3 a041 00aa 8841 ed12 1242

weights f4 [14336, 1]
1.0050287 0.6118152 -0.23464932 -0.24526456 -0.40275568 0.50425684 0.0150927575 -0.24285123
-0.10703993 0.051942654 -0.18502459 -0.84464175 -0.9693788 -0.40502036 0.57522565 0.5545603
0.6493009 -0.075171985 -0.43643218 -0.23742972 -0.3152882 1.0010498 0.51872 -0.0050388295
-0.08846483 -0.4995691 0.09069156 -0.17378055 -0.50963384 -0.4300981 0.13549969 0.43495902
0.2774594 0.046938077 -0.013679072 -1.0044612 -1.0033242 0.05154605 0.46989742 1.0006002
1.0023499 -0.17987145 -0.03353525 -0.052991025 0.11325189 -0.46914092 -1.0017444 -0.30364203
0.38079804 0.057478644 0.15541604 0.8688098 0.5691111 -0.41837087 -0.122335725 -1.0037223
0.056802012 0.19592023 0.32325938 0.12699147 -0.32011464 -0.7871295 0.30689746 -0.13647696
0.20681486 0.23571323 -0.036894843 -0.6482688 -0.3598049 0.06933162 -0.005067046 -0.09430884
-0.7758202 -0.5853163 -0.5803095 0.062612616 0.06815565 -0.32622173 -0.4491247 -0.5024883
0.36287567 1.0047952 0.11854325 -0.047605313 -0.22812325 -0.13003165 -0.11822742 -0.14511085
0.3572174 0.091250435 -0.06667247 -0.0108884955 -0.07766955 -0.14600626 0.06714537 -0.40221584
-0.27096525 -0.3867279 0.26047254 0.10918265 0.02039202 0.23543839 -0.2601179 -0.47045276
-0.2687716 0.59523654 0.48765936 -0.23874664 -0.3967397 -0.71537143 -0.16578776 -0.06068559
-0.13016431 -0.40598807 -0.16019833 -0.2758671 -0.15766606 -0.21272734 -0.06504087 -0.11723573
0.78200203 0.32141817 0.011336978 -1.003662 -0.29544288 0.12831281 0.36931685 0.8577129
0.6889424 0.33376497 0.00013950543 -0.33361682 0.33436847 -0.5065267 0.08835862 -0.013760319
0.34810445 0.050773583 -0.42164657 -1.004378 0.016689396 0.5255987 0.1122123 0.6068996
0.027996829 -0.16098249 -0.4252025 -0.027578937 -1.0020066 -0.12677231 0.6098478 0.10729055
1.0025835 0.33254504 0.14739043 1.0012954 1.0015346 1.0023888 1.0062929 1.0051081
0.36031458 0.11737676 0.668536 0.5662423 0.78653455 1.0021213 -0.2911616 0.11688911
-0.5890847 0.29950893 0.05496326 0.3146316 0.33358076 0.49253148 1.0063612 -0.04815031
0.76259613 0.477219 0.20911214 0.051465433 0.37733862 0.6045304 0.31498966 0.35716924
0.013793477 -0.51500094 -1.0034865 -0.27183005 0.5406294 0.95827967 0.54654825 -0.07678559
-0.014675689 0.07160246 0.078292884 -0.076493606 0.6668456 0.45144996 0.046324965 -0.541188
0.13520037 0.22071522 0.0002861342 -0.45419103 -0.1755462 0.31572217 0.6009656 -0.07490239
-0.22438216 -0.38850892 -0.091360934 0.22874181 0.13634141 -0.5834632 -0.053117808 0.6112185
1.0009332 -0.6992401 -0.07888008 0.3077317 0.47156584 0.24358675 -0.21176878 -0.42238936
0.20750554 -0.44408944 0.6263777 0.3717908 -0.070975766 -1.003469 0.24918653 -0.06902831
0.8639959 0.88779527 -1.0050288 0.0044153365 0.00080123055 -0.5359905 -1.0045761 -0.81463665
0.20586835 0.10036165 -0.19699383 -1.0005118 0.6770425 -0.011034647 -0.12023225 0.27918655
0.025198376 -0.061013635 -1.0029838 0.65709287 0.8020417 0.20873128 0.15196851 1.0009688
00000000: c8a4 803f ec9f 1c3f e947 70be a226 7bbe
00000010: fe35 cebe fa16 013f 9d47 773c fead 78be
00000020: c037 dbbd d2c1 543d 1677 3dbe 713a 58bf
00000030: 3629 78bf d45e cfbe fd41 133f aaf7 0d3f
00000040: 9538 263f c5f3 99bd 0a74 dfbe c720 73be
00000050: 746d a1be 6622 803f d5ca 043f c41c a5bb
00000060: 0c2d b5bd 85c7 ffbe 7fbc b93d 87f3 31be
00000070: 5d77 02bf d135 dcbe 6ec0 0a3e f3b2 de3e
00000080: 290f 8e3e 2442 403d 301e 60bc 2f92 80bf
00000090: ed6c 80bf f321 533d 6596 f03e ab13 803f
000000a0: 004d 803f 3930 38be 425c 09bd 1e0d 59bd
000000b0: 9bf0 e73d 3d33 f0be 2939 80bf f876 9bbe
000000c0: f6f7 c23e ba6e 6b3d 6225 1f3e 526a 5e3f
000000d0: 44b1 113f b534 d6be 278b fabd f979 80bf
000000e0: 3aa9 683d 509f 483e 4182 a53e 0d0a 023e
000000f0: 11e6 a3be 5281 49bf aa21 9d3e 9ec0 0bbe
00000100: 46c7 533e cf5e 713e 0c1f 17bd f2f4 25bf
00000110: 5938 b8be bdfd 8d3d 7609 a6bb fe24 c1bd
00000120: 279c 46bf 4ad7 15bf 2a8f 14bf 0b3b 803d
00000130: 3095 8b3d 8906 a7be acf3 e5be 13a3 00bf
00000140: d7ca b93e 219d 803f cec6 f23d cafd 42bd
00000150: 2499 69be 0427 05be 3821 f2bd f097 14be
00000160: 33e5 b63e 82e1 ba3d 938b 88bd a965 32bc
00000170: 3711 9fbd aa82 15be 8383 893d 3cef cdbe
00000180: f5bb 8abe 3301 c6be a85c 853e 279b df3d
00000190: 2a0d a73c c316 713e 2c2e 85be 2fdf f0be
000001a0: 6e9c 89be 6c61 183f 7dae f93e 007a 74be
000001b0: 7721 cbbe 9522 37bf 44c4 29be 7491 78bd
000001c0: cb49 05be abdd cfbe 080b 24be 743e 8dbe
000001d0: 3673 21be 32d5 59be 2634 85bd 4919 f0bd
000001e0: 4931 483f ec90 a43e bbbe 393c ff77 80bf
000001f0: 4a44 97be 6f64 033e 1917 bd3e 1393 5b3f
00000200: 875e 303f 3ee3 aa3e 3448 1239 d3cf aabe
00000210: 5832 ab3e bcab 01bf 5df5 b43d f672 61bc
00000220: bf3a b23e f6f7 4f3d 0fe2 d7be 758f 80bf
00000230: 33b8 883c a38d 063f 90cf e53d c65d 1b3f
00000240: 9b59 e53c 98d8 24be 24b4 d9be 39ed e1bc
00000250: c141 80bf 9ad0 01be fc1e 1c3f 26bb db3d
00000260: a854 803f 5843 aa3e 84ed 163e 732a 803f
00000270: 4932 803f 474e 803f 35ce 803f 62a7 803f
00000280: 277b b83e 3a63 f03d 2d25 2b3f 41f5 103f
00000290: 545a 493f 8345 803f 2213 95be 8f63 ef3d
000002a0: 41ce 16bf 3c59 993e 2821 613d 6517 a13e
000002b0: 19cb aa3e 162d fc3e 72d0 803f 4239 45bd
000002c0: 8039 433f 0c56 f43e 7e21 563e 6bcd 523d
000002d0: 8732 c13e 81c2 1a3f 5346 a13e e3de b63e
000002e0: 09fe 613c 1ad7 03bf 3f72 80bf 4f2d 8bbe
000002f0: b066 0a3f d151 753f 96ea 0b3f c341 9dbd
00000300: 4d72 70bc 50a4 923d 0558 a03d aea8 9cbd
00000310: 65b6 2a3f 7324 e73e 3fbf 3d3d 4c8b 0abf
00000320: f771 0a3e 2c03 623e 4804 9639 ba8b e8be
00000330: 62c2 33be 56a6 a13e e2d8 193f 6d66 99bd
00000340: 70c4 65be a4ea c6be 711b bbbd 4b3b 6a3e
00000350: 159d 0b3e d85d 15bf 0f92 59bd d178 1c3f
00000360: 941e 803f 6601 33bf e18b a1bd 028f 9d3e
00000370: 1471 f13e ce6e 793e ead9 58be 6b43 d8be
00000380: 557c 543e b15f e3be 4a5a 203f 5d5b be3e
00000390: be5b 91bd ac71 80bf c12a 7f3e b75e 8dbd
000003a0: d62e 5d3f 8d46 633f c9a4 80bf 87ae 903b
000003b0: ac09 523a ac36 09bf f395 80bf 078c 50bf
000003c0: 27cf 523e 698a cd3d c0b8 49be c510 80bf
000003d0: a852 2d3f aaca 34bc 533c f6bd 8af1 8e3e
000003e0: d36c ce3c 6fe9 79bd c661 80bf 3d37 283f
000003f0: 9b52 4d3f a7bd 553e a29d 1b3e bf1f 803f

weight f4 [64]
1.2562075 1.3301717 1.2079375 0.936957 0.8926708 1.0853962 1.6620425 0.9627296
0.9275517 1.391411 1.2359796 1.0467937 1.8693818 1.2517415 1.2719909 1.2823651
1.0608019 1.1115106 1.0547734 1.2399371 1.1944183 0.983969 0.78803295 1.928145
1.1339654 0.68852025 1.0426322 1.0313153 0.98756415 0.8065932 1.0681244 0.9220054
1.1448034 1.082286 0.9770616 1.1373845 1.2317832 1.3951887 1.3634845 1.5662563
1.3759772 1.3613367 0.8107579 1.0283171 1.4106268 0.93180174 1.0114821 1.0575371
0.77345276 0.81762016 1.0777558 0.83966196 0.86800665 1.0228139 0.92847294 1.4212633
1.0056943 1.0017191 0.99947333 1.4603072 1.0050136 0.7164453 0.59775996 1.4502455
00000000: 68cb a03f 1143 aa3f b29d 9a3f 6adc 6f3f
00000010: 1386 643f 43ee 8a3f cfbd d43f 7275 763f
00000020: 0774 6d3f c119 b23f 9434 9e3f 56fd 853f
00000030: e747 ef3f 1139 a03f 99d0 a23f 8a24 a43f
00000040: 5bc8 873f fb45 8e3f d102 873f 42b6 9e3f
00000050: b3e2 983f 64e5 7b3f 87bc 493f 75cd f63f
00000060: c725 913f dd42 303f f974 853f 2402 843f
00000070: 01d1 7c3f e47c 4e3f 4db8 883f 8c08 6c3f
00000080: eb88 923f 5988 8a3f b620 7a3f d195 913f
00000090: 12ab 9d3f 8b95 b23f a986 ae3f 167b c83f
000000a0: 0520 b03f 4840 ae3f d48d 4f3f e59f 833f
000000b0: 6b8f b43f 8f8a 6e3f 3f78 813f 605d 873f
000000c0: 0001 463f 8e4f 513f e7f3 893f 16f4 563f
000000d0: af35 5e3f 91eb 823f 67b0 6d3f f5eb b53f
000000e0: 97ba 803f 5538 803f 7cdd 7f3f 59eb ba3f
000000f0: 49a4 803f f668 373f cc06 193f a5a1 b93f

bias f4 [64]
-1.3883436 -0.6383938 -0.5356291 -0.4039886 -1.3115102 -1.3536861 -0.4454507 -1.5811356
-0.7853341 -0.5156224 -1.025019 -1.0975121 -0.20901464 -1.1119775 -0.9026418 -0.0002392038
-0.16020346 -1.733652 -0.6683672 -1.2740611 -0.5209312 -0.12118894 -1.3661971 0.08718362
-0.34612715 -1.1869638 0.5679246 -0.13779254 -1.1738212 -1.2409233 -1.1467574 -0.35768473
-0.06515192 -1.404546 -1.2230678 0.06974087 0.26373097 -0.30165157 -0.19236514 -0.51773936
0.09698524 -0.7640192 -1.236991 -0.60690975 -0.90791476 -1.6626064 -1.1158476 -0.62458783
-1.2378067 -1.1578577 -1.0113267 -0.6653428 0.6085905 -0.91371214 -0.11519202 -0.8706195
-1.4256129 -0.942763 -0.49339825 -0.950468 -0.8264226 -1.2219939 -1.286893 -0.15395804
00000000: 3eb5 b1bf c76d 23bf fd1e 09bf 98d7 cebe
00000010: 91df a7bf 9645 adbf 1d12 e4be a762 cabf
00000020: a80b 49bf d4ff 03bf d333 83bf 477b 8cbf
00000030: ef07 56be 4755 8ebf 8813 67bf c8d2 7ab9
00000040: 600c 24be 4fe8 ddbf 1d1a 2bbf 6f14 a3bf
00000050: bf5b 05bf e831 f8bd 8cdf aebf 538d b23d
00000060: 9437 b1be 6eee 97bf 8263 113f 7d19 0dbe
00000070: c63f 96bf 93d6 9ebf f2c8 92bf 7422 b7be
00000080: 5f6e 85bd 2ac8 b3bf 7c8d 9cbf 4dd4 8e3d
00000090: bf07 873e 1372 9abe 5efb 44be 918a 04bf
000000a0: 33a0 c63d c396 43bf b955 9ebf 705e 1bbf
000000b0: 1a6d 68bf 49d0 d4bf 18d4 8ebf fde4 1fbf
000000c0: 7370 9ebf ae34 94bf 2773 81bf e853 2abf
000000d0: 96cc 1b3f 0ae9 69bf cbe9 ebbd ebe0 5ebf
000000e0: 7c7a b6bf ea58 71bf b29e fcbe df51 73bf
000000f0: 6e90 53bf 4c6a 9cbf e9b8 a4bf 2da7 1dbe

running_mean f4 [64]
-3.2255323 11.592317 12.595242 -1.3190168 -8.655632 15.258766 1.1150572 6.529572
8.921325 -13.091309 14.021208 17.176847 -0.6048493 17.0699 7.513348 0.5293524
4.8470445 2.7744439 9.65565 -1.4644645 7.4407706 -8.357859 2.8826263 3.9375288
1.225189 -6.844053 -13.5601015 5.0022883 7.2896194 -1.5486473 7.7706137 2.4416828
5.995339 5.824897 -6.732514 0.84732926 1.2314202 -2.4230816 -7.4511595 11.820913
12.5803 3.1975832 6.482035 -1.6272576 -10.893442 2.1976275 1.8721292 12.732104
5.3969245 3.272711 1.8630114 2.8632133 -8.34476 3.529597 11.491703 0.09010968
-1.9333118 -12.897577 9.58949 7.3462443 -1.7583537 -2.0812585 -8.357167 -0.10354626
00000000: 1f6f 4ec0 217a 3941 1c86 4941 8bd5 a8bf
00000010: 787d 0ac1 e823 7441 32ba 8e3f 41f2 d040
00000020: bfbd 0e41 0076 51c1 de56 6041 2f6a 8941
00000030: 67d7 1abf 288f 8841 596d f040 a483 073f
00000040: fd1a 9b40 7d90 3140 8b7d 1a41 9373 bbbf
00000050: cb1a ee40 cab9 05c1 f37c 3840 7900 7c40
00000060: fed2 9c3f 7b02 dbc0 2df6 58c1 bf12 a040
00000070: 9044 e940 133a c6bf dea8 f840 8844 1c40
00000080: d1d9 bf40 8e65 ba40 c170 d7c0 92ea 583f
00000090: 2d9f 9d3f c513 1bc0 e66f eec0 7622 3d41
000000a0: e948 4941 34a5 4c40 d56c cf40 fa49 d0bf
000000b0: 8a4b 2ec1 eea5 0c40 eea1 ef3f b3b6 4b41
000000c0: 9bb3 ac40 1974 5140 2877 ee3f e33e 3740
000000d0: 2384 05c1 ebe4 6140 04de 3741 6d8b b83d
000000e0: c376 f7bf 7a5c 4ec1 8d6e 1941 6f14 eb40
000000f0: bc11 e1bf 5733 05c0 f5b6 05c1 1010 d4bd

running_var f4 [64]
47.686638 27.537525 41.180923 33.390385 47.05115 47.57405 67.382935 32.625923
30.793797 72.29069 47.69856 37.379925 50.70154 45.11721 30.65185 40.69872
44.961967 32.05743 40.210587 49.021206 38.12319 37.02243 31.713533 65.71437
43.437027 39.92085 66.68208 35.55364 25.717257 23.399733 41.109207 34.301613
27.172178 36.61508 33.760574 40.150833 37.687454 68.1805 90.39493 34.928925
53.250217 46.790543 39.792793 30.64007 43.38325 28.593517 41.48131 28.148457
19.08148 39.441406 34.81647 23.528057 52.424427 46.0641 37.51124 73.18495
42.818104 39.20411 28.47076 62.596725 38.195496 28.372936 28.796757 48.9148
00000000: 1ebf 3e42 da4c dc41 44b9 2442 c18f 0542
00000010: 6134 3c42 d44b 3e42 10c4 8642 f280 0242
00000020: b259 f641 d594 9042 53cb 3e42 0b85 1542
00000030: 61ce 4a42 0678 3442 fd36 f541 7dcb 2242
00000040: 0ed9 3342 cf3a 0042 a4d7 2042 b715 4442
00000050: 267e 1842 f816 1442 51b5 fd41 c26d 8342
00000060: 84bf 2d42 f3ae 1f42 3a5d 8542 ed36 0e42
00000070: f1bc cd41 a732 bb41 d46f 2442 da34 0942
00000080: 9f60 d941 d875 1242 d40a 0742 749a 2042
00000090: f4bf 1642 6a5c 8842 34ca b442 38b7 0b42
000000a0: 3900 5542 8429 3b42 d22b 1f42 dd1e f541
000000b0: 7388 2d42 86bf e441 ddec 2542 0a30 e141
000000c0: dfa6 9841 00c4 1d42 1144 0b42 7639 bc41
000000d0: 9db2 5142 a341 3842 820b 1642 b25e 9242
000000e0: bd45 2b42 02d1 1c42 1ec4 e341 0c63 7a42
000000f0: 30c8 1842 c6fb e241 c25f e641 c1a8 4342

weights f4 [20480, 1]
0.80360216 0.22805627 0.25104508 -0.47418532 0.44034997 -1.0006676 0.17969254 -0.38520163
-0.09768775 -0.23189336 0.048969146 0.37872905 0.015129739 -0.048259906 -0.016617272 0.086306095
-0.0077632284 -0.024134964 -0.071775615 -0.041110866 0.7139623 0.5711754 -0.14810388 0.093606345
1.0039802 0.052278407 0.61236346 0.018085133 0.6901907 0.19121256 0.0007898095 0.36586013
0.45079052 0.7146169 -0.18740538 1.0021315 1.0013287 0.039327994 0.02249845 -0.261401
0.09250918 0.6293844 -0.3376043 -0.009322303 -0.10293261 0.100802794 0.045154184 1.0006448
-0.2292003 -0.3851449 0.5401219 0.7712202 0.28737292 0.3571068 0.55261517 0.4825967
1.0065795 1.002578 0.33366525 0.0976657 -1.0040036 -0.6171315 0.14810424 -0.06550331
-0.47092173 0.43738827 1.0027869 0.9624255 0.32398525 0.34382606 0.40654406 0.15967426
-0.029182814 -0.054607976 0.00081580813 0.017075973 0.19737223 -0.016835198 0.18936919 0.52083623
-0.48821002 -0.18290006 -0.06333083 0.12145647 -0.100322 0.8136053 0.60059446 0.102317095
-0.75382966 -0.48347124 -0.15720172 0.24871501 0.007877718 0.055056743 0.024162259 0.6587921
0.5880314 1.003858 -0.42101008 -0.048534647 -0.23572385 -0.15523264 0.05863429 -0.22060068
-0.13469939 0.49727485 0.27695557 -0.012359889 -0.06306161 0.3671365 1.0036259 1.0038422
0.2102204 0.75866294 0.77084875 -0.15143652 0.03831474 0.30553415 -0.02807881 0.29595345
-0.17018473 0.2731362 1.0028453 0.09231177 -0.11222512 0.3805446 1.0049872 -0.011095208
0.6153003 1.0047423 -0.92749125 -0.36741477 0.44672403 -0.35806087 -0.43721387 0.8140112
0.362728 -0.06629521 0.23563465 0.15812826 0.030785521 0.8445405 0.27752918 0.1116533
0.5000691 1.0047905 1.0045905 -0.19508484 1.0033908 1.002614 0.61758596 -0.03201465
-0.063487045 0.064350426 0.16628367 -1.0023152 -0.05632332 0.27808148 -0.1866624 -0.20428997
0.015211221 0.04634751 0.016979305 -0.51532394 -0.1095085 0.5254662 0.6108538 0.5243254
0.3352525 1.0011067 -0.014209509 0.061235126 0.15242049 0.023231411 0.27877104 0.10035917
-0.010046579 0.8832178 -0.0058990046 -0.3666539 -0.69113714 -0.9104759 0.10124894 -0.49982682
0.090041585 0.03644151 0.46297154 0.84116286 0.36219814 0.21317875 0.21816413 0.14281367
1.0037739 0.13188644 -0.056191504 1.0039738 0.3883859 -0.266707 -0.6708004 -0.032508608
0.13556741 0.082267016 0.32369065 0.18655059 -0.01871807 -0.16445678 0.2856751 0.21354826
0.03949409 0.1522728 1.0008941 1.0025439 0.6287831 1.0030727 1.0033674 -0.42510712
0.29604948 -0.00298091 -0.055720266 0.21701159 -0.34751788 0.16473155 0.18382733 -0.5010292
-0.04746717 1.0036058 1.0030774 0.6075983 -0.60774785 1.0040722 0.302518 0.86320126
-0.008135692 0.0036959688 -0.110341 0.0033617641 0.51581603 0.04147664 0.2974101 -0.08150117
1.0020093 1.002729 0.6464204 1.0015833 1.0056984 0.797937 0.60388625 -0.22191921
1.0070535 1.001425 0.17608112 0.22916129 0.26213083 -0.016194522 0.3691349 0.4442708
00000000: dfb8 4d3f 9587 693e fb88 803e 6bc8 f2be
00000010: 8d75 e13e e015 80bf 5201 383e 2639 c5be
00000020: 8410 c8bd 7475 6dbe df93 483d c6e8 c13e
00000030: bae2 773c 2eac 45bd f220 88bc 40c1 b03d
00000040: ae62 febb b0b6 c5bc 18ff 92bd de63 28bd
00000050: 3cc6 363f 8d38 123f 8ba8 17be afb4 bf3d
00000060: 6c82 803f e221 563d dac3 1c3f 4627 943c
00000070: 56b0 303f 3acd 433e 380b 4f3a 0552 bb3e
00000080: 04ce e63e 22f1 363f 32e7 3fbe d845 803f
00000090: 8a2b 803f 6416 213d ab4e b83c 5ad6 85be
000000a0: 7475 bd3d 561f 213f 79da acbe 93bc 18bc
000000b0: 55ce d2bd b271 ce3d 98f3 383d 2115 803f
000000c0: 7cb3 6abe b631 c5be 6e45 0a3f b06e 453f
000000d0: 8b22 933e b4d6 b63e 3078 0d3f ea16 f73e
000000e0: 99d7 803f 7a54 803f 2cd6 aa3e f404 c83d
000000f0: 3183 80bf 54fc 1dbf a3a8 173e 9926 86bd
00000100: a71c f1be 5bf1 df3e 525b 803f 8461 763f
00000110: 65e1 a53e f809 b03e 8b26 d03e a681 233e
00000120: cc10 efbc 9dac 5fbd f5db 553a e9e2 8b3c
00000130: f21b 4a3e f8e9 89bc ffe9 413e 8655 053f
00000140: aaf6 f9be 274a 3bbe 98b3 81bd 2bbe f83d
00000150: 9f75 cdbd 7048 503f 8fc0 193f a08b d13d
00000160: fbfa 40bf 8b89 f7be 7df9 20be 26af 7e3e
00000170: 8b11 013c 2e83 613d eeef c53c 99a6 283f
00000180: 3a89 163f 6b7e 803f a28e d7be 44cc 46bd
00000190: 9861 71be 4ef5 1ebe 822a 703d 25e5 61be
000001a0: a3ee 09be cf9a fe3e 1fcd 8d3e 2281 4abc
000001b0: 7226 81bd 51f9 bb3e d076 803f e77d 803f
000001c0: 0444 573e bc37 423f 5856 453f 2d12 1bbe
000001d0: ebef 1c3d f96e 9c3e 8805 e6bc 3687 973e
000001e0: e844 2ebe 82d8 8b3e 3c5d 803f f40d bd3d
000001f0: 49d6 e5bd bed6 c23e 6ca3 803f adc8 35bc
00000200: 5284 1d3f 659b 803f 1170 6dbf ca1d bcbe
00000210: 03b9 e43e c153 b7be 7fda dfbe 0a63 503f
00000220: 7cb7 b93e c8c5 87bd 364a 713e 60ec 213e
00000230: eb31 fc3c ce33 583f 4e18 8e3e 7caa e43d
00000240: 8704 003f fa9c 803f 6c96 803f 52c4 47be
00000250: 1c6f 803f a855 803f 1d1a 1e3f cb21 03bd
00000260: 7f05 82bd 28ca 833d 4446 2a3e dd4b 80bf
00000270: 48b3 66bd b260 8e3e 6e24 3fbe 6431 51be
00000280: 7c38 793c e3d6 3d3d 2f18 8b3c 45ec 03bf
00000290: fe45 e0bd f484 063f ea60 1c3f 303a 063f
000002a0: 37a6 ab3e 4424 803f 00cf 68bc afd1 7a3d
000002b0: 1e14 1c3e cd4f be3c 14bb 8e3e 1c89 cd3d
000002c0: 689a 24bc 901a 623f 704c c1bb 0fba bbbe
000002d0: 5dee 30bf f314 69bf 9b5b cf3d 4de9 ffbe
000002e0: b967 b83d b143 153d 9b0a ed3e 7356 573f
000002f0: 0972 b93e 884b 5a3e 6b66 5f3e bf3d 123e
00000300: aa7b 803f 3d0d 073e 1029 66bd 3782 803f
00000310: 84da c63e d28d 88be 93b9 2bbf bf27 05bd
00000320: 2fd2 0a3e 9c7b a83d c8ba a53e 1e07 3f3e
00000330: a356 99bc 5c67 28be 0244 923e 65ac 5a3e
00000340: 8ec4 213d 67ed 1b3e 4c1d 803f 5c53 803f
00000350: eef7 203f b064 803f 586e 803f a4a7 d9be
00000360: cc93 973e 5f5b 43bb ef3a 64bd 4938 5e3e
00000370: dded b1be 63af 283e 3b3d 3c3e 7343 00bf
00000380: ef6c 42bd 2876 803f d764 803f 908b 1b3f
00000390: 5d95 1bbf 7085 803f a4e3 9a3e c2fa 5c3f
000003a0: 914b 05bc 1138 723b 76fa e1bd 0b51 5c3b
000003b0: 850c 043f 69e3 293d 2346 983e 16ea a6bd
000003c0: d741 803f 6d59 803f cf7b 253f e233 803f
000003d0: baba 803f 9945 4c3f 4a98 1a3f ca3e 63be
000003e0: 21e7 803f b22e 803f 9c4e 343e 42a9 6a3e
000003f0: 0336 863e 60aa 84bc 40ff bc3e 7677 e33e

weight f4 [64]
1.0401891 1.550707 1.1943812 0.83073133 1.24249 0.98767364 0.87819785 1.240747
0.6471476 1.328307 1.1081805 1.0082924 1.4963351 1.646531 1.2416598 1.105964
1.7697943 1.625889 1.2811877 1.4747016 0.9429066 1.0508138 1.522267 1.1567165
1.4182985 0.89642376 1.3442963 1.3448867 0.5644143 1.7062308 1.208451 1.617106
1.1201411 1.2871811 1.5098648 0.9396242 0.9048484 1.3139813 1.1605777 0.9992869
1.440367 1.5410765 0.722836 1.3004489 0.8344413 0.88788575 0.9380622 0.79179025
0.7867463 1.1334555 1.1521639 1.1817292 1.6654993 1.2739182 1.512555 1.3480994
1.3202227 1.5044264 1.1812152 1.4214576 0.63398415 1.482107 1.012113 0.9250409
00000000: eb24 853f 917d c63f 7ce1 983f cfaa 543f
00000010: ea09 9f3f 2ed8 7c3f 93d1 603f ccd0 9e3f
00000020: 77ab 253f f705 aa3f dcd8 8d3f ba0f 813f
00000030: e987 bf3f 87c1 d23f b5ee 9e3f 3a90 8d3f
00000040: 9f88 e23f 211d d03f f5fd a33f 06c3 bc3f
00000050: 5462 713f 1181 863f a5d9 c23f 490f 943f
00000060: ce8a b53f 077c 653f e711 ac3f 3f25 ac3f
00000070: 757d 103f c565 da3f 86ae 9a3f 54fd ce3f
00000080: c960 8f3f 5ac2 a43f 4043 c13f 368b 703f
00000090: 25a4 673f 8a30 a83f cf8d 943f 44d1 7f3f
000000a0: f25d b83f ff41 c53f c80b 393f 1c75 a63f
000000b0: f29d 553f 7b4c 633f d824 703f c4b2 4a3f
000000c0: 3568 493f 1215 913f 1b7a 933f e742 973f
000000d0: 152f d53f c00f a33f 679b c13f 858e ac3f
000000e0: 0ffd a83f 0b91 c03f 0f32 973f 53f2 b53f
000000f0: c94c 223f afb5 bd3f eb8c 813f 7bcf 6c3f

bias f4 [64]
-1.9609888 -0.7524446 -1.2008133 -0.26981732 0.6535496 -1.7590486 0.29717478 -0.69439954
0.31899944 -0.43559787 -2.0229263 0.2996768 -0.55050343 -0.90691143 0.32454506 -0.3687378
-0.6465153 0.43036377 -1.2351999 0.22623438 -1.2741679 -0.2671385 -1.1164931 -1.4022065
-1.5001317 0.25757053 -0.2811852 -0.75886714 0.19390534 -1.0636337 -0.48157203 -0.9283355
-1.1081171 -0.13961346 -0.78195864 -0.15664358 0.31141517 0.57656264 -1.040162 0.62086946
0.2736398 0.0842925 0.55244017 -1.510697 0.32802477 -0.554554 -0.66218466 0.0038709461
0.37153706 0.49485028 -0.21167171 -0.092406176 0.14095606 0.66949356 -0.41688612 -1.1173532
-1.5107465 -0.8688769 -1.5283209 -0.16879308 0.1139907 -1.1909347 0.68041784 0.0071966383
00000000: ae01 fbbf 36a0 40bf 40b4 99bf 7f25 8abe
00000010: 074f 273f 8128 e1bf 4b27 983e 2bc4 31bf
00000020: e553 a33e af06 dfbe a077 01c0 3d6f 993e
00000030: cbed 0cbf 592b 68bf c52a a63e 33cb bcbe
00000040: 0782 25bf a458 dc3e 081b 9ebf fca9 673e
00000050: ef17 a3bf 61c6 88be 3fe9 8ebf 817b b3bf
00000060: 5104 c0bf 49e0 833e 82f7 8fbe 1e45 42bf
00000070: 1f8f 463e 2625 88bf 9c90 f6be 65a7 6dbf
00000080: c8d6 8dbf d5f6 0ebe 712e 48bf 2d67 20be
00000090: cf71 9f3e 9c99 133f 0724 85bf 4df1 1e3f
000000a0: 841a 8c3e 8ca1 ac3d b86c 0d3f 855e c1bf
000000b0: ddf2 a73e 40f7 0dbf ef84 29bf b3af 7d3b
000000c0: 1b3a be3e 045d fd3e 78c0 58be 733f bdbd
000000d0: c956 103e ee63 2b3f 1972 d5be 6e05 8fbf
000000e0: 2460 c1bf b76e 5ebf 05a0 c3bf 18d8 2cbe
000000f0: f573 e93d 8c70 98bf dd2f 2e3f c7d1 eb3b

running_mean f4 [64]
-30.081009 -17.507755 -6.8648043 -3.5365043 -1.3800604 -25.218277 1.6031809 2.0652802
-6.272742 -14.683307 -18.621796 -28.259865 -13.312205 -23.033876 -7.7772207 -8.227291
-2.4231339 -6.6977067 -10.899961 -25.977365 -16.956587 -14.896177 -21.516613 -10.364373
-23.771135 -6.785333 -19.425245 -2.4087117 -3.7223108 -29.336607 -15.249702 -19.967813
-22.988516 -15.044543 -10.971586 -13.31702 -8.114462 -10.365394 -18.499773 -33.8024
-12.02607 -8.709917 -8.21905 -21.121788 -7.4372497 -11.302365 -18.908081 -10.962429
-7.6632705 -23.430536 -10.712504 4.9677744 -12.427884 -1.4240122 -8.361746 -0.6784247
-23.347687 -18.774158 -18.963518 -12.981358 -14.701671 -9.232904 -5.297244 -28.947792
00000000: e8a5 f0c1 e20f 8cc1 7aac dbc0 1656 62c0
00000010: d2a5 b0bf 08bf c9c1 0835 cd3f 8d2d 0440
00000020: 4dba c8c0 d3ee 6ac1 70f9 94c1 3414 e2c1
00000030: cbfe 54c1 6145 b8c1 fede f8c0 fca2 03c1
00000040: a014 1bc0 9d53 d6c0 3e66 2ec1 a5d1 cfc1
00000050: 17a7 87c1 be56 6ec1 0622 acc1 79d4 25c1
00000060: 492b bec1 7321 d9c0 e766 9bc1 5528 1ac0
00000070: 573a 6ec0 5fb1 eac1 c8fe 73c1 15be 9fc1
00000080: 7be8 b7c1 73b6 70c1 9e8b 2fc1 8412 55c1
00000090: d6d4 01c1 a7d8 25c1 89ff 93c1 a835 07c2
000000a0: c86a 40c1 d25b 0bc1 3b81 03c1 6cf9 a8c1
000000b0: f3fd edc0 7dd6 34c1 c043 97c1 1c66 2fc1
000000c0: 8339 f5c0 bd71 bbc1 6b66 2bc1 02f8 9e40
000000d0: 9dd8 46c1 0846 b6bf b6c9 05c1 3ead 2dbf
000000e0: 10c8 bac1 7a31 96c1 49b5 97c1 a4b3 4fc1
000000f0: 0b3a 6bc1 fab9 13c1 0683 a9c0 1495 e7c1

running_var f4 [64]
160.54007 94.07689 83.66042 76.03741 77.27129 97.547 110.370346 116.47027
50.04623 72.41128 91.888084 216.40144 66.66596 93.259285 141.8594 64.23229
68.77205 196.12474 48.233303 216.16853 103.83586 187.5998 134.68367 66.23107
106.550446 81.35856 108.330376 78.02785 53.30469 166.96716 81.97623 105.427704
134.48753 105.84305 59.55284 131.74194 106.53402 84.2558 156.85283 321.52695
129.19217 133.31303 83.856285 97.801704 68.50986 70.49702 86.6477 118.92058
78.74841 203.28238 138.32272 86.44506 123.92399 77.37919 57.99522 53.804188
106.44821 77.435684 93.39915 59.297344 99.51524 56.76809 53.953278 186.27141
00000000: 428a 2043 5e27 bc42 2352 a742 2713 9842
00000010: e78a 9a42 1018 c342 9ebd dc42 c7f0 e842
00000020: 572f 4842 93d2 9042 b3c6 b742 c566 5843
00000030: f954 8542 c184 ba42 02dc 0d43 ef76 8042
00000040: 4a8b 8942 ef1f 4443 e7ee 4042 252b 5843
00000050: f6ab cf42 8c99 3b43 05af 0643 4f76 8442
00000060: d419 d542 95b7 a242 27a9 d842 420e 9c42
00000070: 0138 5542 98f7 2643 d4f3 a342 fcda d242
00000080: cf7c 0643 a4af d342 1c36 6e42 f0bd 0343
00000090: 6b11 d542 f882 a842 53da 1c43 73c3 a043
000000a0: 3231 0143 2350 0543 6bb6 a742 799a c342
000000b0: 0c05 8942 79fe 8c42 9f4b ad42 56d7 ed42
000000c0: 307f 9d42 4a48 4b43 9e52 0a43 dfe3 ac42
000000d0: 15d9 f742 25c2 9a42 1bfb 6742 7d37 5742
000000e0: 7ce5 d442 12df 9a42 5dcc ba42 7b30 6d42
000000f0: ce07 c742 8612 6342 28d0 5742 7b45 3a43

weights f4 [12288, 1]
-0.02652789 0.8171691 0.24219555 -0.30125588 0.24659331 -0.33935317 0.4000695 0.6154379
0.5039847 -0.3467537 0.29372087 -0.04712598 -0.6639839 0.16358353 -0.20674394 0.045869604
-0.034791283 0.10639891 -0.5157466 0.04549215 0.10251084 0.3341641 0.49506143 0.77633834
0.014976239 0.3208734 0.40599403 0.18742517 -0.5579004 -0.106619656 0.05351744 0.30033165
-0.054820847 -1.0031836 0.13905151 -0.18091497 -1.0018249 -0.7391288 -0.1495306 -0.21864524
-0.124864064 0.225432 -0.77371156 -0.022768214 0.38524276 0.0034107058 0.3490337 0.20621619
-0.4521787 -0.47582388 -0.6749652 -0.7679171 -0.32278776 0.089889154 0.9932971 0.17036785
0.2549313 0.024749473 0.5810375 -0.06919897 0.22825907 0.92258227 0.34169888 -0.05760778
-0.021442141 0.100927986 -1.0040559 -0.017065996 0.23235571 0.45966667 0.5082656 0.40175727
0.0018170415 0.576442 0.23932326 0.008599358 0.5647534 -0.21711914 -0.98793405 0.027140168
-0.41781706 1.0031266 1.0047723 0.43085802 -1.0028509 0.015335698 -0.107887216 -1.0024198
-0.000619549 -0.2976444 -0.4488512 0.29690817 -0.0136691965 -1.0005665 -0.27879134 -0.18162091
-0.15043838 0.5277244 0.3406191 0.31038126 -0.062412515 -0.09082386 -0.92418313 -0.30877352
0.07609086 -0.2837183 0.25507647 0.046488672 -0.11050919 0.2801477 0.00517063 -0.61481345
-0.43700767 0.00453656 0.0941697 0.8313541 0.51206326 -0.44914228 0.20477042 -0.16327628
-0.44576076 0.20733796 -0.0033878852 -0.66691256 -0.21827567 -0.10613637 0.03437313 0.009838274
-0.0017372394 0.27138785 1.004224 1.002874 -0.019523794 0.16597712 0.20325324 0.5071377
0.38529608 0.063284904 -0.49730283 -0.44220385 -0.061092418 -0.6158615 0.20789601 0.19852506
-0.31861433 0.25832966 0.18908255 -0.6049669 -0.037952766 -0.1004537 -0.37370574 0.02018601
-0.09039435 0.66176856 0.45443833 0.15022506 -0.5795496 -0.2482053 -0.22098641 -1.0045856
-1.0032705 -0.74906635 0.5927413 0.77085567 0.11680782 -0.29264885 -0.7426747 0.06466412
-0.61174417 -0.008569343 -0.65391684 -0.6165347 -0.30498064 0.09520175 1.0012074 1.0027872
1.0005336 -0.12141817 0.1987318 -0.0076741693 -0.31423855 0.05947647 0.2536571 0.16961429
-0.13786168 0.1666636 -1.0031084 -0.18353195 -0.22494869 0.029643428 0.28190467 0.4989113
0.36762118 -1.0016272 0.6723551 -0.5968419 -0.777149 0.26590037 -1.0038465 -0.02459135
-0.23505028 -0.04973298 -0.02322107 0.1560504 -0.31466946 -0.17366263 0.04378856 0.1322495
-1.0038004 0.46182528 -0.068283595 -0.000716263 0.72112375 0.0015269177 0.052551538 0.33229533
-0.4093424 0.22455157 0.40222752 -0.20783356 -0.73421973 -0.5957936 0.72241575 -1.0037261
-0.4188122 -0.25601086 -0.239735 0.03296785 -0.39456868 0.12666084 1.0037367 -0.021412713
-1.0061239 -0.88169897 -0.3973307 0.003836351 0.6629495 -0.64730984 -0.023703475 0.25806454
-0.5573127 -0.6776143 1.0016295 -0.338991 -0.050802097 0.93902194 -0.39538386 -0.6187104
-1.0011884 0.18367182 0.042734813 0.16996452 -0.897157 -0.34206834 0.2676237 0.06971668
00000000: 0451 d9bc fe31 513f 1c02 783e 363e 9abe
00000010: f582 7c3e b3bf adbe e9d5 cc3e 578d 1d3f
00000020: 2405 013f b389 b1be 9562 963e 2c07 41bd
00000030: d9fa 29bf 7182 273e afb4 53be c4e1 3b3d
00000040: 4e81 0ebd ace7 d93d f807 04bf fa55 3a3d
00000050: 34f1 d13d 8f17 ab3e b178 fd3e 1cbe 463f
00000060: e65e 753c 8549 a43e 73de cf3e 62ec 3f3e
00000070: 90d2 0ebf 685b dabd 1a35 5b3d 12c5 993e
00000080: d38b 60bd 5268 80bf 8563 0e3e c641 39be
00000090: cc3b 80bf 8c37 3dbf 8d1e 19be 8ae4 5fbe
000000a0: bbb8 ffbd a5d7 663e f611 46bf 6884 babc
000000b0: 8a3e c53e 2686 5f3b 8cb4 b23e 562a 533e
000000c0: f783 e7be 309f f3be 85ca 2cbf 3796 44bf
000000d0: 7044 a5be ce17 b83d b848 7e3f e974 2e3e
000000e0: 5b86 823e 68bf ca3c e0be 143f 31b8 8dbd
000000f0: bfbc 693e 5a2e 6c3f 28f3 ae3e 23f6 6bbd
00000100: 6ea7 afbc 55b3 ce3d e784 80bf fdcd 8bbc
00000110: a8ee 6d3e 6e59 eb3e b21d 023f 21b3 cd3e
00000120: cc29 ee3a b491 133f 2811 753e 52e4 0c3c
00000130: ae93 103f 7b54 5ebe 3fe9 7cbf 0f55 de3c
00000140: 1eec d5be 7466 803f 619c 803f 6c99 dc3e
00000150: 6b5d 80bf 9442 7b3c f9f3 dcbd 4b4f 80bf
00000160: 3b69 22ba d964 98be d3cf e5be 5904 983e
00000170: c4f4 5fbc 9012 80bf bdbd 8ebe d5fa 39be
00000180: 850c 1abe f218 073f a065 ae3e 4bea 9e3e
00000190: 44a4 7fbd dc01 babd 4497 6cbf 9017 9ebe
000001a0: 86d5 9b3d 8643 91be 6299 823e e86a 3e3d
000001b0: a452 e2bd 856f 8f3e 636e a93b 6a64 1dbf
000001c0: 78bf dfbe 6ca7 943b 0bdc c03d 9fd3 543f
000001d0: 9416 033f faf5 e5be 56af 513e e631 27be
000001e0: c13a e4be 6750 543e 4807 5ebb c8ba 2abf
000001f0: a883 5fbe 065e d9bd d7ca 0c3d b630 213c
00000200: 15b4 e3ba 59f3 8a3e 698a 803f 2d5e 803f
00000210: 5df0 9fbc e8f5 293e 9e21 503e c7d3 013f
00000220: 8745 c53e 849b 813d 7a9e febe 8b68 e2be
00000230: 0b3c 7abd 19a9 1dbf b1e2 543e 274a 4b3e
00000240: 6b21 a3be c943 843e db9e 413e 1cdf 1abf
00000250: 5c74 1bbd abba cdbd 5c56 bfbe 225d a53c
00000260: ac20 b9bd aa69 293f 24ac e83e 99d4 193e
00000270: 5d5d 14bf 8829 7ebe 434a 62be 4396 80bf
00000280: 2b6b 80bf d0c2 3fbf e5bd 173f cc56 453f
00000290: f038 ef3d 12d6 95be ee1f 3ebf 9f6e 843d
000002a0: 449b 1cbf 6e66 0cbc 1867 27bf 38d5 1dbf
000002b0: 6c26 9cbe 23f9 c23d 9027 803f 555b 803f
000002c0: 7c11 803f 17aa f8bd 5980 4b3e 9977 fbbb
000002d0: e0e3 a0be 999d 733d 58df 813e 5eaf 2d3e
000002e0: 9d2b 0dbe dda9 2a3e db65 80bf cdef 3bbe
000002f0: f358 66be c6d6 f23c cf55 903e 4d71 ff3e
00000300: d838 bc3e 5235 80bf 771f 2c3f a1ca 18bf
00000310: 3df3 46bf 1824 883e 0b7e 80bf cd73 c9bc
00000320: 05b1 70be cfb4 4bbd 1d3a bebc adcb 1f3e
00000330: 5b1c a1be 9ed4 31be a25b 333d 6a6c 073e
00000340: 887c 80bf 5d74 ec3e 45d8 8bbd 99c3 3bba
00000350: 919b 383f db22 c83a 4840 573d 9d22 aa3e
00000360: 5495 d1be d9f0 653e c4f0 cd3e 52d2 54be
00000370: d3f5 3bbf ee85 18bf 3df0 383f 197a 80bf
00000380: 8d6e d6be db13 83be 187d 75be 4c09 073d
00000390: e804 cabe 61b3 013e 727a 803f b769 afbc
000003a0: abc8 80bf 06b7 61bf ee6e cbbe 4a6b 7b3b
000003b0: 0fb7 293f 19b6 25bf ca2d c2bc 0921 843e
000003c0: 0cac 0ebf 2178 2dbf 6535 803f 3a90 adbe
000003d0: dc15 50bd be63 703f c16f cabe ce63 1ebf
000003e0: f126 80bf 7714 3c3e b30a 2f3d 2e0b 2e3e
000003f0: 15ac 65bf 9523 afbe f905 893e 9ec7 8e3d
